best_models/best-model.pt (torch, 492129 bytes, 40 tensors)

weight_ih_l0 f4 [12, 10]
-0.1886478 -0.0037884768 -0.16624431 -0.18337765 -0.26620075 0.5766944 0.3501851 -0.047288146
0.21453825 -0.20351802 -0.25854528 0.04290732 -0.30935338 -0.026043322 0.35641414 0.08659908
-0.25364026 0.01577269 -0.31461442 -0.22398661 0.007975481 0.1821916 0.35085797 -0.02360481
0.041283287 -0.028553763 0.39022025 0.60056293 0.19841821 0.017168483 -0.07567523 0.31183898
0.21545343 0.014472318 -0.03082756 -0.0047451183 -0.34366167 0.089183986 -0.19953334 -0.03285917
0.054531876 0.35114923 -0.41271394 -0.14208354 -0.27322993 0.40885928 -0.348962 0.11470658
-0.069283776 -0.06064417 -0.018892657 0.25024354 0.25689545 0.021991838 -0.24112873 -0.62042737
0.31130162 -0.15799 -0.26871556 0.22120307 0.020311343 0.35175884 0.35824457 0.0013911856
0.54753476 0.32874835 -0.045139436 -0.51072043 0.048403025 0.19615155 0.11052854 0.21165717
-0.40448424 -0.08528174 -0.4288508 0.61677784 0.16016091 0.3697935 -0.04608083 -0.012392435
-0.16629098 0.47919416 -0.24894875 0.007018319 0.008921398 0.3530651 -0.25506735 0.07469331
0.1286859 0.010923765 -0.0715286 0.21455927 -0.29338872 -0.019925844 0.41836575 -0.43510026
0.24382201 -0.027948972 0.16505231 -0.032388054 0.13969043 -0.27308184 0.05143928 -0.22187264
0.45788062 -0.062389143 0.5380787 0.10070697 0.04262636 0.04317561 0.12629007 0.4254896
0.1636971 -0.021206265 -0.40281972 -0.3627536 0.44062084 0.30317405 0.61059564 0.052845735
00000000: e42c 41be 1848 78bb f33b 2abe 5ac7 3bbe
00000010: 774b 88be 3fa2 133f 764b b33e 37b1 41bd
00000020: eaaf 5b3e 0767 50be 0c60 84be 96bf 2f3d
00000030: 9163 9ebe ce58 d5bc ea7b b63e dc5a b13d
00000040: 23dd 81be ba35 813c 2415 a1be bf5c 65be
00000050: 98ab 023c 6f90 3a3e a8a3 b33e e05e c1bc
00000060: aa18 293d 95e9 e9bc f3ca c73e 7ebe 193f
00000070: 252e 4b3e eba4 8c3c 9dfb 9abd 5ca9 9f3e
00000080: d39f 5c3e 4d1d 6d3c 148a fcbc f07c 9bbb
00000090: 6cf4 afbe 18a6 b63d 7852 4cbe 5697 06bd
000000a0: d15c 5f3d d5c9 b33e 3e4f d3be 597e 11be
000000b0: cbe4 8bbe 0156 d13e 26ab b2be 49eb ea3d
000000c0: a7e4 8dbd 0566 78bd c6c4 9abc ec1f 803e
000000d0: cd87 833e 3a28 b43c 73ea 76be 54d4 1ebf
000000e0: ed62 9f3e 21c8 21be 1695 89be 0f83 623e
000000f0: f963 a63c bc19 b43e d56b b73e 7158 b63a
00000100: 3d2b 0c3f b451 a83e 21e4 38bd 93be 02bf
00000110: 4042 463d f4db 483e ca5c e23d a8bc 583e
00000120: 8f18 cfbe 31a8 aebd 5592 dbbe 27e5 1d3f
00000130: 3901 243e 9355 bd3e 41bf 3cbd a409 4bbc
00000140: 2f48 2abe f058 f53e 6cec 7ebe edf9 e53b
00000150: 0e2b 123c f3c4 b43e 3098 82be cef8 983d
00000160: 3dc6 033e 97f9 323c 967d 92bd 6db5 5b3e
00000170: 0c37 96be 863b a3bc 0934 d63e 76c5 debe
00000180: 7aac 793e 3ef5 e4bc 7903 293e 56a9 04bd
00000190: 020b 0f3e 62d1 8bbe ffb1 523d 9532 63be
000001a0: 546f ea3e c28b 7fbd 87bf 093f 753f ce3d
000001b0: fa98 2e3d e9d8 303d 2f52 013e c6d9 d93e
000001c0: 36a0 273e c3b8 adbc 633e cebe d7ba b9be
000001d0: 0e99 e13e a139 9b3e ff4f 1c3f c574 583d

weight_hh_l0 f4 [12, 4]
0.63801664 -0.0036878586 -0.45436013 0.30218965 -0.2597837 -0.4881265 0.040155757 -0.31441823
-0.40016654 -0.11829299 -0.26991218 -0.24377756 -0.15324055 -0.24044485 -0.040209495 -0.057430416
0.27781296 0.48137572 0.33183607 -0.47205883 0.373402 0.21627966 -0.32328567 0.12846012
-0.5029207 0.5016684 -0.28307447 -0.16765271 0.5535196 0.4268224 0.2655681 -0.1623591
0.16262938 0.104172505 0.4538114 0.5688463 0.083732374 0.42964572 -0.34911177 -0.46918565
-0.0021926821 -0.25041285 0.18582371 0.5852014 0.46525878 -0.23250802 0.119087055 0.26250917
00000000: 0f55 233f 00b0 71bb e4a1 e8be 9ab8 9a3e
00000010: 5e02 85be b7eb f9be 5d7a 243d 6dfb a0be
00000020: a1e2 ccbe 9843 f2bd ee31 8abe d3a0 79be
00000030: 17eb 1cbe 2d37 76be b6b2 24bd 283c 6bbd
00000040: 803d 8e3e e176 f63e 6be6 a93e b2b1 f1be
00000050: 8c2e bf3e 6a78 5d3e b385 a5be 0d8b 033e
00000060: 69bf 00bf 576d 003f 23ef 90be 27ad 2bbe
00000070: 76b3 0d3f 7788 da3e 8bf8 873e 7741 26be
00000080: 5188 263e 6558 d53d f859 e83e e99f 113f
00000090: e17b ab3d 86fa db3e c7be b2be 1a39 f0be
000000a0: 1ab3 0fbb 1d36 80be 9248 3e3e c2cf 153f
000000b0: 6636 ee3e 9516 6ebe eae3 f33d 9a67 863e

bias_ih_l0 f4 [12]
-0.006095383 -0.2773942 -0.09677656 -0.42321402 0.38828775 -0.2460501 -0.22281857 -0.32526824
0.23322868 -0.07338872 0.36127186 0.24414854
00000000: c7bb c7bb 9d06 8ebe ca32 c6bd 82af d8be
00000010: a7cd c63e 8ff4 7bbe 8d2a 64be 8f89 a6be
00000020: 80d3 6e3e d34c 96bd a0f8 b83e 1302 7a3e

bias_hh_l0 f4 [12]
-0.28091717 -0.12101269 -0.061319638 -0.29586977 -0.3166025 -0.062068306 0.2852884 0.47709438
0.029211216 -0.01438312 -0.18090846 -0.1146775
00000000: 60d4 8fbe 80d5 f7bd 4d2a 7bbd 3e7c 97be
00000010: b919 a2be 563b 7ebd 5211 923e b745 f43e
00000020: 5c4c ef3c 2ea7 6bbc 1140 39be 0adc eabd

weight_ih_l0 f4 [12, 14]
-0.00455134 -0.3418852 0.27682105 0.12291353 0.31875908 -0.3988965 -0.20342883 0.1787895
0.4521926 -0.19696176 -0.008787305 -0.0023442877 0.07735619 -0.37683943 -0.18103352 0.28058958
0.34753188 -0.26238742 -0.027683156 0.55294037 0.5014314 -0.008374577 0.098214105 0.020584023
-0.124498725 -0.3365803 0.46078295 -0.39287302 -0.35734335 0.02572024 0.16516954 0.25077528
0.57977635 -0.29477513 -0.3296534 -0.08363289 0.11447244 -0.19615173 -0.024171995 -0.03973883
-0.40792215 0.20949064 0.22673303 0.2501919 0.2721889 0.26820084 -0.25933942 -0.21114756
-0.38527608 -0.23993586 -0.48716885 0.2687548 -0.028230105 0.3953972 -0.1606183 -0.3745065
0.30011475 -0.1802542 0.43421027 0.0068176817 -0.46136075 -0.40490854 0.17664215 -0.13118967
-0.11897399 0.078249656 0.24577488 -0.30019405 -0.011469442 -0.03570761 0.017001037 0.21612507
0.14275987 0.26077 0.08911454 -0.15075566 -0.43854958 -0.5647041 -0.025421174 0.2009325
-0.02044684 -0.08571696 -0.36872238 -0.31852368 0.32417682 -0.4062073 -0.13111754 -0.61868995
-0.45295927 -0.2218588 0.11180275 0.02009972 -0.30759782 0.05703527 -0.13445917 0.27484512
0.31346837 -0.123970866 -0.2936469 0.46530628 -0.28432065 -0.4261612 -0.074472874 -0.4279341
0.2003553 -0.5238708 -0.13328576 0.009877747 0.16413903 -0.111748494 -0.0030966518 -0.19326483
0.20247497 -0.1894378 0.2550968 0.5657767 0.41067958 -0.36353242 0.008143769 0.5713962
0.2236542 -0.002022609 0.07870784 0.559292 -0.16067132 0.027564872 -0.3645397 0.025724387
-0.1962046 -0.5406199 -0.10255196 0.40049893 0.37740716 -0.2822055 -0.25564653 0.14337897
0.011488333 -0.25193888 -0.587032 -0.42701724 -0.22445522 0.04171506 -0.23057641 0.046686094
-0.50685203 0.30089167 -0.45850855 0.21446276 0.1898965 0.20699587 -0.097271845 -0.12439879
0.07599713 -0.25528216 -0.36633477 0.22816993 0.026698237 -0.0034602184 -0.40240923 -0.54143465
-0.13131739 -0.3053691 -0.09838786 -0.028293861 0.06104036 -0.288871 -0.5792578 0.14959049
00000000: 6823 95bb 940b afbe 7dbb 8d3e 17ba fb3d
00000010: 6434 a33e 293c ccbe a64f 50be 9814 373e
00000020: ca85 e73e 58b0 49be a1f8 0fbc 9fa2 19bb
00000030: ec6c 9e3d 19f1 c0be da60 39be 70a9 8f3e
00000040: b3ef b13e a557 86be c9c7 e2bc 808d 0d3f
00000050: cf5d 003f 8635 09bc 7a24 c93d d39f a83c
00000060: 30f9 febd 4154 acbe beeb eb3e a726 c9be
00000070: b5f5 b6be 41b3 d23c 3422 293e 9e65 803e
00000080: 396c 143f c4ec 96be 55c8 a8be b847 abbd
00000090: 8770 ea3d 00dc 48be 5904 c6bc 2fc5 22bd
000000a0: 2cdb d0be b784 563e b42c 683e 2719 803e
000000b0: 585c 8b3e 9f51 893e 23c8 84be 1137 58be
000000c0: e842 c5be bfb1 75be 326e f9be 3b9a 893e
000000d0: d242 e7bc 8071 ca3e 2079 24be 51bf bfbe
000000e0: a4a8 993e 8f94 38be cf50 de3e dc66 df3b
000000f0: 7a37 ecbe 2c50 cfbe aee1 343e 9656 06be
00000100: a3a8 f3bd 5b41 a03d 69ac 7b3e 09b3 99be
00000110: 54ea 3bbc 2542 12bd c245 8b3c e44f 5d3e
00000120: a52f 123e a583 853e af81 b63d b15f 1abe
00000130: 9289 e0be 7390 10bf 1140 d0bc 40c1 4d3e
00000140: 2280 a7bc 608c afbd 2ec9 bcbe 8915 a3be
00000150: 81fa a53e 67fa cfbe ad43 06be 7762 1ebf
00000160: 47ea e7be f42e 63be d7f8 e43d 2ba8 a43c
00000170: 767d 9dbe d19d 693d aaaf 09be 80b8 8c3e
00000180: ed7e a03e 70e4 fdbd e358 96be a03c ee3e
00000190: 7a92 91be cd31 dabe 3c85 98bd 2e1a dbbe
000001a0: f129 4d3e 661c 06bf 107c 08be 46d6 213c
000001b0: 1014 283e 65dc e4bd 32f1 4abb 37e7 45be
000001c0: 9955 4f3e fcfb 41be 0c9c 823e bed6 103f
000001d0: 9844 d23e ec20 babe 716d 053c 0547 123f
000001e0: 9b05 653e c08d 04bb 9331 a13d c32d 0f3f
000001f0: 0687 24be bacf e13c f3a4 babe f3bb d23c
00000200: dce9 48be 1166 0abf c306 d2bd 320e cd3e
00000210: 833b c13e 3d7d 90be 1ae4 82be f0d1 123e
00000220: 9039 3c3c 22fe 80be bb47 16bf 01a2 dabe
00000230: 97d7 65be 69dd 2a3d 391c 6cbe eb39 3f3d
00000240: 0ec1 01bf 790e 9a3e a2c1 eabe 209c 5b3e
00000250: 3a74 423e baf6 533e 7636 c7bd cbc4 febd
00000260: 62a4 9b3d 58b4 82be 3b90 bbbe 61a5 693e
00000270: 43b6 da3c d5c4 62bb 9508 cebe 769b 0abf
00000280: 1178 06be 5759 9cbe 937f c9bd 87c8 e7bc
00000290: 7505 7a3d e6e6 93be 3d4a 14bf 402e 193e

weight_hh_l0 f4 [12, 4]
0.21682651 0.23493007 -0.013169734 0.53702873 -0.3220324 -0.295233 0.39816988 -0.15423785
0.039930373 -0.22723854 0.07825724 -0.10754646 0.22323386 -0.07500894 0.16189404 -0.11146823
0.41722965 -0.10105833 -0.59892917 0.33519194 0.0051306738 -0.38152087 0.3227199 -0.41547146
0.056726795 -0.29205966 -0.44763765 0.2750129 0.18917434 0.20668596 -0.011526236 0.31975213
0.2288735 -0.47740194 -0.14520681 -0.11231072 -0.03556064 -0.19362992 -0.61223966 -0.2600171
0.033604253 -0.16557476 -0.21392311 -0.044880867 0.10249118 0.44838864 -0.6204271 0.0029833482
00000000: c507 5e3e 8291 703e dec5 57bc b77a 093f
00000010: 6ee1 a4be c828 97be ecdc cb3e 87f0 1dbe
00000020: 088e 233d 38b1 68be 5545 a03d 5241 dcbd
00000030: 6b97 643e 4a9e 99bd 8dc7 253e 7549 e4bd
00000040: 209f d53e abf7 cebd 6c53 19bf 479e ab3e
00000050: 361f a83b b456 c3be 8b3b a53e adb8 d4be
00000060: 5b5a 683d d888 95be c330 e5be 7ece 8c3e
00000070: ebb6 413e 7ca5 533e 8ad8 3cbc 8db6 a33e
00000080: d15d 6a3e 076e f4be 18b1 14be 2a03 e6bd
00000090: 09a8 11bd ec46 46be bdbb 1cbf f620 85be
000000a0: 9da4 093d 6e8c 29be a90e 5bbe 00d5 37bd
000000b0: e5e6 d13d 3293 e53e 4fd4 1ebf 4784 433b

bias_ih_l0 f4 [12]
0.06365984 -0.0035149218 -0.045140084 -0.47805098 0.3920266 -0.5826693 0.02734633 -0.3200908
0.47395572 -0.27519152 -0.27201837 0.13812214
00000000: 1760 823d 9a5a 66bb cfe4 38bd 19c3 f4be
00000010: b6b7 c83e d129 15bf 6905 e03c f1e2 a3be
00000020: 53aa f23e e7e5 8cbe fe45 8bbe e46f 0d3e

bias_hh_l0 f4 [12]
-0.027742168 0.23367123 0.37282363 -0.17311959 -0.33336878 -0.48624992 -0.51941097 0.082296155
0.28606635 -0.18931589 -0.23565996 0.17619616
00000000: 8b43 e3bc 8347 6f3e bde2 be3e 4346 31be
00000010: 50af aabe c0f5 f8be 1ef8 04bf e38a a83d
00000020: 4a77 923e 06dc 41be d850 71be c46c 343e

weight_ih_l0 f4 [3, 11]
-0.14730778 0.8092584 0.38555855 -0.16100836 -0.69228053 0.23120697 0.68276924 -0.2995297
-0.8052478 -0.14864726 0.82029945 -0.7207575 0.78339803 -0.89051676 0.24850586 0.20772508
0.16768242 0.26243535 0.5112443 0.30331844 -0.69665456 0.38973773 -0.41681305 -0.017315663
0.6591248 -0.108540334 0.7844136 0.015916137 -0.65150994 -0.92607754 -0.03999748 -0.57649606
-0.96297294
00000000: dad7 16be 8f2b 4f3f ee67 c53e 60df 24be
00000010: 4c39 31bf 85c1 6c3e f7c9 2e3f f55b 99be
00000020: b824 4ebf fd36 18be 25ff 513f 9083 38bf
00000030: c68c 483f e8f8 63bf 5278 7e3e e2b5 543e
00000040: f1b4 2b3e ed5d 863e e8e0 023f 8e4c 9b3e
00000050: f457 32bf b48b c73e 8568 d5be 94d9 8dbc
00000060: 67bc 283f 654a debd 54cf 483f 8f62 823c
00000070: 5bc9 26bf 6b13 6dbf 66d4 23bd 3f95 13bf
00000080: 6585 76bf

weight_hh_l0 f4 [3, 1]
0.19495448 0.8368429 0.88874906
00000000: 26a2 473e 563b 563f 0f85 633f

bias_ih_l0 f4 [3]
-0.6802595 0.21129225 0.63614404
00000000: 7d25 2ebf ff5c 583e 56da 223f

bias_hh_l0 f4 [3]
-0.39580545 0.75424415 -0.13771953
00000000: 03a7 cabe 2516 413f 5906 0dbe

weight f4 [1, 4]
-0.15698385 -0.39297944 -0.09149432 0.07554789
00000000: 60c0 20be 9a34 c9be 6061 bbbd dab8 9a3d

weight f4 [200, 5]
0.12942684 -0.43462026 -0.3764219 0.06487101 0.24666423 -0.017697288 0.120414875 -0.0711301
-0.12438257 0.09404952 0.10216885 0.10570715 0.03706328 -0.06916583 0.249623 0.16851169
-0.10696202 0.15278065 0.2538857 -0.41996607 0.10153454 0.040991858 -0.27340576 -0.26834288
-0.44351226 -0.27953503 -0.12366138 0.08436539 0.24339601 0.22611293 0.05518945 -0.5118301
0.30856004 -0.42590046 0.028132215 -0.027889589 0.1681841 0.042456772 -0.05139294 -0.36071837
-0.38329145 -0.25095317 -0.4151367 -0.40167478 -0.105006605 0.37305328 0.0102421995 -0.3088725
0.06544363 0.024045873 -0.41140425 0.45422947 -0.07351034 -0.0051550954 0.2866451 -0.46758124
-0.027987966 0.47487122 0.29434285 -0.31709284 -0.015573551 0.019346353 0.40116054 -0.15589772
0.093964465 0.42109737 -0.08854308 -0.10931281 -0.43467262 -0.053755015 0.22402844 0.06590821
0.298408 0.17524582 0.034407303 -0.33904412 0.22082514 -0.053053085 -0.40026355 0.26465896
0.23936452 0.04489757 0.016493876 -0.44856146 0.10565439 -0.38697976 0.15952422 -0.3441724
0.30786285 0.37946048 -0.08320793 -0.276657 0.0861717 0.11334972 -0.032786366 -0.03460542
-0.40608492 0.33701476 -0.3960235 0.13906933 -0.07613158 -0.36083913 -0.23844492 0.036213562
-0.0034182544 -0.0025410845 0.1847701 -0.023659546 -0.05381975 -0.09857174 0.34047216 0.09828364
0.038322877 -0.13146913 -0.16297148 -0.23163557 0.35509187 -0.2738577 0.35788113 -0.22503404
0.16886936 0.22727321 0.17806265 -0.24335691 -0.38017938 -0.16652624 0.100903876 -0.2566931
0.44016516 0.43762097 -0.22663176 -0.48451728 -0.33383098 -0.18079144 -0.58034754 0.16777098
-0.37900585 0.05967775 -0.2645213 -0.236299 0.42445588 0.24603152 0.5129325 0.24237773
-0.33468023 -0.14029123 -0.26943648 -0.4181324 0.14359902 -0.49105996 0.3082503 -0.20649937
-0.48462516 0.2592253 -0.53756094 0.35632703 -0.060166683 -0.06990037 0.016015038 0.24177441
-0.24591355 -0.11805462 0.3200005 0.003777727 0.28262737 0.33739138 -0.086609624 -0.21935569
-0.43710077 -0.48515174 -0.04895064 -0.0035011554 -0.5112927 -0.012778027 -0.49568614 0.029575273
-0.04796626 0.15827312 0.013187839 0.015442446 -0.4172384 -0.10205259 0.16116628 0.14463146
0.07905889 -0.11656228 -0.16579926 0.34732315 0.19352362 0.32386133 -0.40681484 0.30412617
-0.3872325 0.21972437 0.44702563 -0.022207595 -0.16144626 -0.1592387 -0.28245598 0.24520114
-0.28670442 -0.16503935 0.12952323 0.15203649 0.02636935 0.17503557 -0.5334942 -0.29288518
-0.16437909 -0.0027979284 0.14195319 -0.42057735 -0.4600204 -0.23028833 -0.044779763 -0.269649
0.44685185 0.1735009 0.043471415 -0.24506344 -0.27539128 -0.23290765 0.33403483 0.38710156
-0.48436275 0.2482312 -0.10896152 -0.4651956 0.27295128 -0.34897193 0.22947247 -0.24761075
0.08583012 -0.092746094 -0.38493562 0.18241411 -0.14898205 0.43689078 0.0003921175 0.33978572
-0.02779878 -0.026244262 0.2622749 -0.0034558426 -0.25573558 0.025094729 0.22536744 -0.0842998
-0.1048592 0.049530864 0.18307099 -0.4052892 0.05062632 -0.34180722 0.014151831 0.07546105
00000000: 7888 043e 8c86 debe 5fba c0be 18db 843d
00000010: 8c95 7c3e e7f9 90bc 139c f63d a8ac 91bd
00000020: 4abc febd 099d c03d e73d d13d fe7c d83d
00000030: aacf 173d d1a6 8dbd 2c9d 7f3e 548e 2c3e
00000040: e70e dbbd 8872 1c3e 4efd 813e cb05 d7be
00000050: 57f1 cf3d 14e7 273d d7fb 8bbe 3d64 89be
00000060: 0a14 e3be 371f 8fbe 2d42 fdbd c3c7 ac3d
00000070: ce3c 793e 268a 673e 550e 623d 4c07 03bf
00000080: 95fb 9d3e a00f dabe 8875 e63c b578 e4bc
00000090: 7438 2c3e 27e7 2d3d 6781 52bd 14b0 b8be
000000a0: c73e c4be ef7c 80be cc8c d4be 51a8 cdbe
000000b0: b40d d7bd d700 bf3e e6ce 273c 8924 9ebe
000000c0: 4f07 863d dafb c43c 94a3 d2be c490 e83e
000000d0: 978c 96bd 13ec a8bb 26c3 923e cf66 efbe
000000e0: 0547 e5bc 5222 f33e 1bb4 963e fe59 a2be
000000f0: 3528 7fbc 3e7c 9e3c ea64 cd3e a7a3 1fbe
00000100: 7170 c03d 139a d73e 1356 b5bd 65df dfbd
00000110: 698d debe 382e 5cbd b667 653e e2fa 863d
00000120: efc8 983e a473 333e acee 0c3d 3197 adbe
00000130: fc1f 623e 314e 59bd 58ef ccbe 6181 873e
00000140: f91b 753e 84e6 373d 2a1e 873c d9a9 e5be
00000150: 5461 d83d 3622 c6be 515a 233e 5d37 b0be
00000160: 33a0 9d3e a548 c23e eb68 aabd fca5 8dbe
00000170: ca7a b03d e623 e83d ff4a 06bd 6abe 0dbd
00000180: 5dea cfbe 338d ac3e 98c3 cabe 3168 0e3e
00000190: e0ea 9bbd e8bf b8be e82a 74be ac54 143d
000001a0: cb04 60bb 5388 26bb 6034 3d3e aad1 c1bc
000001b0: 1972 5cbd fbdf c9bd 5e52 ae3e ef48 c93d
000001c0: 73f8 1c3d d89f 06be ffe1 26be e031 6dbe
000001d0: 9ace b53e 1437 8cbe 323c b73e 536f 66be
000001e0: 17ec 2c3e 4fba 683e 0e56 363e 8e32 79be
000001f0: dfa6 c2be db85 2abe b1a6 ce3d 476d 83be
00000200: 545d e13e db0f e03e 2812 68be a612 f8be
00000210: e5eb aabe 6421 39be a891 14bf 28cc 2b3e
00000220: 0e0d c2be a870 743d 566f 87be 5df8 71be
00000230: 4852 d93e b0ef 7b3e 8b4f 033f de31 783e
00000240: 355b abbe 81a8 0fbe 94f3 89be 7315 d6be
00000250: 9f0b 133e 366c fbbe fcd2 9d3e 9274 53be
00000260: ca20 f8be 2eb9 843e 989d 09bf 7f70 b63e
00000270: 5771 76bd ed27 8fbd f831 833c b693 773e
00000280: c3d0 7bbe 9fc6 f1bd 1bd7 a33e be93 773b
00000290: 89b4 903e 90be ac3e 6360 b1bd c79e 60be
000002a0: accb dfbe cf65 f8be 7780 48bd a473 65bb
000002b0: 14e4 02bf ee5a 51bc 93ca fdbe d847 f23c
000002c0: 4578 44bd 5912 223e ce11 583c 5002 7d3c
000002d0: 46a0 d5be f300 d1bd c608 253e 451a 143e
000002e0: a1e9 a13d 34b8 eebd 48c7 29be 57d4 b13e
000002f0: 0e2b 463e 27d1 a53e 094a d0be 6db6 9b3e
00000300: 5743 c6be 6dff 603e 8be0 e43e b4ec b5bc
00000310: 2b52 25be 780f 23be 129e 90be 0216 7b3e
00000320: ecca 92be 1300 29be bda1 043e 74af 1b3e
00000330: 8904 d83c 863c 333e 1393 08bf 0cf5 95be
00000340: fe52 28be 735d 37bb 2d5c 113e ea55 d7be
00000350: cb87 ebbe b4d0 6bbe fc6a 37bd 6f0f 8abe
00000360: c4c9 e43e 38aa 313e 150f 323d e9f1 7abe
00000370: 1600 8dbe 587f 6ebe 9d06 ab3e 2d32 c63e
00000380: 65fe f7be 5230 7e3e 3827 dfbd 1e2e eebe
00000390: 45c0 8b3e 73ac b2be d5fa 6a3e ac8d 7dbe
000003a0: b4c7 af3d aaf1 bdbd 4816 c5be c4ca 3a3e
000003b0: c08e 18be 26b0 df3e 1f95 cd39 65f8 ad3e
000003c0: 44ba e3bc 35fe d6bc e548 863e 6b7b 62bb
000003d0: c6ef 82be 7693 cd3c b9c6 663e 60a5 acbd
000003e0: 6cc0 d6bd e0e0 4a3d f676 3b3e 1182 cfbe
000003f0: 8b5d 4f3d 5b01 afbe 15dd 673c 538b 9a3d

bias f4 [200]
0.019047866 0.41631964 0.3908381 -0.25591344 0.18752022 0.10343047 0.0006799118 -0.30787662
-0.2145447 -0.09602589 0.06514577 0.023194795 -0.020100603 -0.23466687 -0.10548838 -0.21552944
0.34632376 0.19691415 -0.2790345 -0.25135228 -0.38624746 -0.20967138 0.37482053 0.15171288
0.22063154 -0.25222597 0.2663892 -0.25572678 -0.17792964 0.14475852 0.38246286 -0.28078297
0.026003903 -0.18587154 0.006628693 -0.14692181 0.038683295 0.19718096 -0.22573368 0.2871993
-0.11589217 -0.27478805 -0.07754673 -0.31933033 0.49272138 0.48791614 0.031913195 -0.0926212
-0.38658816 -0.1757884 0.095466435 0.32865188 -0.38341516 0.1399645 0.06627072 0.2362286
-0.113496594 -0.033134922 -0.054212682 -0.052686486 0.059673425 -0.38514578 -0.12362459 -0.18137082
0.2508305 -0.47801653 -0.0008742327 0.29369015 0.48906302 0.141965 0.1530361 -0.016884752
-0.04666505 0.21713948 -0.4238446 -0.020100001 0.23020726 0.023387956 0.011756666 -0.3807154
0.2231153 0.36022133 0.22688694 -0.039704412 -0.14174572 0.15331511 0.4510602 0.31257075
-0.06985423 -0.33494595 0.33203316 -0.08236218 0.039758306 0.39110655 -0.41583082 -0.29859698
-0.08531344 -0.07672208 0.24351731 -0.09648017 0.15007962 0.46403933 0.15559255 0.226002
0.37226835 0.16243282 -0.36996603 0.35322794 0.07082164 -0.3554326 -0.12610246 0.14098717
0.11598588 0.48794675 -0.05938247 0.31585848 -0.35481513 0.41105872 -0.038258515 0.32815474
0.026814913 -0.20067637 0.1544371 0.07682725 0.22795382 -0.06680397 0.00796817 -0.020648047
0.39770585 0.30926645 -0.1300228 0.45922264 0.009743527 0.519141 0.2878515 0.11024194
-0.2320483 0.24699311 -0.14819857 0.22363073 -0.10774994 -0.20535307 0.3651616 0.31770948
0.08718696 -0.12371294 -0.029705362 -0.24070959 -0.43108898 -0.24241902 0.39373615 0.07406796
-0.07145359 -0.3885283 0.16847344 0.48860407 -0.16082712 0.2821677 -0.23840155 -0.21939108
-0.44416294 -0.18064164 -0.1445695 -0.07288053 0.06945782 -0.22942683 0.39400333 0.21572438
-0.118689135 0.13903914 0.27442223 -0.23019134 0.13873467 0.34321845 0.21242827 0.1614899
-0.043108612 0.19852722 -0.119861566 -0.0110125905 -0.19079046 0.1607806 0.42046487 0.040468115
-0.118997276 -0.5004388 0.13347946 -0.17101592 0.3359265 -0.4282407 -0.34731764 -0.08938796
-0.329343 -0.15181181 -0.27691028 0.10231264 -0.11986331 0.16732621 -0.268077 -0.0016501236
00000000: 450a 9c3c d927 d53e ee1b c83e 1607 83be
00000010: 4d05 403e 5bd3 d33d 1c3c 323a 01a2 9dbe
00000020: 9bb1 5bbe 39a9 c4bd 256b 853d 0303 be3c
00000030: 05aa a4bc 834c 70be 4b0a d8bd c0b3 5cbe
00000040: 5951 b13e dda3 493e 9cdd 8ebe 3fb1 80be
00000050: 3ac2 c5be 18b4 56be 7ae8 bf3e 9f5a 1b3e
00000060: 3ced 613e c323 81be 2a64 883e 9fee 82be
00000070: 3033 36be 943b 143e 2cd2 c33e c9c2 8fbe
00000080: 2306 d53c 1c55 3ebe 8235 d93b ac72 16be
00000090: 6072 1e3d cee9 493e bb26 67be c90b 933e
000000a0: e058 edbd 05b1 8cbe d2d0 9ebd 447f a3be
000000b0: fa45 fc3e 25d0 f93e 69b7 023d 2fb0 bdbd
000000c0: e2ee c5be e001 34be e883 c33d 0f45 a83e
000000d0: fe4e c4be db52 0f3e f1b8 873d e9e5 713e
000000e0: e770 e8bd 7cb8 07bd 1e0e 5ebd c9cd 57bd
000000f0: 1f6c 743d d431 c5be e42e fdbd 46b9 39be
00000100: db6c 803e 95be f4be c32c 65ba 8e5e 963e
00000110: 7866 fa3e 465f 113e 7fb5 1c3e e451 8abc
00000120: da23 3fbd d059 5e3e 2902 d9be c2a8 a4bc
00000130: 74bb 6b3e 1998 bf3c 089f 403c 21ed c2be
00000140: 5678 643e ee6e b83e 0d55 683e 18a1 22bd
00000150: ca25 11be a3fe 1c3e 5df1 e63e 4609 a03e
00000160: bc0f 8fbd 097e abbe 4000 aa3e 81ad a8bd
00000170: 9bd9 223d 1e3f c83e c7e7 d4be b4e1 98be
00000180: d0b8 aebd 7720 9dbd 9a5c 793e 6597 c5bd
00000190: 79ae 193e 9096 ed3e a753 1f3e 116d 673e
000001a0: f599 be3e ca54 263e 306c bdbe 4bda b43e
000001b0: f00a 913d 43fb b5be 0121 01be f15e 103e
000001c0: 018a ed3d 28d4 f93e 083b 73bd 34b8 a13e
000001d0: 54aa b5be 4a76 d23e f6b4 1cbd e603 a83e
000001e0: f3aa db3c 1b7e 4dbe c224 1e3e 9b57 9d3d
000001f0: ba6c 693e 85d0 88bd ed8c 023c 1826 a9bc
00000200: 1aa0 cb3e 2c58 9e3e b224 05be 3b1f eb3e
00000210: 50a3 1f3c 6de6 043f 4661 933e 87c6 e13d
00000220: 129e 6dbe c3eb 7c3e 5ec1 17be 74ff 643e
00000230: 00ac dcbd 1348 52be 76f6 ba3e d1aa a23e
00000240: 148f b23d 365d fdbd a958 f3bc 937c 76be
00000250: b2b7 dcbe b13c 78be c997 c93e f1b0 973d
00000260: 4356 92bd 2eed c6be 4d84 2c3e 502a fa3e
00000270: ddaf 24be 4978 903e 891f 74be 0ea8 60be
00000280: 5369 e3be 1ffa 38be 070a 14be 6342 95bd
00000290: e73f 8e3d deee 6abe ceba c93e dae6 5c3e
000002a0: 4a13 f3bd 4760 0e3e 1281 8c3e 47b7 6bbe
000002b0: 7610 0e3e 54ba af3e cc86 593e 9c5d 253e
000002c0: a892 30bd b84a 4b3e fb79 f5bd 276e 34bc
000002d0: 935e 43be aba3 243e 2c47 d73e e5c1 253d
000002e0: d8b4 f3bd c21c 00bf d7ae 083e cc1e 2fbe
000002f0: 8ffe ab3e 5d42 dbbe 9ed3 b1be 0911 b7bd
00000300: a59f a8be 8e74 1bbe 2fc7 8dbe 4a89 d13d
00000310: e57a f5bd 9057 2b3e 6341 89be f648 d8ba

weight f4 [2, 200]
0.06686615 0.10938222 0.17295629 0.14122358 0.14341836 0.03817387 0.13787085 0.046410028
-0.031111145 0.16323347 0.14437819 0.12339078 0.13370869 0.13777079 0.046294805 0.15063873
0.2348343 0.14028928 0.12374161 0.12222131 0.11702257 -0.0016517899 0.08034353 0.041337866
0.13418244 0.04219718 0.182087 0.15043518 0.09308786 0.14077355 0.17433515 0.07850989
0.18546723 0.15579826 0.102034554 0.018069524 0.12056836 0.05776687 0.027409872 0.11689186
0.117723316 0.14716925 0.15459085 0.043275986 0.14190927 0.15719491 0.19016981 0.17788059
0.04745929 0.020376185 0.19025256 0.045067333 0.11622048 0.15062533 0.0881639 0.058083054
0.06429256 0.0368349 0.1689112 0.09661216 0.15735728 0.03440452 0.18170938 0.098451145
0.14908476 0.08492745 0.025721228 0.07233043 0.096101426 0.11504459 0.053335425 0.11569146
0.08586097 0.06824791 0.16508994 0.0018674636 0.11887398 0.088616535 0.09544224 -0.04428447
0.07535059 0.08503429 0.18073204 0.080133915 0.03084283 0.113686725 0.06044691 0.13163036
0.20612945 0.07243163 0.17926762 0.016364083 0.12711857 0.15581557 0.123246565 0.05201654
0.17380679 0.060333263 0.09220473 0.11251733 0.098589346 0.09243384 0.1556796 0.07611958
0.12838273 0.1638487 0.13815895 0.16728723 0.10385578 -0.013305234 0.09709823 0.18434845
0.19659963 0.16545054 0.045919266 0.10824424 0.06234524 0.11944948 0.101976775 0.12628478
0.19107607 -0.020500883 0.13458118 0.117247626 0.13904369 0.14507942 0.24965683 0.00667984
0.07272173 0.091026366 0.11274734 0.10984221 -0.01992682 0.17343132 0.13734815 0.084025726
0.112769105 0.07545313 0.10340281 0.08323425 0.0013178311 0.18609358 0.12233819 0.09870221
0.05598274 0.16454907 0.030630795 0.20818757 0.046900846 0.12148411 0.1585271 0.06417561
0.09409695 0.17344661 0.13429473 0.07515192 0.113454506 0.027274802 0.1693348 0.02221396
0.04526713 0.15610775 -0.0015382384 0.051376726 0.057553876 0.11766736 0.18774402 -0.0016916557
0.1835993 0.14511408 0.12273688 0.060978524 0.1595916 0.05676886 0.15416291 0.045002896
0.065737575 0.17866525 0.002162073 0.108684756 0.061769713 0.16889037 0.068636335 0.12134244
0.020352753 0.10044447 0.17408857 0.0065773535 0.1388841 0.12698533 0.17602007 0.05954669
0.13669097 0.15681241 0.18052162 0.12483261 0.12851599 0.06264322 0.01974718 0.12883277
-0.0053453837 0.059315197 0.023972359 0.03844988 0.12875888 -0.010250428 0.15704273 -0.03981579
0.022592783 0.02526857 -0.020951707 0.016259866 0.03130477 0.0768344 -0.025352739 -0.006905085
0.09409186 0.006348037 -0.0044372645 -0.028804252 0.00969182 0.005063912 0.06287383 -0.028999584
0.14358383 -0.061089404 0.09047185 0.1642708 -0.06310999 0.13499491 0.042721383 -0.012548661
-0.0074535524 0.18319164 0.0726092 -0.033686146 0.02287303 -0.015877753 -0.0047740648 0.071468234
-0.002285861 -0.0094781285 0.12516129 0.0015912419 0.08333765 0.077004775 0.020643879 -0.073016964
-0.017073652 -0.029619291 0.14711328 -0.042063255 -0.04309807 0.0350365 0.090846285 0.041315343
00000000: 1ff1 883d c903 e03d 741b 313e ea9c 103e
00000010: 43dc 123e 345c 1c3d 042e 0d3e 7118 3e3d
00000020: cddc febc ad26 273e e0d7 133e 4eb4 fc3d
00000030: eeea 083e c913 0d3e 9f9f 3d3d 0a41 1a3e
00000040: 6778 703e fea7 0f3e 3e6c fd3d 2b4f fa3d
00000050: 87a9 ef3d df80 d8ba 268b a43d e551 293d
00000060: 1f67 093e f3d6 2c3d 0475 3a3e ae0b 1a3e
00000070: d9a4 be3d f126 103e ea84 323e cbc9 a03d
00000080: 1feb 3d3e 9489 1f3e 7ef7 d03d 8a06 943c
00000090: 8bec f63d f49c 6c3d ab8a e03c 0065 ef3d
000000a0: ec18 f13d 89b3 163e 104d 1e3e 2942 313d
000000b0: aa50 113e b4f7 203e e0bb 423e 5426 363e
000000c0: ac64 423d f5eb a63c 91d1 423e 8698 383d
000000d0: 0105 ee3d 873d 1a3e 468f b43d 7fe8 6d3d
000000e0: d1ab 833d 31e0 163d 0ff7 2c3e 99dc c53d
000000f0: 4422 213e c1eb 0c3d 0612 3a3e c1a0 c93d
00000100: ada9 183e 71ee ad3d 53b5 d23c fa21 943d
00000110: d3d0 c43d 7f9c eb3d 3f76 5a3d a5ef ec3d
00000120: e0d7 af3d 8fc5 8b3d 560d 293e aec5 f43a
00000130: 3474 f33d 967c b53d 3977 c33d a263 35bd
00000140: 6951 9a3d 7526 ae3d d211 393e 401d a43d
00000150: 1aaa fc3c 96d4 e83d 2e97 773d 1cca 063e
00000160: 9913 533e 0957 943d ee91 373e f80d 863c
00000170: 5f2b 023e 1e8e 1f3e b268 fc3d 4c0f 553d
00000180: 68fa 313e 0320 773d d5d5 bc3d 7c6f e63d
00000190: 36e9 c93d f44d bd3d 796a 1f3e 95e4 9b3d
000001a0: c376 033e f4c7 273e 8a79 0d3e 584d 2b3e
000001b0: 57b2 d43d 32fe 59bc 70db c63d d7c5 3c3e
000001c0: 6a51 493e de6b 293e d715 3c3d 28af dd3d
000001d0: b95d 7f3d eea1 f43d 33d9 d03d cc50 013e
000001e0: 72a9 433e 78f1 a7bc a6cf 093e 861f f03d
000001f0: 7861 0e3e b38f 143e 0aa6 7f3e 8fe2 da3b
00000200: 21ef 943d 086c ba3d 14e8 e63d f4f4 e03d
00000210: 923d a3bc fb97 313e fea4 0c3e ae15 ac3d
00000220: 7df3 e63d 2c87 9a3d dac4 d33d b876 aa3d
00000230: 13bb ac3a 518f 3e3e 728c fa3d 6224 ca3d
00000240: 284e 653d 8d7f 283e 6fed fa3c 1f2f 553e
00000250: 1a1b 403d a9cc f83d ee54 223e 816e 833d
00000260: e7b5 c03d fd9b 313e 8f84 093e 40e9 993d
00000270: d65a e83d 686f df3c 1a66 2d3e 0dfa b53c
00000280: 076a 393d b6da 1f3e b79e c9ba 6770 523d
00000290: 9dbd 6b3d 96fb f03d f83f 403e 8cba ddba
000002a0: 7401 3c3e c998 143e 795d fb3d 9ec4 793d
000002b0: fb6b 233e 7786 683d e2dc 1d3e f554 383d
000002c0: 6ca1 863d 06f4 363e 91b1 0d3b 1d96 de3d
000002d0: 3d02 7d3d 99f1 2c3e 3591 8c3d 6382 f83d
000002e0: d1ba a63c d5b5 cd3d 4644 323e d786 d73b
000002f0: a237 0e3e 7108 023e 9b3e 343e 3be7 733d
00000300: b8f8 0b3e 6f93 203e a9da 383e 3da8 ff3d
00000310: b299 033e 174b 803d d7c4 a13c bdec 033e
00000320: 5428 afbb 7ef4 723d ae61 c43c 9f7d 1d3d
00000330: 5ed9 033e 69f1 27bc cfcf 203e e215 23bd
00000340: 8014 b93c 0800 cf3c eaa2 abbc 6933 853c
00000350: 6e39 003d 5b5b 9d3d 8cb0 cfbc 0d44 e2bb
00000360: 3cb3 c03d 3203 d03b 7966 91bb e5f6 ebbc
00000370: 70ca 1e3c 2cef a53b ffc3 803d 8990 edbc
00000380: a407 133e e238 7abd 4e49 b93d 9b36 283e
00000390: cf3f 81bd 1b3c 0a3e 9efc 2e3d e698 4dbc
000003a0: ee3c f4bb 9796 3b3e 22b4 943d 7cfa 09bd
000003b0: 3860 bb3c 1012 82bc c26f 9cbb f05d 923d
000003c0: 62ce 15bb 274a 1bbc 482a 003e 3891 d03a
000003d0: eeac aa3d aeb4 9d3d 5a1d a93c eb89 95bd
000003e0: 0bde 8bbc 28a4 f2bc dda4 163e 854a 2cbd
000003f0: 9a87 30bd 6f82 0f3d 9e0d ba3d 473a 293d

bias f4 [2]
0.123333365 0.14723296
00000000: 3496 fc3d 3dc4 163e

weight f4 [4, 3]
-0.42868078 0.40191588 0.113146365 -0.55710053 0.60480326 -0.21666905 -0.25026932 0.0072394726
0.34542406 -0.21011734 -0.038668673 -0.046580683
00000000: 0c7c dbbe ebc7 cd3e 48b9 e73d 249e 0ebf
00000010: 63d4 1a3f 7ede 5dbe 4d23 80be 1939 ed3b
00000020: 6cdb b03e 0029 57be 0b63 1ebd 63cb 3ebd

bias f4 [4]
-0.14807816 0.13908692 -0.13582392 -0.5876062
00000000: cda1 17be cd6c 0e3e 6d15 0bbe 5c6d 16bf

weight f4 [4, 8]
-0.18105145 -0.4638798 -0.091526724 -0.2990495 0.24709776 0.49865666 0.14038362 0.017147793
0.15125859 -0.30702192 -0.09207219 0.3334673 -0.27212092 -0.120475054 -0.13906182 0.1465113
-0.22577971 0.23757567 -0.041623577 -0.16544724 0.00824848 -0.030004742 0.13103922 0.02689518
0.13356034 0.37638402 -0.2705255 -0.1297563 -0.14458136 -0.36753818 -0.3710659 0.2072229
00000000: 8d65 39be a781 edbe 5d72 bbbd 041d 99be
00000010: 3207 7d3e ed4f ff3e b9c0 0f3e 8779 8c3c
00000020: 88e3 1a3e fa31 9dbe 5890 bcbd 3abc aa3e
00000030: 6f53 8bbe a0bb f6bd 3966 0ebe 0f07 163e
00000040: cc32 67be 0947 733e 7c7d 2abd 006b 29be
00000050: a224 073c 81cc f5bc 252f 063e 4853 dc3c
00000060: 0bc4 083e 68b5 c03e 5182 8abe d6de 04be
00000070: 230d 14be f72d bcbe 5afc bdbe 3d32 543e

bias f4 [4]
-0.12691636 -0.22974281 0.0017567443 0.13859367
00000000: 5df6 01be b341 6bbe 8f42 e63a 80eb 0d3e

weight f4 [10, 2]
-0.020420259 -0.0046635712 -0.2276632 0.4927456 0.030203976 0.7687408 -0.0048109954 0.028297666
-0.59750247 0.35643354 -0.58574027 -0.4008489 -0.24597444 0.012251278 0.22096305 -0.046063554
0.6066184 0.18733057 -0.019857967 0.012223914
00000000: 6348 a7bc dfd0 98bb 8b20 69be 2749 fc3e
00000010: 546e f73c 32cc 443f 8ea5 9dbb 82d0 e73c
00000020: ecf5 18bf 757e b63e 13f3 15bf 113c cdbe
00000030: b9e0 7bbe 96b9 483c 2344 623e 23ad 3cbd
00000040: 584b 1b3f 96d3 3f3e 2dad a2bc d046 483c

bias f4 [10]
-0.47306308 0.55252236 0.2056957 -0.21838805 -0.5091514 -0.19982018 -0.12950598 -0.06405679
-0.057369385 -0.046218876
00000000: 5335 f2be 1b72 0d3f e5a1 523e 1ea1 5fbe
00000010: bf57 02bf a99d 4cbe 379d 04be 3530 83bd
00000020: 29fc 6abd 0150 3dbd

weight f4 [10, 2]
0.12958029 -0.05859484 0.09587103 0.6911485 0.19453965 0.68038815 0.6007897 0.4765877
-0.24703868 -0.2379436 -0.081187636 0.010053152 0.025470857 0.087635726 0.45991886 -0.6087489
0.28545102 0.17263359 0.5479959 0.2488117
00000000: b2b0 043e 2501 70bd 0858 c43d 1cef 303f
00000010: 6735 473e eb2d 2e3f 5bcd 193f 4e03 f43e
00000020: b5f7 7cbe 7da7 73be b445 a6bd fab5 243c
00000030: 42a8 d03c 5c7a b33d 7c7a eb3e f8d6 1bbf
00000040: a326 923e dcc6 303e 7649 0c3f 7fc8 7e3e

bias f4 [10]
0.66598576 0.0019647807 -0.2644763 0.5514326 0.5881521 -0.46968195 -0.44424224 -0.16732132
-0.08630645 0.5244588
00000000: 0b7e 2a3f 8dc3 003b 7069 87be b02a 0d3f
00000010: 2391 163f 277a f0be b873 e3be 4856 2bbe
00000020: 70c1 b0bd ef42 063f

weight f4 [10, 2]
0.11677485 -0.5032152 0.09129427 -0.5349633 0.12773234 -0.18436389 -0.022394257 -0.13817729
-0.021876454 -0.075658016 -0.47860688 -0.716332 -0.11351115 -0.6469308 -0.23084755 -0.101934865
-0.7261385 0.5412648 0.61758626 0.6411029
00000000: a727 ef3d b6d2 00bf 7df8 ba3d 5bf3 08bf
00000010: 44cc 023e e3c9 3cbe 2974 b7bc 597e 0dbe
00000020: 4036 b3bc 97f2 9abd f60b f5be 8961 37bf
00000030: 8978 e8bd 429d 25bf 4d63 6cbe 3ac3 d0bd
00000040: 36e4 39bf 5490 0a3f 221a 1e3f 521f 243f

bias f4 [10]
0.38379824 0.13808 -0.06378294 -0.11611337 0.5270413 0.1111257 0.7551242 -0.08429751
0.020952055 0.60620815
00000000: 3481 c43e d864 0d3e a1a0 82bd d9cc edbd
00000010: 2eec 063f df95 e33d d24f 413f 2ca4 acbd
00000020: a5a3 ab3c 7530 1b3f

F f4 [2, 2]
1.0 1.0 0.0 1.0
00000000: 0000 803f 0000 803f 0000 0000 0000 803f

Q f4 [2, 2]
0.001 0.0 0.0 0.001
00000000: 6f12 833a 0000 0000 0000 0000 6f12 833a

H f4 [1, 2]
0.00066666666 0.0
00000000: 3ec3 2e3a 0000 0000

prior_Sigma f4 [2, 2]
400.0 0.0 0.0 400.0
00000000: 0000 c843 0000 0000 0000 0000 0000 c843

m1x_0 f4 [2, 1]
0.0 0.0
00000000: 0000 0000 0000 0000

h_S f4 [1, 534, 1]
-0.9199228 -0.89639544 -0.89018327 -0.8948807 -0.91421205 -0.8722851 -0.9097231 -0.89996845
-0.91878974 -0.929192 -0.9370386 -0.91715944 -0.84294146 -0.94376767 -0.92312753 -0.9229641
-0.8670025 -0.92880267 -0.9228304 -0.9035983 -0.8312954 -0.9249134 -0.9221809 -0.9090754
-0.91914785 -0.8297338 -0.9023008 -0.9084077 -0.9321754 -0.90917003 -0.89363503 -0.84450656
-0.89444727 -0.90292287 -0.85091317 -0.895538 -0.9186357 -0.9165793 -0.9140109 -0.9301859
-0.9106514 -0.92319095 -0.88657564 -0.8792657 -0.91491103 -0.8674065 -0.84612364 -0.92476535
-0.8604232 -0.8994886 -0.92578435 -0.8730751 -0.90373355 -0.9278691 -0.87741 -0.84942454
-0.94079125 -0.8947623 -0.85687274 -0.88789403 -0.9196416 -0.9099197 -0.8353478 -0.85481435
-0.9197021 -0.8907748 -0.89836484 -0.903198 -0.8530291 -0.8590242 -0.91262615 -0.8877659
-0.8914879 -0.8314292 -0.89970726 -0.9111937 -0.8925496 -0.89992 -0.8535928 -0.8550464
-0.9245548 -0.9125802 -0.908871 -0.88288885 -0.93641084 -0.8857841 -0.92530537 -0.9381941
-0.9227652 -0.8451527 -0.8877607 -0.8822966 -0.8885301 -0.8889712 -0.8543998 -0.93684834
-0.904841 -0.9093433 -0.91841507 -0.91910535 -0.8774628 -0.8223451 -0.8638873 -0.92336327
-0.9207013 -0.86841726 -0.9136208 -0.8947692 -0.8759586 -0.92538345 -0.9065496 -0.91742194
-0.8701284 -0.8408735 -0.8482611 -0.9209518 -0.91747737 -0.9249228 -0.8585396 -0.8709901
-0.919709 -0.94059616 -0.91170895 -0.90976906 -0.9186357 -0.866987 -0.8983185 -0.83971834
-0.92198 -0.8346658 -0.9154115 -0.8419936 -0.92899245 -0.9343907 -0.9186079 -0.91056395
-0.8664251 -0.9266869 -0.85649073 -0.8629996 -0.8882028 -0.9106684 -0.9189771 -0.9111937
-0.9355675 -0.90958494 -0.8517929 -0.8710849 -0.89486194 -0.84519887 -0.9310489 -0.92508304
-0.8678237 -0.85333604 -0.892893 -0.90255004 -0.87410927 -0.87212145 -0.9234125 -0.92375076
-0.8860255 -0.8650901 -0.89616776 -0.9180651 -0.9293022 -0.8549966 -0.87212336 -0.91051036
-0.9039019 -0.9021275 -0.9182135 -0.93072367 -0.8580788 -0.8475689 -0.8838342 -0.8923005
-0.92076665 -0.91767865 -0.9220952 -0.9281353 -0.93212163 -0.91027606 -0.89634967 -0.9179513
-0.92264104 -0.9102663 -0.9333636 -0.86823094 -0.8862404 -0.8774986 -0.92230844 -0.90334255
-0.9035157 -0.8947361 -0.9380556 -0.92552954 -0.875807 -0.88632596 -0.8866617 -0.9142558
-0.89858276 -0.8447663 -0.8909347 -0.8859327 -0.82369184 -0.885669 -0.9228042 -0.899414
-0.9009668 -0.92592436 -0.9011922 -0.87706757 -0.88941866 -0.8313087 -0.852167 -0.9129148
-0.87474895 -0.91589886 -0.9173269 -0.89355683 -0.9199465 -0.9279151 -0.86984164 -0.9269797
-0.8700696 -0.9159971 -0.8722035 -0.9236033 -0.86191636 -0.8533059 -0.87524337 -0.87205404
-0.8333902 -0.8220459 -0.91220725 -0.9074789 -0.87417513 -0.9109933 -0.919811 -0.87878454
-0.86830425 -0.89999795 -0.86789113 -0.9392552 -0.87053823 -0.86452913 -0.8740238 -0.9388917
-0.82653713 -0.85205996 -0.91167307 -0.890568 -0.83429945 -0.86726266 -0.8946193 -0.89398426
00000000: 1080 6bbf 2c7a 65bf 0de3 63bf e716 65bf
00000010: cd09 6abf 144e 5fbf 9de3 68bf 5564 66bf
00000020: ce35 6bbf 87df 6dbf c3e1 6fbf f6ca 6abf
00000030: 03cb 57bf c29a 71bf 1652 6cbf 6047 6cbf
00000040: e0f3 5dbf 03c6 6dbf 9d3e 6cbf 3852 67bf
00000050: c6cf 54bf 20c7 6cbf 0c14 6cbf 2ab9 68bf
00000060: 464d 6bbf 6f69 54bf 2ffd 66bf 688d 68bf
00000070: 0ca3 6ebf 5ebf 68bf 44c5 64bf 9531 58bf
00000080: 7ffa 64bf f425 67bf 72d5 59bf fa41 65bf
00000090: b62b 6bbf f1a4 6abf 9efc 69bf aa20 6ebf
000000a0: 7320 69bf 3e56 6cbf 9ff6 62bf 8f17 61bf
000000b0: 9c37 6abf 5a0e 5ebf 8f9b 58bf 6cbd 6cbf
000000c0: b244 5cbf e344 66bf 3400 6dbf da81 5fbf
000000d0: 155b 67bf d488 6dbf f19d 60bf e373 59bf
000000e0: b2d7 70bf 240f 65bf 035c 5bbf 064d 63bf
000000f0: a26d 6bbf 7ff0 68bf 5ad9 55bf 1dd5 5abf
00000100: 9971 6bbf d109 64bf 3dfb 65bf fc37 67bf
00000110: 1d60 5abf 03e9 5bbf dea1 69bf a044 63bf
00000120: 8d38 64bf 8bd8 54bf 3753 66bf fe43 69bf
00000130: 217e 64bf 2861 66bf 0f85 5abf 52e4 5abf
00000140: a0af 6cbf db9e 69bf c5ab 68bf 0105 62bf
00000150: 9fb8 6fbf bfc2 62bf d0e0 6cbf 7d2d 70bf
00000160: 573a 6cbf ed5b 58bf 4944 63bf 31de 61bf
00000170: b576 63bf 9e93 63bf f2b9 5abf 4bd5 6fbf
00000180: a9a3 67bf b9ca 68bf 401d 6bbf 7d4a 6bbf
00000190: 67a1 60bf 3585 52bf b827 5dbf 8961 6cbf
000001a0: 15b3 6bbf 9850 5ebf 0ee3 69bf 980f 65bf
000001b0: d33e 60bf eee5 6cbf a213 68bf 2adc 6abf
000001c0: bcc0 5ebf 7c43 57bf a427 59bf 7fc3 6bbf
000001d0: ccdf 6abf bec7 6cbf 40c9 5bbf 35f9 5ebf
000001e0: 0d72 6bbf e9ca 70bf c265 69bf a0e6 68bf
000001f0: b62b 6bbf dcf2 5dbf 34f8 65bf c8f7 56bf
00000200: e206 6cbf a8ac 55bf 6858 6abf e48c 57bf
00000210: 73d2 6dbf 3b34 6fbf e329 6bbf b81a 69bf
00000220: 09ce 5dbf 5a3b 6dbf fa42 5bbf 8bed 5cbf
00000230: 4261 63bf 9021 69bf 1542 6bbf fe43 69bf
00000240: 5a81 6fbf 8fda 68bf 190f 5abf 6cff 5ebf
00000250: ac15 65bf f45e 58bf 3959 6ebf 3ed2 6cbf
00000260: b229 5ebf 3b74 5abf a394 64bf 850d 67bf
00000270: a0c5 5fbf 5a43 5fbf c364 6cbf ee7a 6cbf
00000280: 91d2 62bf 8b76 5dbf 406b 65bf 5006 6bbf
00000290: c0e6 6dbf 0fe1 5abf 7a43 5fbf 3517 69bf
000002a0: 1d66 67bf d4f1 66bf 0a10 6bbf e843 6ebf
000002b0: 0dab 5bbf 47fa 58bf f542 62bf ce6d 64bf
000002c0: 5db7 6bbf fdec 6abf 6e0e 6cbf 469a 6dbf
000002d0: 869f 6ebf da07 69bf 2c77 65bf dbfe 6abf
000002e0: 3432 6cbf 3607 69bf ebf0 6ebf 6244 5ebf
000002f0: a7e0 62bf c0a3 60bf 681c 6cbf 7541 67bf
00000300: ce4c 67bf 6d0d 65bf 6924 70bf 81ef 6cbf
00000310: e334 60bf 42e6 62bf 43fc 62bf ab0c 6abf
00000320: 8509 66bf 9b42 58bf 4c14 64bf 7ccc 62bf
00000330: 78dd 52bf 34bb 62bf e53c 6cbf ff3f 66bf
00000340: c3a5 66bf 6109 6dbf 88b4 66bf 8087 60bf
00000350: f1b0 63bf a6d0 54bf 9e27 5abf c9b4 69bf
00000360: 8cef 5fbf 5978 6abf f0d5 6abf 24c0 64bf
00000370: 9d81 6bbf d88b 6dbf f1ad 5ebf 8b4e 6dbf
00000380: e2bc 5ebf c97e 6abf bb48 5fbf 4471 6cbf
00000390: 8da6 5cbf 4172 5abf f30f 60bf ef3e 5fbf
000003a0: 0f59 55bf 9a71 52bf 6a86 69bf 8a50 68bf
000003b0: f1c9 5fbf db36 69bf bc78 6bbf 06f8 60bf
000003c0: 3049 5ebf 4466 66bf 1d2e 5ebf 0773 70bf
000003d0: 98db 5ebf c851 5dbf 06c0 5fbf 355b 70bf
000003e0: f097 53bf 9a20 5abf 6863 69bf 44fc 63bf
000003f0: a694 55bf ed04 5ebf c505 65bf 27dc 64bf

h_Sigma f4 [1, 534, 4]
62.39044 0.0 0.0 0.0 62.464466 0.0 0.0 0.0
59.83851 0.0 0.0 0.0 60.114143 0.0 0.0 0.0
63.12017 0.0 0.0 0.0 60.03115 0.0 0.0 0.0
62.375652 0.0 0.0 0.0 59.369957 0.0 0.0 0.0
60.04842 0.0 0.0 0.0 61.924717 0.0 0.0 0.0
59.781185 0.0 0.0 0.0 61.24154 0.0 0.0 0.0
61.627403 0.0 0.0 0.0 59.006676 0.0 0.0 0.0
60.19332 0.0 0.0 0.0 61.105076 0.0 0.0 0.0
60.724632 0.0 0.0 0.0 60.924297 0.0 0.0 0.0
58.563633 0.0 0.0 0.0 62.0 0.0 0.0 0.0
59.823326 0.0 0.0 0.0 61.61536 0.0 0.0 0.0
62.2218 0.0 0.0 0.0 62.343742 0.0 0.0 0.0
63.122536 0.0 0.0 0.0 58.60341 0.0 0.0 0.0
62.670708 0.0 0.0 0.0 61.83668 0.0 0.0 0.0
60.248306 0.0 0.0 0.0 61.950493 0.0 0.0 0.0
60.394222 0.0 0.0 0.0 61.017097 0.0 0.0 0.0
60.94442 0.0 0.0 0.0 61.725304 0.0 0.0 0.0
59.75965 0.0 0.0 0.0 59.329308 0.0 0.0 0.0
59.388615 0.0 0.0 0.0 59.942287 0.0 0.0 0.0
60.675827 0.0 0.0 0.0 59.173622 0.0 0.0 0.0
60.79978 0.0 0.0 0.0 60.143227 0.0 0.0 0.0
58.921844 0.0 0.0 0.0 60.356453 0.0 0.0 0.0
60.88726 0.0 0.0 0.0 60.414406 0.0 0.0 0.0
60.941532 0.0 0.0 0.0 61.48758 0.0 0.0 0.0
58.437218 0.0 0.0 0.0 61.25162 0.0 0.0 0.0
61.517773 0.0 0.0 0.0 59.70427 0.0 0.0 0.0
62.394127 0.0 0.0 0.0 61.548035 0.0 0.0 0.0
61.180687 0.0 0.0 0.0 58.860485 0.0 0.0 0.0
62.215588 0.0 0.0 0.0 59.399048 0.0 0.0 0.0
59.62177 0.0 0.0 0.0 60.329514 0.0 0.0 0.0
60.83274 0.0 0.0 0.0 63.200005 0.0 0.0 0.0
55.89357 0.0 0.0 0.0 58.202946 0.0 0.0 0.0
00000000: d08f 7942 0000 0000 0000 0000 0000 0000
00000010: 9ddb 7942 0000 0000 0000 0000 0000 0000
00000020: a25a 6f42 0000 0000 0000 0000 0000 0000
00000030: e274 7042 0000 0000 0000 0000 0000 0000
00000040: 0e7b 7c42 0000 0000 0000 0000 0000 0000
00000050: e61f 7042 0000 0000 0000 0000 0000 0000
00000060: ab80 7942 0000 0000 0000 0000 0000 0000
00000070: d67a 6d42 0000 0000 0000 0000 0000 0000
00000080: 9531 7042 0000 0000 0000 0000 0000 0000
00000090: e9b2 7742 0000 0000 0000 0000 0000 0000
000000a0: ef1f 6f42 0000 0000 0000 0000 0000 0000
000000b0: 56f7 7442 0000 0000 0000 0000 0000 0000
000000c0: 7682 7642 0000 0000 0000 0000 0000 0000
000000d0: d606 6c42 0000 0000 0000 0000 0000 0000
000000e0: f6c5 7042 0000 0000 0000 0000 0000 0000
000000f0: 996b 7442 0000 0000 0000 0000 0000 0000
00000100: 06e6 7242 0000 0000 0000 0000 0000 0000
00000110: 7bb2 7342 0000 0000 0000 0000 0000 0000
00000120: 2941 6a42 0000 0000 0000 0000 0000 0000
00000130: 0000 7842 0000 0000 0000 0000 0000 0000
00000140: 164b 6f42 0000 0000 0000 0000 0000 0000
00000150: 2176 7642 0000 0000 0000 0000 0000 0000
00000160: 20e3 7842 0000 0000 0000 0000 0000 0000
00000170: fe5f 7942 0000 0000 0000 0000 0000 0000
00000180: 7a7d 7c42 0000 0000 0000 0000 0000 0000
00000190: e469 6a42 0000 0000 0000 0000 0000 0000
000001a0: ceae 7a42 0000 0000 0000 0000 0000 0000
000001b0: c358 7742 0000 0000 0000 0000 0000 0000
000001c0: 44fe 7042 0000 0000 0000 0000 0000 0000
000001d0: 4ecd 7742 0000 0000 0000 0000 0000 0000
000001e0: af93 7142 0000 0000 0000 0000 0000 0000
000001f0: 8211 7442 0000 0000 0000 0000 0000 0000
00000200: 16c7 7342 0000 0000 0000 0000 0000 0000
00000210: b6e6 7642 0000 0000 0000 0000 0000 0000
00000220: e209 6f42 0000 0000 0000 0000 0000 0000
00000230: 3651 6d42 0000 0000 0000 0000 0000 0000
00000240: f18d 6d42 0000 0000 0000 0000 0000 0000
00000250: e7c4 6f42 0000 0000 0000 0000 0000 0000
00000260: 0cb4 7242 0000 0000 0000 0000 0000 0000
00000270: cab1 6c42 0000 0000 0000 0000 0000 0000
00000280: fa32 7342 0000 0000 0000 0000 0000 0000
00000290: aa92 7042 0000 0000 0000 0000 0000 0000
000002a0: f8af 6b42 0000 0000 0000 0000 0000 0000
000002b0: 026d 7142 0000 0000 0000 0000 0000 0000
000002c0: 8e8c 7342 0000 0000 0000 0000 0000 0000
000002d0: 5aa8 7142 0000 0000 0000 0000 0000 0000
000002e0: 21c4 7342 0000 0000 0000 0000 0000 0000
000002f0: 48f3 7542 0000 0000 0000 0000 0000 0000
00000300: b6bf 6942 0000 0000 0000 0000 0000 0000
00000310: a901 7542 0000 0000 0000 0000 0000 0000
00000320: 3312 7642 0000 0000 0000 0000 0000 0000
00000330: 2cd1 6e42 0000 0000 0000 0000 0000 0000
00000340: 9693 7942 0000 0000 0000 0000 0000 0000
00000350: 3031 7642 0000 0000 0000 0000 0000 0000
00000360: 06b9 7442 0000 0000 0000 0000 0000 0000
00000370: 2371 6b42 0000 0000 0000 0000 0000 0000
00000380: c3dc 7842 0000 0000 0000 0000 0000 0000
00000390: a098 6d42 0000 0000 0000 0000 0000 0000
000003a0: b17c 6e42 0000 0000 0000 0000 0000 0000
000003b0: 6c51 7142 0000 0000 0000 0000 0000 0000
000003c0: ba54 7342 0000 0000 0000 0000 0000 0000
000003d0: cecc 7c42 0000 0000 0000 0000 0000 0000
000003e0: 0493 5f42 0000 0000 0000 0000 0000 0000
000003f0: d1cf 6842 0000 0000 0000 0000 0000 0000

h_Q f4 [1, 534, 4]
0.68240005 -0.15237503 0.41071624 0.74005 0.68331206 -0.14823703 0.42001173 0.7564451
0.73986304 -0.22351266 0.3564241 0.65415746 0.76277757 -0.24529722 0.34187746 0.6318953
0.7773427 -0.25578925 0.31754032 0.57819986 0.7488014 -0.2216333 0.3813037 0.70798904
0.7897363 -0.2631252 0.3208323 0.58910835 0.69660807 -0.14983112 0.4362045 0.7853054
0.78255874 -0.25813603 0.3130777 0.56858754 0.77849203 -0.24554761 0.29156816 0.51809174
0.77212167 -0.24921651 0.30796307 0.5555879 0.78691214 -0.25524825 0.30236703 0.5441078
0.6908967 -0.15109973 0.42943135 0.7726563 0.7756901 -0.24336408 0.28927186 0.51245636
0.776075 -0.24355833 0.28952914 0.51319075 0.7866795 -0.25513586 0.30223024 0.54370254
0.68002445 -0.14561202 0.4165744 0.750922 0.778762 -0.24590959 0.29189196 0.5187662
0.6817599 -0.15678218 0.38149378 0.68913245 0.7803538 -0.2475999 0.2934977 0.52236205
0.6856579 -0.14513865 0.4276629 0.77032644 0.7849582 -0.2534247 0.30017897 0.5385448
0.78676987 -0.25635085 0.30406317 0.5478988 0.70073545 -0.17989513 0.39105457 0.70797527
0.7499205 -0.23183566 0.33606032 0.6123608 0.68045944 -0.14631002 0.41804466 0.7532652
0.74785495 -0.22682631 0.37189 0.68781376 0.69149417 -0.15127426 0.42981967 0.77341443
0.74339753 -0.22562301 0.32870808 0.5965942 0.76595837 -0.24757555 0.34439865 0.6376514
0.69632983 -0.1496803 0.4360553 0.7850271 0.6807781 -0.15087242 0.40718803 0.73416126
0.74597406 -0.22212943 0.37815914 0.7004577 0.7204847 -0.19775514 0.37750965 0.6844845
0.69298315 -0.14873284 0.43385386 0.780872 0.785769 -0.2615626 0.33264452 0.6162638
0.7759096 -0.24345946 0.28941175 0.5128771 0.7790613 -0.24688481 0.29291984 0.52101165
0.6859042 -0.16048846 0.38591522 0.6965384 0.70433956 -0.18111232 0.34546283 0.62187594
0.78598076 -0.25739554 0.30648562 0.55327123 0.7825274 -0.25177315 0.29851845 0.5342091
0.7125475 -0.18261397 0.40698102 0.7392272 0.68689996 -0.14609565 0.42871454 0.77192944
0.7152533 -0.19278139 0.36106125 0.6514325 0.6933862 -0.14865346 0.43420467 0.7815754
0.6804793 -0.14935528 0.4125046 0.74352777 0.7806817 -0.25661722 0.31152916 0.56478107
0.6817808 -0.14414178 0.42264816 0.7618498 0.7534819 -0.23386632 0.36381915 0.6730721
0.7707055 -0.25141338 0.3267027 0.5972994 0.74776095 -0.22112563 0.38078463 0.7067914
0.7816192 -0.24866396 0.29477137 0.5257262 0.75120103 -0.2354204 0.3472491 0.63634104
0.69645137 -0.14973901 0.43613994 0.7851247 0.68539 -0.1449706 0.4274593 0.77006304
0.7755915 -0.24311435 0.28912547 0.51232404 0.7450069 -0.22659373 0.36800873 0.6787846
0.6951441 -0.14931528 0.43536073 0.7837003 0.69433904 -0.1487227 0.43486327 0.7829232
0.78444296 -0.25229734 0.29872602 0.5350845 0.76952875 -0.25073275 0.32609355 0.5956711
0.6789079 -0.1545957 0.37886384 0.68490034 0.6927173 -0.1481229 0.43382928 0.78087896
00000000: c5b1 2e3f 3308 1cbe 6649 d23e eb73 3d3f
00000010: 8aed 2e3f 73cb 17be c70b d73e 63a6 413f
00000020: aa67 3d3f 81e0 64be 387d b63e dd76 273f
00000030: 6445 433f 322f 7bbe 900a af3e e4c3 213f
00000040: eeff 463f cff6 82be a594 a23e e804 143f
00000050: 73b1 3f3f d7f3 62be 3d3a c33e c53e 353f
00000060: 282c 4a3f 59b8 86be 2244 a43e cecf 163f
00000070: e854 323f 546d 19be 3256 df3e c609 493f
00000080: c555 483f 682a 84be b84b a03e f48e 113f
00000090: 414b 473f d570 7bbe 6c48 953e a9a1 043f
000000a0: c4a9 453f 9d32 7fbe 56ad 9d3e 023b 0e3f
000000b0: 1373 493f e6af 82be dacf 9a3e a64a 0b3f
000000c0: 9bde 303f e3b9 1abe 6dde db3e cecc 453f
000000d0: a093 463f 6f34 79be 711b 943e 5730 033f
000000e0: daac 463f 5b67 79be 2a3d 943e 7860 033f
000000f0: d463 493f 2ba1 82be ecbd 9a3e 1730 0b3f
00000100: 1516 2e3f 511b 15be 3d49 d53e 6d3c 403f
00000110: f25c 473f b9cf 7bbe dd72 953e ddcd 043f
00000120: d187 2e3f 828b 20be 2753 c33e fc6a 303f
00000130: 44c5 473f d48a 7dbe 5545 963e 85b9 053f
00000140: 4787 2f3f 3a9f 14be a2f6 da3e 1d34 453f
00000150: 05f3 483f e2c0 81be 0fb1 993e 12de 093f
00000160: c069 493f 6b40 83be 2bae 9b3e 1943 0c3f
00000170: 6663 333f 6e36 38be 4e38 c83e de3d 353f
00000180: cafa 3f3f 5466 6dbe 1910 ac3e adc3 1c3f
00000190: 9732 2e3f 4bd2 15be f309 d63e fdd5 403f
000001a0: 6c73 3f3f 2845 68be 5e68 be3e 9014 303f
000001b0: c305 313f a4e7 1abe 5311 dc3e 7dfe 453f
000001c0: 4d4f 3e3f b809 67be 6d4c a83e 66ba 183f
000001d0: d915 443f 7284 7dbe 0555 b03e 1f3d 233f
000001e0: ac42 323f cb45 19be a442 df3e 89f7 483f
000001f0: 7947 2e3f 4d7e 1abe f37a d03e fef1 3b3f
00000200: 28f8 3e3f e675 63be 139e c13e 3251 333f
00000210: af71 383f 5380 4abe f248 c13e 603a 2f3f
00000220: 5867 313f 6c4d 18be 1822 de3e 3ae7 473f
00000230: 2828 493f 88eb 85be 6250 aa3e 77c3 1d3f
00000240: 03a2 463f 704d 79be c72d 943e ea4b 033f
00000250: 9070 473f 5fcf 7cbe 97f9 953e 0561 053f
00000260: 6b97 2f3f 1657 24be ae96 c53e 5750 323f
00000270: 994f 343f 8275 39be 81e0 b03e 4333 1f3f
00000280: 0936 493f 59c9 83be afeb 9c3e 2fa3 0d3f
00000290: b753 483f 69e8 80be 69d7 983e edc1 083f
000002a0: 8369 363f 28ff 3abe d15f d03e fe3d 3d3f
000002b0: add8 2f3f 199a 15be 7980 db3e 2b9d 453f
000002c0: d71a 373f 7c68 45be 05dd b83e 48c4 263f
000002d0: c281 313f 9d38 18be 1350 de3e 5315 483f
000002e0: e433 2e3f 97f0 18be ce33 d33e d657 3e3f
000002f0: c2da 473f 5563 83be c080 9f3e 7e95 103f
00000300: 3089 2e3f e799 13be 5765 d83e 9708 433f
00000310: 31e4 403f a77a 6fbe 8146 ba3e 744e 2c3f
00000320: f54c 453f 41b9 80be 9445 a73e 9de8 183f
00000330: 436d 3f3f c26e 62be 34f6 c23e 48f0 343f
00000340: 3218 483f c4a1 7ebe 46ec 963e fe95 063f
00000350: b64e 403f 0c12 71be a2ca b13e 3fe7 223f
00000360: a34a 323f 2f55 19be bc4d df3e effd 483f
00000370: b875 2f3f 2c73 14be f2db da3e da22 453f
00000380: 2a8d 463f f8f2 78be 4108 943e ab27 033f
00000390: c6b8 3e3f 3008 68be a46b bc3e d4c4 2d3f
000003a0: f7f4 313f 1be6 18be 9ae7 de3e 95a0 483f
000003b0: 34c0 313f c34a 18be 66a6 de3e a86d 483f
000003c0: 41d1 483f 1e2d 81be 9ef2 983e 4cfb 083f
000003d0: d6ff 443f 0b60 80be bcf5 a63e e77d 183f
000003e0: e8cc 2d3f 564e 1ebe 71fa c13e a155 2f3f
000003f0: ec55 313f 88ad 17be df1e de3e afe7 473f
