best_models/best_encoder_seq.pth (torch, 45709 bytes, 29 tensors)

feature_extractor.0.weight f4 [64, 2]
000000 9d 72 d1 be 60 11 09 3c a6 dc 81 3e 79 87 85 3e
       -0.40907755 0.008365959 0.25363654 0.2607992
000010 8f 89 aa be cc 0b 8f 3e f6 17 05 bf 27 c1 95 3e
       -0.33308074 0.27938688 -0.51989686 0.29248926
000020 55 be d8 be 9e 5e 9f 3e 92 74 a1 be fa 60 61 bb
       -0.42332712 0.31126875 -0.3153425 -0.0034390078
000030 01 80 f3 3e 90 23 14 3f 43 35 53 bf bb a2 01 be
       0.47558597 0.57866764 -0.82503146 -0.12659733
000040 cd 2c 28 3e 01 b1 01 bf 42 15 d8 3e 22 b9 03 be
       0.1642334 -0.5066071 0.42203718 -0.12863591
000050 31 a6 42 be 15 52 a2 3e d3 9c 05 bf d3 ef 68 bd
       -0.1900871 0.3170325 -0.5219242 -0.05686934
000060 f3 c5 25 3d 9e 06 d0 3d c8 2f 8e be b1 c6 d9 3e
       0.040471982 0.10157512 -0.2777083 0.42534402
000070 16 4f 03 bf ec 2a 0f 3f 3f 99 00 3f 5d 26 19 3f
       -0.5129255 0.5592487 0.50233835 0.5982416
000080 44 be 7b be a9 3a d8 be d0 c2 3b bf 12 f4 10 bf
       -0.245843 -0.42232254 -0.73344135 -0.5662242
000090 dc 62 13 3f ee 9d 4d be bd 72 af bc 3b 59 01 bf
       0.5757272 -0.20079777 -0.021417016 -0.5052678
0000a0 0d 1f 01 3e 8a 20 d3 be 87 2a 13 be 67 b8 13 bf
       0.12609501 -0.41235763 -0.14371692 -0.5770325
0000b0 83 c5 f0 be 18 e2 62 bd 9f 29 20 3f 6c d5 13 3f
       -0.4702569 -0.0553914 0.6256351 0.5774753
0000c0 1c 94 8d 3d a1 ae 55 3e 32 21 e4 3e 6e d6 a7 be
       0.06913015 0.20867397 0.44556576 -0.32780784
0000d0 8d 9b cd 3e 09 7b a8 3e 82 4c 74 be b8 65 46 be
       0.40157738 0.32906368 -0.2385731 -0.1937474
0000e0 17 1b 28 3f 55 31 9e be 8a 9d 0e 3f 8a a2 f8 be
       0.65666336 -0.30897012 0.55709136 -0.48561507
0000f0 28 f8 8c 3e 77 d7 14 be 7b 32 24 bf a9 95 73 3d
       0.27533078 -0.14535318 -0.6413953 0.0594689
000100 6d cc 25 3f 27 5d 86 3e 5b 96 b1 3e e7 d2 11 bf
       0.64765054 0.26242945 0.34685025 -0.56962436
000110 fa f3 d4 be fc fb 17 3f 2b d4 b4 3e 9a 8f 0d 3f
       -0.4159239 0.5936887 0.3531812 0.55297244
000120 f2 1c 12 bf 26 24 46 3e 47 a7 92 be c1 de 2f be
       -0.5707542 0.19349727 -0.28643247 -0.17174818
000130 38 c9 fe be d3 d8 16 bf 67 14 07 bf e2 4e 93 be
       -0.49762893 -0.589246 -0.52765507 -0.2877112
000140 99 18 76 bd 43 70 fb 3d fa ee 92 3e 34 f0 0f 3f
       -0.060082052 0.122772716 0.2869795 0.56225896
000150 98 4a 8b be 3a 8b ed be 86 4c ab 3b 58 4b 22 be
       -0.27205348 -0.46395284 0.005227628 -0.15849054
000160 e3 a2 3b 3e 59 25 95 3e da 88 ab 3e 30 11 b0 3e
       0.18323855 0.29130057 0.33502847 0.34388113
000170 2e 5f b6 be 1b 5d e2 bd cb 5d 05 bd 72 4b a5 3e
       -0.3561949 -0.11052915 -0.03256015 0.32284123
000180 2e 9e 1e 3f 64 e3 09 bd 6f 70 05 3f 87 12 24 3e
       0.61960113 -0.033664122 0.52124685 0.16022693
000190 49 7b 13 3f e8 1d f2 3e 34 8c 97 3e 77 bc 6d be
       0.57609993 0.47288442 0.29599154 -0.23216425
0001a0 8d ce b1 be 00 ca 8b 3d 8c 66 34 be 9a 06 ed 3d
       -0.34727898 0.06825638 -0.17617244 0.11573525
0001b0 67 c5 c9 be d7 86 a2 3e c6 89 0f bf 46 2f d9 be
       -0.3940842 0.317435 -0.560696 -0.4241888
0001c0 e3 7c b7 3e 2f 94 23 3f 38 1a 0e 3f 26 7c 16 3e
       0.35837469 0.63897985 0.55508757 0.14695796
0001d0 3f fa 38 bf 71 56 a8 3d 1d 88 a6 3e b7 9a 45 3f
       -0.72256845 0.082196124 0.3252572 0.771892
0001e0 f5 46 5b be fb 0c 92 be 51 63 b0 3e 9a 0a fc 3e
       -0.21413787 -0.28525528 0.34450772 0.49226838
0001f0 47 30 8a 3e c8 8b 45 be 36 34 0e be d6 73 08 3f
       0.26989958 -0.19291604 -0.13887104 0.5330175

feature_extractor.0.bias f4 [64]
000000 93 6f 96 be fb 9c 1a 3f a2 2f 87 3e 93 d7 9c 3d
       -0.29382 0.60395783 0.26403528 0.07658305
000010 2e 8d d6 be 6a 6b b0 be 2a c4 8c 3d f2 42 48 be
       -0.41904587 -0.3445695 0.06873353 -0.19556788
000020 f2 0c 6e be b7 8d 48 be 98 55 78 3c 19 cb 29 3e
       -0.23247126 -0.1958531 0.015157126 0.16581382
000030 51 96 79 be 5f 70 a2 3e dc e8 46 be 7e 9f ee 3e
       -0.24373747 0.31726357 -0.19424766 0.46606058
000040 2d ce ce bc 7e 7f d7 3e 1f e4 06 bf c6 ad 2f 3f
       -0.025244797 0.42089456 -0.52691835 0.6862453
000050 b2 a5 3e bd 41 9f 1d bc 6f 17 eb be 93 27 76 3e
       -0.046544738 -0.009620489 -0.45916316 0.24038534
000060 98 7d 02 bf 3e a1 fe be b0 15 ff bb 80 7c ad 3e
       -0.5097289 -0.49732393 -0.007784568 0.33884048
000070 f2 61 bb 39 27 1e 0f bf 9c 08 e1 bc 69 c0 c1 3e
       0.00035740394 -0.55905384 -0.027469926 0.3784211
000080 f2 1b 1e 3f b8 3e 00 be c0 3e 1a bf 70 1b 75 be
       0.6176139 -0.12523925 -0.60252 -0.23936248
000090 78 12 d2 be 6a ca e9 be ca ab 55 3d c4 ae ce 3e
       -0.41029716 -0.45662242 0.052165784 0.4036771
0000a0 bf cd a8 3c f3 aa aa be d4 3e 10 bf db 16 02 bf
       0.02060592 -0.3333355 -0.5634587 -0.50816125
0000b0 2a 27 0b 3f 12 8f 4c be 43 c5 87 3c dc 80 60 be
       0.54356635 -0.19976452 0.016573554 -0.21924156
0000c0 84 79 18 bc fc 00 15 3f 92 7d 49 3d 97 c1 85 be
       -0.009306315 0.5820463 0.04919202 -0.2612426
0000d0 14 17 0b 3f df 42 ca 3e 16 38 fd be 26 76 0c bf
       0.5433209 0.39504144 -0.49456853 -0.5486778
0000e0 29 36 f9 bd f1 c8 e3 3d e3 13 a3 bd dc af e2 be
       -0.12168533 0.11122311 -0.079627775 -0.44274795
0000f0 08 6d 93 3e 55 90 8a 3d 45 15 39 3e 8c 95 fc 3d
       0.28794122 0.067658104 0.1807452 0.12333211

feature_extractor.2.weight f4 [64]
000000 55 1c 5a 3f fe 03 77 3f ab ef 69 3f 3f 83 5d 3f
       0.8519948 0.96490467 0.9138133 0.8652839
000010 14 be 6b 3f 40 ad 60 3f 8e 8b 81 3f 60 95 60 3f
       0.9208691 0.8776436 1.0120714 0.8772793
000020 cf 82 80 3f b2 a0 5a 3f 0d de 6d 3f c9 05 73 3f
       1.003992 0.8540145 0.9291695 0.949307
000030 58 91 6b 3f a9 d5 57 3f 16 21 73 3f bf cb 73 3f
       0.9201865 0.84310395 0.9497236 0.95232767
000040 e1 d4 69 3f 1f 3e 75 3f af 63 65 3f 2c a8 6d 3f
       0.9134045 0.95797914 0.8960523 0.92834735
000050 9d 1f 67 3f f3 7a 65 3f 00 00 5a 3f 26 06 75 3f
       0.90282613 0.8964073 0.8515625 0.95712507
000060 62 fd 65 3f a4 d5 66 3f 5f ad 72 3f 28 d1 67 3f
       0.89839756 0.9016974 0.94795793 0.9055352
000070 c8 e0 6b 3f d5 34 72 3f 79 25 68 3f 1f 0b 81 3f
       0.92139864 0.94611865 0.9068218 1.0081519
000080 27 82 79 3f a2 76 72 3f b9 2e 66 3f 5d d6 71 3f
       0.9746422 0.9471227 0.89915043 0.9446772
000090 5c 5e 69 3f bb 4d 60 3f 37 61 73 3f 2f b8 80 3f
       0.91159606 0.8761861 0.95070213 1.0056208
0000a0 fa 9e 67 3f 68 e0 75 3f 17 85 65 3f 1d 21 61 3f
       0.90476954 0.9604554 0.89656204 0.8794115
0000b0 92 e6 76 3f a3 21 5b 3f e5 65 5d 3f 4b d6 66 3f
       0.9644557 0.855982 0.86483604 0.90170735
0000c0 75 68 6b 3f df d0 5f 3f 1b 60 64 3f ef b5 64 3f
       0.91956264 0.87428087 0.89209145 0.8934011
0000d0 b8 06 61 3f 49 1c 6c 3f 66 61 62 3f 17 2f 5a 3f
       0.87900877 0.9223066 0.8842987 0.85228103
0000e0 f8 c2 7d 3f 7e 1d 60 3f e7 92 6b 3f a5 a5 87 3f
       0.99125624 0.87545 0.9202103 1.0597426
0000f0 ef 9c 60 3f de 30 78 3f 4a 98 6b 3f 1a ff 68 3f
       0.8773946 0.96949565 0.9202925 0.91014254

feature_extractor.2.bias f4 [64]
000000 1e 11 80 3d 7a 78 fa bc ed 76 00 bd 6a 21 0e bc
       0.06253265 -0.030575026 -0.031363416 -0.008674959
000010 b5 46 cb 3b 5b 94 3c 3d fb 32 21 ba 0f 35 5c 3d
       0.0062034973 0.04603992 -0.0006149259 0.053761538
000020 7d 5a 32 3d 2a fd 1b 3d a4 4e 43 3b af 4d db bc
       0.043543328 0.038083233 0.0029801512 -0.02677044
000030 62 cf 97 bb bf e3 21 bc a6 8b fe bb d5 62 23 bd
       -0.0046328763 -0.009880959 -0.0077681122 -0.039889175
000040 cd 22 49 3c 2b 00 b5 bb 6b d8 0a 3d 4c 5a 09 bc
       0.012276364 -0.0055237017 0.0338978 -0.008383345
000050 7a 25 9c 3a b4 fb f6 3c e4 99 71 3d 3d 1c 36 bc
       0.0011913024 0.030149318 0.058984652 -0.011115131
000060 45 f4 9c 3c 00 02 9f 3c 3a e6 3e 3c d5 89 75 bd
       0.019159446 0.019410133 0.01165157 -0.0599459
000070 bd 5f 3b bb 4e fd 33 3d af 7e 49 3d d6 25 14 3b
       -0.0028591 0.043942742 0.04919308 0.002260556
000080 b2 1e 5e bd 13 cd 2d 3c 57 bb 0a 3d d5 ea 11 3d
       -0.054228492 0.010607976 0.033870067 0.035624344
000090 8f 83 1e 3c 7b 91 29 3d ab cf 0f 3d 57 0c 15 bc
       0.009674921 0.041398507 0.035110157 -0.00909718
0000a0 79 b6 a4 3c e7 3d 9c 3c 4a 47 df 3c 43 d6 02 3d
       0.020106541 0.019072486 0.027255673 0.031942617
0000b0 97 9a 0b bd 84 2e 88 3d f0 a6 b6 3a 26 d1 02 3d
       -0.034082975 0.06649497 0.0013935249 0.03193774
0000c0 66 b3 ed 3a 2d a5 98 bd 5c 7e 19 bc 00 0e 4b 3d
       0.001813513 -0.0745338 -0.009368505 0.0495739
0000d0 33 51 97 bc dc e9 44 bd 64 1e 25 3d a6 e5 8e 3d
       -0.018471336 -0.04807459 0.040312186 0.06977396
0000e0 90 0e e1 3b b9 b0 65 3d 8f 74 5b 3d db d7 de ba
       0.006868191 0.05607674 0.053577956 -0.0017001586
0000f0 d2 83 91 3c 4a 85 06 bd 3d 3e eb bc 49 e4 86 bb
       0.017763052 -0.032841958 -0.028716201 -0.004116569

feature_extractor.3.weight f4 [64, 64]
000000 80 26 0f be 76 0d c2 3d 23 66 2b 3e ec 4c 2f 3e
       -0.1397953 0.09475224 0.16738181 0.17119187
000010 48 84 0f be d5 a2 7f 3b 37 63 93 3c 43 09 e3 bd
       -0.14015305 0.0039006968 0.017991645 -0.11085751
000020 ff ce 4d be 2d 3b b1 bd fa 0e 43 bc 68 04 f6 3d
       -0.20098494 -0.08653865 -0.011905426 0.12012559
000030 57 63 f4 bd 7f 25 d6 3d 81 5d 95 3d 27 63 10 3e
       -0.1193301 0.104563706 0.07293225 0.14100324
000040 eb 60 59 bd c2 96 00 3e 3c 16 c5 bc ec 86 1c 3e
       -0.053070944 0.1255751 -0.024058454 0.15285844
000050 25 20 5b bd 74 69 09 3c a4 57 a9 bd ef c9 a7 bd
       -0.053497452 0.008386958 -0.08268669 -0.08192813
000060 36 8a 22 be 87 a1 20 bd ef 1a ed bd cb 7f 8d 3d
       -0.15873036 -0.039216544 -0.11577403 0.0690914
000070 60 f4 47 be 83 47 46 3c d6 f1 23 be c4 0b 5d 3e
       -0.19526815 0.012102011 -0.16010222 0.2158652
000080 22 22 9d 3d e1 a6 29 be e9 77 99 bd bc b1 54 bd
       0.07672526 -0.16567566 -0.07493574 -0.051927313
000090 e7 ad 21 be f7 64 e6 3b bd 39 eb 3c 1c 21 44 3e
       -0.15788995 0.007031079 0.028714055 0.19153255
0000a0 53 ca 1e be 43 5b b7 bd 48 1b 3e be b9 32 09 3d
       -0.15506868 -0.08952954 -0.18565094 0.03349564
0000b0 9d 33 45 3e fb 42 ea 3b 60 3a a6 bd 79 9e 1a be
       0.1925797 0.007149098 -0.08116603 -0.15099515
0000c0 0f 58 19 be be cd 0d 3c 67 28 31 be e0 f6 67 bd
       -0.14974998 0.00865501 -0.17300569 -0.056631923
0000d0 a6 8b af 3d f9 41 cd 3d fe ed b9 bc 24 c3 df bd
       0.08571558 0.10022349 -0.022696491 -0.10925892
0000e0 40 a5 bf bd 4f 4f b1 bd 13 32 3f 3d f2 84 14 be
       -0.09357691 -0.08657705 0.046678614 -0.1450384
0000f0 07 00 fc bc a8 90 30 be 14 60 cc bd cb 85 e9 3d
       -0.030761732 -0.17242682 -0.09979263 0.11402472
000100 7a d1 c2 3d 3b 9c 7f 3d 90 c9 90 3d 48 42 42 bd
       0.09512611 0.062404852 0.07069695 -0.047426492
000110 3a 9d f3 bc 56 e7 89 3d 0a a6 5a bd 38 0d c5 3d
       -0.029738057 0.06733577 -0.053381003 0.09621662
000120 4a a7 b6 bd 8e 45 eb bc bb aa cc 3d d0 38 4a 3d
       -0.089186266 -0.02871969 0.09993502 0.049370587
000130 f7 af a5 3d 0a f2 32 bd fa 2a 86 3d 37 7f 38 bd
       0.08090203 -0.043687858 0.06551166 -0.045043197
000140 a0 ab 7b bc c5 5b 34 bd 29 68 ce 3d 78 ac 8d 3d
       -0.015360743 -0.04403283 0.10078461 0.069176614
000150 f2 c7 9a bd 14 f6 dd bd ce 68 f1 3d 58 b8 bd 3c
       -0.07557668 -0.10837951 0.11787568 0.023159191
000160 8c a2 86 bc 56 7c 52 3d 9c 73 44 3d 29 f4 b8 3c
       -0.01643493 0.051388107 0.047961816 0.022577362
000170 8d bb c1 3d 46 3f 0b bb 64 d4 5d bd 7b a5 9b 3c
       0.094596006 -0.002124743 -0.05415763 0.018999806
000180 74 70 f9 bd 0f d2 4a bd 74 68 98 3d 3f 8b df 3c
       -0.12179652 -0.049516734 0.07441798 0.027288077
000190 84 6c 8a 3d b3 fa 69 bc c5 42 cb bd 67 af 22 3d
       0.06758979 -0.014280963 -0.09924845 0.039718058
0001a0 1f 61 c2 3d 7b c2 84 3c be 3a 29 3c 68 ee fc 3c
       0.09491181 0.016206017 0.010328947 0.0308754
0001b0 1d 0a e3 3c 89 0b 0b 3d 64 a4 b2 3d 5f 62 67 3d
       0.027714783 0.033946548 0.08722761 0.0564903
0001c0 a3 3a b9 bd b1 90 8f bd 4e d4 a6 3d e5 0e ac 3d
       -0.09044387 -0.070100196 0.08145963 0.084012784
0001d0 09 43 05 3c f0 9a 24 bd 8d 67 41 3d 43 31 0d bd
       0.008133658 -0.040186822 0.047217894 -0.034470808
0001e0 50 0c c4 bc 5d 51 85 3d 4b ba ee 3c 6a 9c e8 3d
       -0.023931652 0.065096594 0.029141566 0.113579586
0001f0 66 9b c4 3d 1f cc 59 bd 3b bf 99 bd ee 5b 97 3c
       0.095999524 -0.05317318 -0.075071774 0.018476453
000200 c5 c9 c0 bd 0d 37 b1 bd aa bb e2 bc 74 5e f0 3c
       -0.094134845 -0.08653078 -0.027677376 0.029341914
000210 ba 8c 02 3e e4 8d c8 3d 98 ed 40 bc 86 c6 c5 b9
       0.12748995 0.097926885 -0.011775397 -0.0003772268
000220 91 00 59 3d df 54 77 3d 0c 8f 7f bd 7c 8d ae bd
       0.052979056 0.060383674 -0.06239228 -0.0852308
000230 3b 88 54 bd b5 58 24 3d 2d 44 e9 bd 78 15 c6 ba
       -0.051887732 0.04012366 -0.113899566 -0.0015112599
000240 36 23 e9 3d ad 7d 85 bc 19 a9 b8 bd 07 00 ad bd
       0.11383669 -0.016295278 -0.09016628 -0.08447271
000250 08 ba d7 bc 34 8b 4a bd 98 33 c1 3c 04 44 77 3d
       -0.026333824 -0.04944916 0.023584172 0.0603676
000260 cc f7 38 bd 47 c6 bb bd b5 0f 20 bd af c3 27 bd
       -0.045158193 -0.09168678 -0.03907748 -0.040958103
000270 bd f9 f5 3d dc b5 c4 bd 5c 58 03 3e e4 48 16 bd
       0.120105244 -0.096049994 0.12826675 -0.036690608
000280 96 4c ff bd a8 a5 d4 bc 3e 0e f7 3d d8 e5 4c bd
       -0.124657795 -0.025957897 0.12063263 -0.050023884
000290 e0 5b 63 bd 48 c5 c9 3d 28 53 64 bc 26 2b 87 3d
       -0.05550754 0.098520815 -0.013935842 0.06600027
0002a0 c7 b4 d5 3d a6 15 b4 bd e1 f6 a1 bd ed 33 ba bc
       0.10434871 -0.087931916 -0.079084165 -0.022729838
0002b0 de b5 74 bd f8 77 a9 ba 7e 40 18 3d ad 14 72 3c
       -0.059743755 -0.001292943 0.03717088 0.014775437
0002c0 d6 24 66 3b 0a 20 cd bd 56 1f 12 bc 16 1a 89 3d
       0.003511717 -0.100158766 -0.008918604 0.066944286
0002d0 18 6a 21 3b 0c 73 1e 3d 39 43 e6 3c 23 27 7a bd
       0.0024629887 0.038683936 0.028108226 -0.06107248
0002e0 32 bc 77 3d d9 a0 82 bd ab 72 ff 3c 85 12 38 3d
       0.06048221 -0.063783355 0.031182608 0.044939537
0002f0 4b 06 9a bd 5e fe a3 bd 63 f3 92 bd e7 88 6e bd
       -0.075207315 -0.08007501 -0.071753286 -0.05823603
000300 42 5d 28 bd 5b d2 f7 bd 1f d6 1b 3d ef c5 d3 3d
       -0.041104563 -0.12100669 0.038046 0.10340487
000310 fc 5d 87 3c 78 49 c3 bd 76 22 89 3d 55 42 45 3d
       0.016524307 -0.095354974 0.06696026 0.048158962
000320 5f 08 bc 3d a4 74 95 3d 80 3a df 3c ed 8a 0a bd
       0.09181284 0.07297638 0.027249575 -0.033823896
000330 07 3c db bd eb c3 99 3d 44 10 c4 3d fd f5 c0 bd
       -0.10704809 0.075080715 0.09573415 -0.094219185
000340 8a d1 c0 bd 97 89 30 3d e6 b3 b0 bd 5e 43 5c 3b
       -0.094149664 0.043099966 -0.08628063 0.003360949
000350 69 f4 31 bd a4 f0 7e bc 54 7f 46 3d 08 c5 4e bc
       -0.04344598 -0.015560303 0.048461273 -0.012620218
000360 6d 49 b3 bc c3 87 2f bd b8 af bf 3d 24 f1 aa 3c
       -0.021885598 -0.04285408 0.093596876 0.020866938
000370 aa 8b e8 3d ba 85 90 3d e3 ce 02 3c b4 67 3a 3d
       0.11354764 0.07056756 0.007983896 0.045509055
000380 e9 3e 75 3c 23 5d be 3d c8 5f b1 bc c7 78 c4 ba
       0.014968612 0.09295108 -0.021652117 -0.0014989608
000390 10 ce 1b 3d 81 e2 78 bd 04 2e 01 be 7a 3a 8e 3d
       0.038038313 -0.060762886 -0.1261521 0.06944747
0003a0 00 e9 a1 bd 59 e1 9d 3c 5f 27 89 bb fc b5 ea 3d
       -0.07905769 0.019272493 -0.0041856016 0.11460492
0003b0 b1 d0 dd bd 34 2a b6 3d 37 af 90 3d dd c7 31 bd
       -0.1083082 0.08894768 0.070646696 -0.043403495
0003c0 43 3f 55 bc 78 a3 c1 3d b2 03 44 bd 2d e1 a2 bd
       -0.013015571 0.09455007 -0.047855087 -0.07953105
0003d0 f9 14 f8 bd 9c cc b6 bd 59 8d dd bd 0d bb fc 3d
       -0.12113375 -0.08925745 -0.108179756 0.123403646
0003e0 b0 fc c0 bd 07 5c 90 bc d9 39 80 bd f7 c9 ff 3c
       -0.09423196 -0.017622007 -0.062610336 0.031224234
0003f0 ee f6 39 3c 95 61 65 bd d4 b1 4e 3c 0a 21 54 3d
       0.0113503765 -0.056001265 0.01261564 0.05178932

feature_extractor.3.bias f4 [64]
000000 36 f5 ae bc 96 a0 77 3d 35 66 06 bd 6b b3 64 bd
       -0.02135716 0.06045588 -0.032812316 -0.05583517
000010 d9 ef 1d bd 45 d9 99 bc 39 78 a4 3d e1 83 24 bc
       -0.038558815 -0.01878036 0.08030743 -0.010041208
000020 49 d8 ea 39 b2 6a 5e bd ef fa 41 3e d1 7d 47 bd
       0.00044793103 -0.05430097 0.1894338 -0.048703972
000030 f2 f2 33 bd 73 c1 c5 3c 19 e9 b2 bd 78 70 80 bd
       -0.043932863 0.024140095 -0.08735866 -0.06271452
000040 14 7c d9 bd 98 08 6e 3c 0a 5d 90 bd 81 d3 b0 3d
       -0.10619369 0.014528416 -0.07048996 0.08634091
000050 ce 22 10 bd 06 9b 82 3c 5e d1 6f bd 23 f9 49 be
       -0.035189442 0.015943062 -0.058549277 -0.19723944
000060 1e 22 8f bd d9 b7 52 3c aa 95 c2 3c af 6d 83 bc
       -0.06988929 0.0128612155 0.023753006 -0.016043512
000070 3c 11 b9 3d 15 f2 a0 bd 99 45 cf bc 62 c3 c9 bd
       0.0903649 -0.078586735 -0.025301741 -0.098517194
000080 92 d4 15 bd b9 36 c0 3d 94 c1 7d 3d 28 0d 3d 3d
       -0.036579676 0.093854375 0.06195219 0.046155125
000090 63 15 02 3d 64 5b aa bd b2 57 00 be 5b 1f 85 bd
       0.031758677 -0.08318213 -0.12533453 -0.06500121
0000a0 b3 11 dd ba fb ca 45 bb 0f b9 ea 3c 97 df 70 3d
       -0.0016866237 -0.00301808 0.028652696 0.058806982
0000b0 ee b2 a8 bd 1b 05 c2 3d e2 f3 ca 3d 24 1f ea 3c
       -0.08237253 0.0947363 0.09909798 0.028579302
0000c0 77 95 8c 3d 1c b5 ee bd 58 e6 c0 3d eb 44 f2 bd
       0.06864446 -0.116556376 0.094189346 -0.11829551
0000d0 f2 70 d9 3c a1 8b 8f bd fc 04 01 be 06 b1 30 bd
       0.026543114 -0.07009054 -0.12599558 -0.043137573
0000e0 93 dd 32 bd 26 ba b7 bd 42 57 de bd b9 f9 5e bb
       -0.04366834 -0.08971052 -0.10856487 -0.0034023358
0000f0 6b ba 0e 3c 4f 26 eb bd c4 76 c0 3d 2b 3a c0 bd
       0.008711438 -0.11481916 0.09397653 -0.09386095

feature_extractor.5.weight f4 [64]
000000 b3 82 55 3f 05 46 5a 3f 7c 13 63 3f 7d e4 5b 3f
       0.83402556 0.8526309 0.88701606 0.8589552
000010 2f 1a 5c 3f d7 bd 53 3f 64 bb 66 3f 93 8b 79 3f
       0.85977453 0.8271155 0.90129685 0.974786
000020 77 8f 64 3f b1 16 60 3f db c4 2e 3f 41 9a 4d 3f
       0.8928141 0.87534624 0.6826913 0.803135
000030 4e e0 66 3f ed c4 59 3f ff 9f 61 3f 05 b1 50 3f
       0.9018601 0.8506611 0.8813476 0.8152011
000040 6b 1e 5c 3f 67 95 53 3f 1c a4 50 3f 93 41 5b 3f
       0.85983914 0.82649845 0.8150041 0.85646933
000050 20 c4 61 3f 95 9a 58 3f 0e 2d 75 3f 70 f9 52 3f
       0.8818989 0.84610873 0.95771873 0.8241186
000060 75 df 67 3f 84 f7 5b 3f 31 a1 6d 3f 1d e1 66 3f
       0.90575343 0.85924554 0.92824084 0.90187246
000070 3e bc 5d 3f 53 52 67 3f 04 4e 67 3f 18 a9 57 3f
       0.8661536 0.9035999 0.9035342 0.8424239
000080 3b b9 64 3f 5c 65 4f 3f 6a b1 69 3f 11 17 62 3f
       0.8934514 0.8101404 0.9128634 0.88316447
000090 84 ab 65 3f 33 48 5b 3f 8d 37 6c 3f 5a b2 58 3f
       0.8971484 0.8565704 0.92272264 0.8464714
0000a0 9d 29 52 3f a2 6e 6c 3f e1 d1 63 3f 14 94 4c 3f
       0.82094747 0.9235631 0.88992125 0.7991345
0000b0 a5 85 5c 3f 17 4a 5e 3f 6a 6b 66 3f d9 41 5b 3f
       0.86141425 0.868318 0.9000765 0.8564735
0000c0 5d 12 6c 3f 6d 6d 5e 3f 01 d7 5f 3f 33 1b 64 3f
       0.9221552 0.8688572 0.87437445 0.89104
0000d0 43 5a 4e 3f 88 33 5d 3f 12 db 54 3f 9f 66 5c 3f
       0.8060648 0.86406755 0.83146775 0.8609409
0000e0 a6 5d 5f 3f 76 73 64 3f 83 de 6d 3f 50 08 73 3f
       0.8725227 0.8923868 0.9291765 0.9493456
0000f0 64 e5 59 3f 24 6f 5b 3f 79 cc 5b 3f 8f 4b 67 3f
       0.8511565 0.8571646 0.85858876 0.9034967

feature_extractor.5.bias f4 [64]
000000 fd 6c 5d bd 7f fd a1 3d 7e 12 2b 3d df 94 fc 3c
       -0.054059017 0.07909679 0.041765682 0.030832706
000010 49 59 e0 bb 62 32 80 bd 05 bd 0c 3c c2 50 7c 3c
       -0.006846581 -0.0625961 0.008589988 0.015400114
000020 88 b9 09 3d a0 74 5b 3d 21 87 dc bd 79 73 8f 3d
       0.033624202 0.05357802 -0.10767961 0.070044465
000030 5c c6 93 bc 3e 1d 45 bc 26 4b 25 3d fb b9 b7 3d
       -0.018038921 -0.012030898 0.04035487 0.0897102
000040 0a 15 a9 3d 31 fe ab 3d ad 89 a8 3c ac 0a 59 3c
       0.08255966 0.083980925 0.020573461 0.013247173
000050 0b 18 a3 3c 6b 62 4a 3c f3 02 69 bb 8d 2d 05 3e
       0.019908926 0.012352566 -0.0035554736 0.13005657
000060 0d 34 40 3c d3 fe 34 3d 80 41 8c 3c 61 5a 38 ba
       0.01173116 0.04418833 0.017121077 -0.00070325105
000070 b9 db 66 3d c3 05 2e 3d 8e bb 39 3c bf a8 9c 3d
       0.056361888 0.042485964 0.01133622 0.07649373
000080 a2 0b 19 3d 71 ba 01 3d 79 61 dd bc 31 6d 8f 3d
       0.03736461 0.031671945 -0.027024018 0.070032485
000090 f6 65 5a bc 9c 4b 99 bc ec d1 13 3b 56 5e 52 3d
       -0.013329973 -0.018712811 0.0022555543 0.051359497
0000a0 35 30 f6 3d fe 8d f5 3c 0b 9c 67 bc db 1d cd 3d
       0.120209135 0.029974934 -0.014136325 0.1001546
0000b0 c8 2d 65 3d 73 cb 2f 3d c1 77 e9 3c 65 02 2b 3d
       0.055951864 0.042918634 0.028499486 0.04175033
0000c0 a0 14 86 3c f3 a2 36 3d b4 82 9b 3c d2 94 ec 3c
       0.016367257 0.044588994 0.018983223 0.028879557
0000d0 69 dd f5 3c 3b 3d c6 3c e9 ae 71 3d b0 8c 4a 3b
       0.030012803 0.024199119 0.059004698 0.003090661
0000e0 0c a8 de bc ab 86 2c bb f5 d5 1e bd d4 ef 89 bc
       -0.02717974 -0.0026325386 -0.038778264 -0.016837992
0000f0 ea 9e 41 3d f5 7a a6 3d bd 9e 12 3c a1 df 42 3c
       0.047270693 0.08128921 0.008948979 0.011894138

summary_processor.0.weight f4 [16, 5]
000000 c6 c1 ca 3d a6 41 32 be e8 00 08 3e 8e 1f a7 3e
       0.099002406 -0.17407855 0.13281596 0.32641262
000010 db 8d 57 be 2d e3 33 bd 71 b0 e5 bd aa 09 26 bd
       -0.21050207 -0.043917824 -0.11215294 -0.04053656
000020 bd 29 d8 bd 1a d5 8d 3e 95 bd b9 3e 72 f0 c2 3e
       -0.10554836 0.27701646 0.36277452 0.3807407
000030 07 cd 99 3d c2 ef 13 bd 89 75 80 bc 3a a9 c1 3e
       0.07509809 -0.036117323 -0.015681045 0.37824422
000040 7e 65 53 be 84 86 31 be a3 cc a7 be d4 55 97 3e
       -0.20644185 -0.1733647 -0.32773313 0.2955767
000050 80 bb 7c 3e 37 3a 8a be 77 2f 83 3d 9d 7f 9e 3e
       0.246809 -0.2699754 0.064055376 0.30956736
000060 6f 09 58 3e 7f 95 bb 3e 39 5a 64 be 51 75 8a be
       0.21097349 0.36637494 -0.22300042 -0.2704263
000070 2d fd 98 3e de 17 af 3e 0a b1 a9 be ad 44 ba be
       0.29880658 0.34197897 -0.33142883 -0.3638052
000080 29 c6 1f 3d 97 f3 97 3d db 75 d2 3c cc 38 ff 3d
       0.03900734 0.07419508 0.025690963 0.12462005
000090 7e 6b 90 3d 59 e0 0d 3e 21 65 ad 3e bf d1 55 3d
       0.070517525 0.13855113 0.33866218 0.052201983
0000a0 b9 0e 72 be e8 1c 47 3e 3b 36 89 be 95 fa ae 3e
       -0.23638429 0.1944462 -0.26799187 0.34175554
0000b0 db de a2 3d 80 df 64 3d 37 23 6b be 6c af 6d 3e
       0.079526626 0.05587721 -0.22962652 0.2321145
0000c0 f0 a2 1d be 38 15 a0 bc 71 ea 21 be 3f 5c b5 3d
       -0.15394187 -0.019541368 -0.15812089 0.08855485
0000d0 47 66 56 3e 6a 6a 99 3c 97 10 c9 bc 80 28 3a 3e
       0.20937453 0.0187275 -0.024544043 0.18179512
0000e0 65 0c 33 be 63 48 aa be 12 94 ad be 5c 11 42 3e
       -0.17485197 -0.33258352 -0.3390203 0.18951935
0000f0 5d 54 ce 3e 15 f6 e7 bd 84 2d 18 3d e4 df 13 3e
       0.4029874 -0.11326233 0.037152782 0.14440876
000100 6d 71 96 be e3 b8 14 3e 35 44 d1 3c 48 31 ca 3c
       -0.29383412 0.14523654 0.025545219 0.024681702
000110 4f dd 7a 3d d5 22 8a 3e 3f 24 89 be dd c4 38 3e
       0.061246213 0.269797 -0.26785466 0.18043847
000120 0d 77 b8 3e 10 0c fa 3d d4 ce 76 3e c9 11 d1 bd
       0.3602833 0.12209332 0.24102336 -0.102084704
000130 4c 7e ee bd 7d 92 8f bd 0c 8c 83 be e8 f9 ca be
       -0.11645183 -0.07010362 -0.25692785 -0.39643788

summary_processor.0.bias f4 [16]
000000 18 5a 85 3e b5 15 b9 3e 8d 59 43 3e 64 bb 44 3c
       0.260453 0.36149374 0.1907713 0.012007568
000010 3c 58 f5 3c 70 a5 46 bd 54 df 07 3f 0e 89 85 be
       0.0299493 -0.048497617 0.53075147 -0.26081127
000020 27 59 85 be fb 9e b3 be cb 45 c7 3d a6 9a 9e 3d
       -0.2604458 -0.3508223 0.09730109 0.077443406
000030 1b b4 8c be 4e c4 98 be 40 0a 81 bd 63 42 a7 be
       -0.2748116 -0.2983727 -0.06300783 -0.32667837

summary_processor.2.weight f4 [16]
000000 7d 5d 66 3f 9a b9 7b 3f 0d e0 6e 3f 2c 6d 5c 3f
       0.899864 0.9833008 0.93310624 0.86104083
000010 91 68 69 3f d9 da 62 3f 6c bf 7b 3f a5 1a 6a 3f
       0.9117518 0.88615185 0.9833896 0.91446906
000020 44 d3 6b 3f c7 ab 6f 3f 0b c4 5d 3f 2a a0 60 3f
       0.9211924 0.93621486 0.8662726 0.8774439
000030 cb 2c 5e 3f 47 56 79 3f 3e bf 43 3f 72 3f 73 3f
       0.867871 0.97397274 0.7646369 0.95018685

summary_processor.2.bias f4 [16]
000000 60 1a eb 3c d9 35 55 bc 8a 0e cb 3c 09 22 a8 3c
       0.0286991 -0.013013327 0.024787206 0.020524042
000010 e5 36 91 3c 45 71 52 3d d9 17 ac 3d 82 c0 60 3b
       0.017726371 0.051377553 0.08402986 0.003429443
000020 0b 39 79 bd 57 21 b2 3b af 9b 9e bd 44 94 05 bd
       -0.060845416 0.0054361033 -0.07744538 -0.0326121
000030 66 04 3e 3d 71 f5 1a bd 0b 7e 2f bd d0 7b 0e bd
       0.046390913 -0.037831727 -0.042844813 -0.034786046

summary_processor.3.weight f4 [16, 16]
000000 0a 86 28 be d3 fa d0 bc 67 96 e9 bd e9 6d 5c be
       -0.16457382 -0.025510227 -0.1140564 -0.21526302
000010 56 d3 ad 3d de 7f b6 bd 5b 99 81 bd 65 bf 0b be
       0.08487575 -0.089111075 -0.06328078 -0.1364723
000020 4f cd a1 bd 58 00 39 3e 09 63 2a 3e f8 f9 82 3a
       -0.07900488 0.18066537 0.16639341 0.0009992709
000030 f4 02 4d 3e 51 36 13 be c3 1f 3a 3e ef 77 65 3e
       0.20020658 -0.14376189 0.18176179 0.22409032
000040 e0 5a 49 be b7 b1 b3 bd 32 dc 1b 3e 83 be d4 3d
       -0.19663572 -0.08774131 0.15220717 0.103879
000050 ab 71 63 be 7d 7b c5 3d 3c 57 18 be ef 80 1c 3e
       -0.2221133 0.09642694 -0.14877027 0.1528356
000060 33 dd 24 bc c5 b8 01 be 4b 63 29 3d 2d 9b d0 3c
       -0.010062504 -0.1266814 0.04135446 0.025464619
000070 d7 04 33 be 1d ad cb 3d 14 a3 02 3e fc 3c db 3d
       -0.17482315 0.09945128 0.12757522 0.10704991
000080 62 00 21 3e 76 c1 58 be ed 5c 1f be ea b4 1d be
       0.15722802 -0.2116755 -0.15562792 -0.15401044
000090 77 bd a4 3d 7c be 15 be da 74 99 bd b4 1e 42 be
       0.0804395 -0.14623445 -0.07492991 -0.18957025
0000a0 64 00 9c 3d 31 e1 1f be fb 3e 14 3e ee 93 ed bd
       0.07617262 -0.15613247 0.1447715 -0.11600481
0000b0 a6 22 71 3e e0 3e 1f 3d c5 ba 19 3e 82 ee 50 3e
       0.23548374 0.03887832 0.15012653 0.20403484
0000c0 0f 81 f9 3d 4a 30 03 3c 4e 8e bc 3d 29 67 e6 3d
       0.12182819 0.0080071185 0.0920683 0.11250145
0000d0 2a a9 19 be 9c 42 25 3d a8 48 0e be d9 01 71 3b
       -0.15005937 0.040346727 -0.13894904 0.0036774783
0000e0 d0 1c db bc 3a bb 25 be 24 ef 64 3d b2 b9 00 be
       -0.026747137 -0.16184703 0.055892125 -0.12570837
0000f0 29 23 19 3d 1f 85 5e bd e2 5f aa 3d 4a 61 de 3d
       0.037387047 -0.054326173 0.083190694 0.108584
000100 6d 74 37 3d 1f 31 ea 3c 76 f8 95 3d 98 9a fb 3d
       0.044788767 0.028587876 0.07322781 0.12285346
000110 55 5d ce bc 6c 36 0e 3e 65 1d 59 be 5d b6 69 bc
       -0.025190989 0.13887948 -0.2120262 -0.01426467
000120 2a 44 39 3e e1 40 cf 3d b9 d2 0d 3e ef 74 06 be
       0.18092409 0.101197965 0.13849916 -0.13130544
000130 71 e8 26 3e e9 25 52 3e c0 84 0d be 48 7e 1c be
       0.16299607 0.20522274 -0.13820171 -0.15282547
000140 8a 84 c1 bc 96 87 4d 3c c1 52 10 3e 0b d0 ca 3d
       -0.02362277 0.012544533 0.14094068 0.09902962
000150 ff a3 db 3d e2 db 3f be 34 de d1 bc 76 2d f0 bd
       0.10724639 -0.18736222 -0.02561865 -0.11727421
000160 ba b0 46 3d c6 3c 18 3e da 8d 5d bd f1 a5 5b be
       0.048508383 0.14866933 -0.05409036 -0.2145002
000170 d0 3e 4f 3e ed b9 0d 3d 06 39 d7 3d ab dd 17 bd
       0.20238805 0.03460114 0.10508923 -0.037076633
000180 b4 f3 51 3e 14 6f 7c 3e 7e 3d d9 3c 12 a3 24 bd
       0.20503122 0.24651748 0.02651858 -0.04019458
000190 f8 3a fe 3d aa db cf 3d 28 2a ab 3e 2f b8 49 be
       0.12413591 0.101493195 0.334306 -0.19699167
0001a0 0d b3 98 be 36 2f 54 be 61 1b 0c be 08 32 0b be
       -0.29824105 -0.20721135 -0.13682319 -0.13593304
0001b0 04 92 2d be a2 3d b3 be b4 33 2a be 18 e4 49 be
       -0.16950232 -0.3500796 -0.16621286 -0.19715917
0001c0 69 38 dd bd bb b9 5a 3e 1c dd f3 3d 4d 79 39 be
       -0.10801775 0.21359913 0.11907408 -0.18112679
0001d0 d4 d2 af 3d 11 43 47 bd 1f 54 0c 3e 01 5a 1e be
       0.08585134 -0.048647944 0.13703965 -0.15464021
0001e0 2b 06 99 3c 81 fc b4 3d 0a c1 0d be c2 e3 ce 3d
       0.018679699 0.08837224 -0.1384317 0.10102035
0001f0 65 ee 23 be c4 ea 2d 3e 3e 5b 16 bd a6 85 44 3e
       -0.16008909 0.16984087 -0.03670811 0.19191608
000200 86 f8 4e 3b 43 56 c3 bd 75 e5 a3 3d c0 e5 2b 3d
       0.0031581237 -0.095379375 0.0800275 0.041967154
000210 da 14 b5 3d 64 b3 2d be 1d 89 3d bd 6e 9e e9 3d
       0.08841868 -0.16962963 -0.04627334 0.11407171
000220 75 6d 3c bd 0b 9f 1b be 27 b6 8c bd c7 41 b5 bc
       -0.046002824 -0.15197389 -0.0687068 -0.022126092
000230 2d 46 04 3d 51 a3 0c be a3 79 ae bd 65 9b 60 3e
       0.032293487 -0.13734175 -0.08519294 0.21934278
000240 3b 92 67 bc 51 5d bb 3d a2 00 47 be 59 61 81 be
       -0.014133985 0.09148658 -0.19433835 -0.25269583
000250 6c b5 34 3d a9 75 40 3e e1 58 00 be 8a 64 9c 3d
       0.04411833 0.18794884 -0.12533905 0.07636364
000260 d1 f1 ac 3e 18 48 1a 3d 36 20 e1 3d 72 60 09 be
       0.3377824 0.03766641 0.10992472 -0.13415697
000270 c3 6b d9 bd 21 4a bd 3d bc e2 51 3e 58 93 57 3d
       -0.10616257 0.092426546 0.20496649 0.052630752
000280 21 55 40 be 9c cd 65 3e 58 cf 14 be 13 c7 63 be
       -0.18782474 0.22441715 -0.1453222 -0.2224391
000290 83 64 1f be 9b d4 e6 3d f4 7a 03 be 4e bb 11 be
       -0.15565686 0.1127102 -0.12839872 -0.14231607
0002a0 18 e9 38 3e ea f4 a8 3d cf 32 95 bd 5f 0b 6e 3e
       0.18057668 0.08249839 -0.072850816 0.23246525
0002b0 4a 95 04 3e 13 c5 8b 3d 7a 7b 1a 3e a4 d4 02 be
       0.12947574 0.06824698 0.15086165 -0.12776428
0002c0 ff 93 70 bd f9 7e aa bd 96 6a 39 be f5 6f af 3d
       -0.05873489 -0.08324999 -0.18107066 0.08566276
0002d0 ee 95 c7 bd a7 b3 c7 bd 0b be 0f 3a 00 52 05 3e
       -0.09745394 -0.09751063 0.00054833357 0.13019562
0002e0 7c 6c 47 3e 13 a1 45 3e 3f cc 06 be da ff 19 3b
       0.19474977 0.19299726 -0.13163851 0.0023498447
0002f0 74 fb 72 3e a4 25 82 3e db 8f 20 3c c9 01 b8 3c
       0.23728734 0.25419343 0.009799923 0.022461789
000300 6d 44 93 3d 6e 55 84 bc 9a 71 b9 3d 89 34 d7 3c
       0.071907856 -0.016154017 0.09054871 0.026270168
000310 46 b4 ce 3d 2c ec 4a 3e b5 f7 01 3c 03 85 1f 3e
       0.10092978 0.19816655 0.007932593 0.15578084
000320 01 5e 3f be 03 cf e1 3d bb 71 16 be 54 6e 45 3c
       -0.18688203 0.110258125 -0.14691822 0.01205023
000330 f5 f5 f9 bd 06 0a 6b 3e 2c b3 03 be 5a 31 ff 3d
       -0.12205116 0.22953042 -0.12861317 0.12460585
000340 af 9c 16 3e 95 91 cc bd 7c 63 b6 bc ce ec 6a bd
       0.14708208 -0.09988705 -0.022264235 -0.05735474
000350 5f b8 2c bd e8 b2 22 be 06 99 fb bd 78 02 8c 3e
       -0.042168017 -0.1588856 -0.12285046 0.27345634
000360 10 23 50 3d c6 e7 38 be 7f 7b 94 3b 41 6d c5 3c
       0.05081469 -0.18057165 0.0045313234 0.024099948
000370 87 ed 97 3d 03 40 cf bc 29 92 3b 3e dd 4f d5 bd
       0.074183516 -0.025299078 0.18317474 -0.10415623
000380 99 a2 4f 3e 75 b1 85 be 14 37 3e 3e 72 01 c9 bd
       0.2027687 -0.2611195 0.18575698 -0.09814729
000390 9c 45 98 be 63 e3 41 ba 34 dd 2f 3e d5 78 50 bd
       -0.29740608 -0.0007396249 0.17174226 -0.050896484
0003a0 11 62 ce bd 7e ac 00 be 3b 1d 34 3e 1d c8 d3 bd
       -0.100772984 -0.125658 0.17589276 -0.10340903
0003b0 ea 48 03 3e 4c 5b 0e 3e fb e1 88 bd 49 d3 95 3e
       0.12820783 0.13902014 -0.06683727 0.2926276
0003c0 d4 3b f5 bb 59 69 b8 be 19 b5 35 3e 52 80 8f bc
       -0.0074839387 -0.36017874 0.17744865 -0.017517243
0003d0 5a e8 de 3d b4 03 42 be c1 4f 8d 3d 8b 38 d1 3c
       0.10884161 -0.18946725 0.068999775 0.025539657
0003e0 d9 c8 24 bd f3 e4 a7 3e 22 0f cd bd 29 b1 47 be
       -0.040230606 0.32791862 -0.10012652 -0.19501175
0003f0 c5 0b 62 3d ea 1b 30 bd 87 f7 e4 3d 99 53 52 3e
       0.055187006 -0.04299537 0.111800246 0.20539702

summary_processor.3.bias f4 [16]
000000 a1 c3 e8 3d 65 1e 25 be ac 75 2d 3d 50 3c 15 be
       0.11365438 -0.16124876 0.04234855 -0.14573789
000010 ff 22 fa 3d 19 14 7c bb 38 8c 8b 3e 5a a2 f6 bc
       0.12213706 -0.0038464128 0.27255416 -0.030106712
000020 62 d4 17 be 0d a1 3d bd a9 92 a3 bb 96 59 a4 3d
       -0.14827111 -0.046296168 -0.0049918485 0.080249
000030 53 53 29 be 6e da 09 be 01 70 85 bd 95 7d 71 bb
       -0.16535692 -0.1346223 -0.06515504 -0.0036848534

summary_processor.5.weight f4 [16]
000000 6e 31 58 3f 8c 34 4b 3f d4 62 41 3f 0e 68 45 3f
       0.84450424 0.79377055 0.75541425 0.771119
000010 53 42 63 3f 24 98 62 3f 38 59 5c 3f 18 99 62 3f
       0.8877308 0.885134 0.86073637 0.8851485
000020 cd bb 5c 3f 3a eb 5c 3f 15 3b 65 3f 7a 05 68 3f
       0.8622406 0.8629643 0.8954328 0.90633357
000030 51 47 61 3f f3 7f 5f 3f 98 2a 69 3f 68 0a 5e 3f
       0.87999445 0.8730461 0.9108062 0.8673463

summary_processor.5.bias f4 [16]
000000 27 92 11 3c b1 9e 91 3d e9 5d 97 3c 01 8c 9d 3d
       0.008884943 0.07110346 0.018477397 0.07692719
000010 25 f9 22 3c f1 d5 5b 3d 73 28 3c bd 59 35 5e bc
       0.009947096 0.053670827 -0.045937013 -0.013562524
000020 53 18 5d 3d 33 a0 9f 3d 45 1d 6d 3d 5a b5 8d 3d
       0.053978276 0.077942275 0.05788924 0.06919356
000030 21 1b 29 3d e1 6c 5f 3d f0 5b c4 3b 21 49 a6 3c
       0.041285638 0.054547194 0.005992405 0.020298542

prior_processor.0.weight f4 [16, 1]
000000 bc b3 97 3e 65 ed 30 bf fd 2e e8 3e 79 5f 12 bf
       0.29629314 -0.69112235 0.4534835 -0.5717693
000010 e1 00 6d bf 8c 61 f7 3e fa 4f 43 3f 8e 02 ce 3e
       -0.92579466 0.4831661 0.7629391 0.40236324
000020 13 a4 e5 3c 78 7e 3b 3f 46 ef b5 be cc 72 8b 3e
       0.028032338 0.7323985 -0.35534114 0.2723602
000030 36 b1 5f bd f6 88 09 bf 27 f5 99 be 7c 43 ad bd
       -0.05461236 -0.5372461 -0.3006985 -0.08460137

prior_processor.0.bias f4 [16]
000000 09 17 6b 3f b5 80 3e 3f 30 ad d0 be 9f f0 4f be
       0.91832024 0.7441514 -0.40757132 -0.20306633
000010 36 d0 6e bf a4 06 f7 be 3b e5 5a be ef 4f da be
       -0.93286455 -0.48247254 -0.21376507 -0.4263911
000020 72 ec de be 66 8c 9a 3e 2a be 71 be df 97 91 3e
       -0.43539768 0.3018524 -0.23607698 0.2843618
000030 15 57 2f bf 96 b7 6e 3f 37 59 14 3f b0 d6 99 3e
       -0.6849225 0.9324888 0.5794863 0.30046606

prior_processor.2.weight f4 [16]
000000 97 2d 81 3f 36 e5 5e 3f 60 df 64 3f e1 67 86 3f
       1.0092038 0.870685 0.89403343 1.0500451
000010 6a f3 89 3f 09 0f 5b 3f 20 74 7e 3f af 1c 4c 3f
       1.0777409 0.85569817 0.9939594 0.7973127
000020 db 06 58 3f f9 cf 7e 3f f2 49 57 3f 16 cd 70 3f
       0.8438546 0.9953609 0.84097207 0.94062936
000030 ee 02 55 3f b5 5d 77 3f 8c 49 4c 3f 09 0b 7b 3f
       0.83207595 0.9662736 0.79799724 0.98063713

prior_processor.2.bias f4 [16]
000000 22 98 e9 bb 10 bf d6 bc 63 46 12 3d fa 33 31 3d
       -0.0071287313 -0.026214153 0.035711657 0.04326246
000010 ed 63 0b 3d bf cb 5a 3d bf ba d0 b9 2d 86 16 3e
       0.034030844 0.053416964 -0.00039811988 0.14699621
000020 90 6e 8f 3d f9 c6 f8 bb bf 17 8a 3d 9b de c5 3c
       0.0700351 -0.0075920788 0.067428105 0.024153998
000030 71 43 a5 3d 0d d0 9e bc ce 00 7e bd 8d 97 e4 bc
       0.08069504 -0.019386316 -0.062012486 -0.027904296

prior_processor.3.weight f4 [16, 16]
000000 90 7e 81 3e da a9 3c 3d b0 ce 35 be 31 4b 78 be
       0.25291872 0.04606042 -0.17754626 -0.24247433
000010 a7 57 28 3c 73 58 43 be c8 f4 38 be d1 b6 31 3e
       0.010274804 -0.1907671 -0.18062127 0.17354895
000020 dc 24 3a be b4 0b 9e 3d 76 eb 50 be d1 18 2a be
       -0.18178123 0.07717076 -0.20402321 -0.16611029
000030 35 2b 18 be a3 ed 96 3c 51 c7 cf bd 88 4e 73 3e
       -0.14860232 0.01842386 -0.101454385 0.23760426
000040 31 c8 43 be a4 94 dd 3a 2b 20 b9 3d 45 56 84 3e
       -0.19119336 0.001690526 0.09039339 0.25847068
000050 9c e7 1d be 62 98 e7 bd ac 87 c5 bd c8 ba 5a be
       -0.15420383 -0.113083616 -0.09645018 -0.21360314
000060 35 e3 c6 3d 6f 3a 02 bd 97 ee 33 3e 44 aa 86 be
       0.09711305 -0.031794008 0.17571484 -0.26301777
000070 01 05 83 3d 68 65 1c 3e c4 25 10 be 58 ea 36 3e
       0.06397439 0.15273058 -0.14076906 0.17862833
000080 94 e7 6c be 06 6c 2b be 77 6d ee 3d d7 6b 6c be
       -0.23135215 -0.16740426 0.116419725 -0.23088013
000090 e8 2c 24 3d 6a 29 d0 3d 1c 55 80 3d 41 d2 12 3e
       0.04008189 0.10164149 0.06266233 0.14338018
0000a0 90 ce a2 bd 07 41 f5 3d ba 7c 43 bd 3f a6 ea bd
       -0.07949555 0.119752936 -0.04772637 -0.1145749
0000b0 b5 f9 9f bc 6f be 0f be bd e3 17 be 7c ee 40 be
       -0.01952825 -0.14037488 -0.14832969 -0.18840975
0000c0 a9 bc ae 3e 3f 90 29 3d 56 7d e3 3d a7 92 b5 be
       0.3412831 0.04139733 0.1110789 -0.3546345
0000d0 27 dd 87 bd 3e d7 c8 3d 55 d2 84 be e6 c1 b4 3d
       -0.06633978 0.09806679 -0.2594172 0.08826046
0000e0 b4 68 bf 3d f3 02 86 3d 7d a1 5e bc 54 d5 7f 3e
       0.093461424 0.06543531 -0.0135883065 0.24983722
0000f0 ea b4 0c be 22 c1 5f 3e d0 85 8c 3e fc 3d 5b 3e
       -0.13740888 0.21851018 0.2744584 0.21410364
000100 f6 3b 85 3e c1 f7 76 be 3c cd 06 be 5b c7 b5 3d
       0.2602231 -0.24117948 -0.13164228 0.08875915
000110 52 7f 4c be 6e f8 dc bb 64 95 53 bd 19 9d 8b be
       -0.19970444 -0.0067434823 -0.051656142 -0.27268293
000120 f5 e5 78 3d 22 e8 8e 3e 0a 0c 3a 3d e1 e2 01 3e
       0.06076618 0.27911478 0.045421638 0.12684204
000130 38 4e 52 3d ee 5e 9f 3d 4f ba 06 3e a4 db bf 3d
       0.051344126 0.07781778 0.13157009 0.09368065
000140 ff fd b7 3d e5 00 82 3e 47 10 91 bd b2 f8 27 3d
       0.08983993 0.25391307 -0.07083183 0.04100866
000150 a7 d7 c5 be 2a 5a 56 3e ae 00 fe bd ad 18 3a 3e
       -0.38641092 0.20932832 -0.124024734 0.18173476
000160 2a d6 62 be e7 8c 8b be 61 8f 25 3e bc 9b c3 bd
       -0.2215201 -0.27255937 0.16167976 -0.09551188
000170 50 10 21 bb 9f 18 2c 3e 5f 4b 20 bd bf 70 5c 3d
       -0.0024576373 0.16806267 -0.03913438 0.05381846
000180 55 b4 4d bd 3b b3 52 3d f1 3e 03 3e 1f 6c 5d 3e
       -0.050220806 0.05144046 0.12816979 0.21623276
000190 fa 6a 0c be e6 10 54 3d 1f b3 d5 bd 5f 8a 48 3c
       -0.13712683 0.051773928 -0.10434555 0.0122400215
0001a0 30 34 b2 bd 90 ed 0f be 9f c0 30 be 99 49 21 be
       -0.0870136 -0.14055467 -0.17260979 -0.15750732
0001b0 42 a7 02 bd 4a dc 16 be 24 5c 95 3d e7 72 0b 3c
       -0.03189779 -0.14732471 0.07292965 0.008511282
0001c0 b7 49 bd bd 3f c8 7f be 6f 12 3a be 19 ed eb 3d
       -0.092425756 -0.24978732 -0.18171094 0.11519832
0001d0 a8 90 38 be b0 d0 75 bd 9a ba 63 be 82 47 9d bc
       -0.18023932 -0.060013473 -0.22239152 -0.019199137
0001e0 3f 8e 3a 3e 35 5b d7 3c c9 f9 b5 bd bc 53 07 3e
       0.18218325 0.026288608 -0.08885533 0.13215536
0001f0 bc 42 1a 3e 4a a3 fa 3d 5d ca 04 be be 22 7b 3d
       0.1506452 0.12238176 -0.1296782 0.06131243
000200 a1 f4 cc bd bf c5 d4 3c ae 08 be bc 18 2d 3e 3e
       -0.10007597 0.025973199 -0.023197498 0.1857189
000210 46 a3 37 be aa 60 47 be c4 96 1f be 45 4f e5 bc
       -0.17933378 -0.19470468 -0.15584856 -0.0279919
000220 f2 35 b8 3d 6f c1 a6 be 38 51 5e be e6 05 ff bd
       0.08994664 -0.32569453 -0.2171067 -0.12452297
000230 3c 75 46 bd b5 2d 61 3e 68 fd aa bd bf f6 d0 3b
       -0.048451647 0.21990092 -0.08349115 0.0063770707
000240 05 2c 9e be 92 03 6e bb 4e a6 0a 3e 9e 75 9f bc
       -0.3089296 -0.0036318046 0.13540003 -0.019465264
000250 fd f2 ab 3e 62 9b 96 3c 24 e7 43 3e 62 1a e5 3d
       0.33583823 0.01838464 0.19131142 0.11186673
000260 8a c8 15 3e db 41 f8 bd db 2b 0b 3e 19 bc 8e 3e
       0.14627281 -0.12121936 0.13590948 0.27877882
000270 03 3d d1 3d 1b 16 e9 3d 51 eb 1f 3e 2b d2 0d bd
       0.10216715 0.113811694 0.1561711 -0.03462426
000280 a0 1e 18 be 49 65 3d 3d 58 b9 60 3d b5 65 3d be
       -0.14855433 0.04623917 0.054864258 -0.1849583
000290 6f be 96 3d 08 09 21 be c8 e8 90 3e 6c b6 58 bc
       0.07360541 -0.15726101 0.28302598 -0.0132270865
0002a0 18 ac d3 3d e7 f6 eb 3d a2 c7 14 be dd 20 88 3e
       0.10335559 0.11521702 -0.14529279 0.26587573
0002b0 2a ae bd 3c 46 c5 94 be e6 ed 02 3d a0 69 6e bd
       0.023154337 -0.29056758 0.03196516 -0.0582062
0002c0 c6 2d 84 3e bc 96 98 bc e6 47 89 be 70 27 29 be
       0.25816172 -0.018626563 -0.26812667 -0.1651895
0002d0 d2 32 1d be 93 19 1e bd d5 a2 88 bc 2e 4a b0 ba
       -0.15351418 -0.03859861 -0.016679207 -0.0013449842
0002e0 93 ae 08 be bb 80 36 be 88 e5 07 3e db de 89 3e
       -0.13347845 -0.17822544 0.13271153 0.26927838
0002f0 17 01 87 bc c7 fa 58 3c 9f f8 15 bd f6 fe 2a bd
       -0.016480012 0.013243384 -0.036614057 -0.041747056
000300 87 ae 9c bd 19 e1 0d 3e ab 4c 5a be 4c e2 6c 3e
       -0.07650476 0.13855399 -0.21318309 0.231332
000310 4c 80 a9 3e a3 72 42 be 17 88 17 3e 18 18 54 3d
       0.33105695 -0.18989043 0.14798008 0.05178079
000320 4d 51 fd bc 95 af 40 be d1 de 7e 3e 7f 92 22 3e
       -0.030922556 -0.18816979 0.24889685 0.15876196
000330 4f 81 33 be 1e 5b 2d be f6 ce 44 3e cf 89 ac bd
       -0.17529796 -0.1692929 0.19219574 -0.084247224
000340 6c ea 5e be 78 15 56 3d 87 1d e8 bb be 49 2f be
       -0.21769112 0.052266568 -0.007083598 -0.17117974
000350 17 c3 ff 3d 52 c3 a1 bc 5d b1 5b 3e 1c 66 f4 bd
       0.12488382 -0.019746456 0.21454377 -0.11933538
000360 91 0e ac 3d 43 27 00 be d1 72 1f 3e 1d c8 4d be
       0.08401216 -0.12514977 0.15571143 -0.20095868
000370 cc 2f 60 3e 11 cd 42 be 76 a1 08 be 94 af 5d be
       0.21893233 -0.19023539 -0.13342842 -0.21649009
000380 8d 7e ed 3b d0 56 4b 3d da 22 9f bd a7 2b 2b bc
       0.007247752 0.049643338 -0.07770319 -0.010447419
000390 c1 a9 1c be 4e bb 5a 3e ee 3c 87 3e f2 fd 41 3d
       -0.15299131 0.21360514 0.26413673 0.04736132
0003a0 d8 24 76 be bc db 3d 3e bb e1 e1 bc 97 99 c6 3d
       -0.24037492 0.18540853 -0.027573457 0.09697264
0003b0 af 47 eb bb 8d 95 85 be 73 4b c1 bc b0 18 6f be
       -0.007180176 -0.2609066 -0.023595547 -0.23349261
0003c0 86 6a 15 3e d4 a2 8e be 32 96 69 3e 6e 63 34 be
       0.14591417 -0.27858603 0.22811201 -0.17616054
0003d0 c7 85 d9 bd f5 a8 a5 bc b5 5d 21 bd 54 a5 34 3e
       -0.10621219 -0.020222167 -0.039396007 0.17641193
0003e0 8b 20 c2 3d 20 a6 90 3d 1d 72 71 3e b9 ed 07 bd
       0.09478863 0.07062936 0.23578687 -0.033185694
0003f0 58 b2 2a be f2 29 ba 3d 8f 6a 7e bc d3 8f 90 be
       -0.16669595 0.09090032 -0.015528335 -0.2823473

prior_processor.3.bias f4 [16]
000000 2a 25 04 be ea 20 34 be 1d 96 39 3d f7 4e 59 3e
       -0.12904802 -0.1759068 0.045309175 0.21221529
000010 4c ea 49 bd c3 93 49 be 7a 8e 4d 3e 5d 0c 32 bd
       -0.04929571 -0.19685273 0.20073882 -0.04346882
000020 a9 45 48 bd 1e 6f 1a 3e 6a b7 38 3e 9b 54 da 3d
       -0.048894558 0.1508145 0.18038717 0.106606685
000030 e9 8f 3d 3e 1b d2 08 be 7c 76 82 ba 23 3a 66 be
       0.18511929 -0.13361399 -0.0009953524 -0.22483115

prior_processor.5.weight f4 [16]
000000 7f 84 67 3f c1 10 71 3f 52 94 71 3f 35 69 74 3f
       0.9043655 0.9416619 0.94366944 0.95473033
000010 42 af 83 3f 2f 31 83 3f 27 1a 64 3f fa b0 42 3f
       1.028786 1.0249385 0.89102405 0.76051295
000020 8e 93 8e 3f e3 09 5a 3f 7d 2f 8f 3f 6f bd 7c 3f
       1.113878 0.85171336 1.1186367 0.9872655
000030 d2 27 a0 3f 15 6a 61 3f c1 a8 99 3f 18 cd 61 3f
       1.2512152 0.88052493 1.2004625 0.88203573

prior_processor.5.bias f4 [16]
000000 23 70 3e bd 66 f9 04 bc ed 99 d3 3c c1 d3 44 bd
       -0.04649366 -0.008116102 0.025830233 -0.048053507
000010 0b 39 b4 bc 20 b4 17 3b 76 63 0b 3d 10 95 df 3d
       -0.021999856 0.0023148134 0.0340304 0.10917103
000020 08 d7 a4 3b 21 1b 9d 3d 14 2d 86 bb 05 ce 4d bd
       0.0050305165 0.0767119 -0.004094729 -0.050245304
000030 b8 2d 2e 3b 7c 55 41 3d b7 52 b9 3a 3a ab 3c 3d
       0.0026577543 0.047200665 0.0014139031 0.046061732

regressor.0.weight f4 [32, 96]
000000 b4 e0 5b bd 3f 1b 0d 3d 2f 86 87 bd 19 79 07 3d
       -0.05368109 0.034449812 -0.0661739 0.033074472
000010 4d c3 99 3d 84 19 aa 3c e9 c6 ab 3d 7b 00 25 bd
       0.07507954 0.02076412 0.083875485 -0.04028366
000020 09 ee b8 3d 77 45 3c 3d 98 5a a3 3d 52 c6 2d bd
       0.090297766 0.045964684 0.07976264 -0.04242546
000030 53 4d 0f 3d e9 9d 6c bd 91 b9 19 bc ce af 9b bd
       0.03498585 -0.057767782 -0.009382621 -0.076018915
000040 3f c8 28 bd c8 70 a4 3d 51 47 4a 3d 6e 2c a8 3d
       -0.041206595 0.08029324 0.04938442 0.08211599
000050 19 ea 63 bd 20 2e d1 bc 6f 94 20 bd 69 8e 81 bd
       -0.055643175 -0.02553469 -0.039204057 -0.06325991
000060 cc ca 78 bd a3 e3 76 bc 1b 83 65 bd 2b 00 96 3d
       -0.060740277 -0.015068921 -0.056033235 0.07324251
000070 74 85 6b bd 70 f3 10 bc 1e a5 ab bd f5 53 92 3d
       -0.057500318 -0.0088471025 -0.08381103 0.0714492
000080 2a 41 a6 bd 66 cd 58 bc a6 01 e0 3c d6 9f 0b 3d
       -0.08117898 -0.013232565 0.027344536 0.03408798
000090 3c 50 22 3d 24 67 b4 bd 68 9a 80 bd 29 c7 c8 3d
       0.0396273 -0.08808735 -0.06279451 0.09803612
0000a0 71 11 47 bd 65 3e db 3b ca 00 a2 3d 74 52 84 3d
       -0.048600618 0.0066907876 0.07910307 0.06461039
0000b0 64 5f f3 bc 40 2c a6 3d 09 ab 8c bd 44 11 cb bd
       -0.029708572 0.08113909 -0.0686856 -0.099154025
0000c0 25 b4 3d bd f1 dd e7 3d 50 6f b7 bd d9 68 75 3c
       -0.046314377 0.11321629 -0.08956778 0.014978611
0000d0 ad 87 8b bd cf 07 87 3d 31 ba a8 3b 00 f1 99 3d
       -0.068129875 0.06593286 0.005149149 0.0751667
0000e0 4f 01 b2 bc 02 f3 82 3d 97 99 34 3d b7 81 fa 3c
       -0.02172914 0.06394006 0.044091787 0.030579431
0000f0 68 e1 93 3d 0e 0c 21 bd 01 1f 5d bd f6 be 13 3d
       0.07220727 -0.039318137 -0.053984646 0.036070786
000100 06 0c 95 bd 02 cc 21 3c e7 da 88 bd a5 9a cf 3d
       -0.07277684 0.009875299 -0.06682377 0.10136918
000110 52 d1 cb 3c 5e 92 88 3d 7f 33 42 3d 36 a2 2f bd
       0.024880085 0.06668542 0.04741239 -0.042879306
000120 43 f7 d0 3d 04 0d 8a 3d b1 f6 bd 3d 8e 0c 63 3d
       0.102034114 0.06740764 0.09275568 0.055431895
000130 4a 8d 31 bd bc 8d 92 3d 1b 18 1d bd 72 45 e2 3c
       -0.043347634 0.0715594 -0.038353067 0.027621005
000140 18 1e 04 3d 93 b0 82 3d 1c d8 02 3e e0 e6 c7 bd
       0.032255262 0.06381335 0.12777752 -0.09760833
000150 6c 58 d6 bd 52 29 40 3d 53 4a b4 bd cd e6 cb 3c
       -0.10466084 0.046914406 -0.08803239 0.024890328
000160 c5 27 46 3d 92 f9 51 bc c6 d1 e8 3c d4 7f a1 bd
       0.04837777 -0.01281585 0.02842034 -0.078857094
000170 60 a4 80 3d 58 bb a3 bd a2 f8 08 3e 23 d5 08 3d
       0.06281352 -0.07994717 0.13376096 0.033406388
000180 4d 7d a5 bd b3 09 55 bd f5 cd 83 3d 83 c8 93 3d
       -0.0808054 -0.052011203 0.064357676 0.07215979
000190 66 5c db bd c2 4f 3c 3d 9f ab 62 3c 88 ee 73 bc
       -0.10710983 0.0459745 0.013834863 -0.014888413
0001a0 c0 71 7f 3c 6c 36 ad bc dc d5 db 3c 47 4a cf 3c
       0.015591085 -0.021144114 0.026835375 0.025303973
0001b0 72 65 8a 3d d2 ef 38 3c ed ff f9 3b 59 54 61 3d
       0.067576304 0.011287646 0.0076293857 0.05501208
0001c0 23 8d 51 3d 25 d0 82 3d 48 17 42 3d b7 7f 88 bc
       0.05115999 0.06387357 0.047385484 -0.016662462
0001d0 da e5 55 3d 98 b3 85 3d 80 bc 55 bd d1 f4 8b 3d
       0.052221157 0.065283954 -0.05218172 0.068338044
0001e0 28 b1 93 bd 20 b9 2e bd af 72 8d bc 8a a1 cd 3d
       -0.07211524 -0.042657018 -0.0172666 0.10040577
0001f0 2f e5 69 3d b3 e8 98 bd 74 6a c4 3d b4 9a 43 3d
       0.057103332 -0.07466259 0.09590617 0.04775496
000200 3f 32 11 3c 04 20 e6 bc 23 86 16 bd 5e 7b e4 3c
       0.008862077 -0.028091438 -0.036749016 0.027890857
000210 e4 6b 31 bd 4d 65 9c 3d a8 b6 9d 3d ef da a1 3d
       -0.043315783 0.07636509 0.077008545 0.079030864
000220 35 a1 26 3d 37 1f 8c 3d a2 81 c8 bd 7a a3 b2 3d
       0.040681083 0.06841891 -0.097903505 0.08722587
000230 b6 e9 25 3d da a2 22 bc 4f 32 56 bc 2e 75 73 3d
       0.040506087 -0.009926522 -0.013073518 0.059437923
000240 31 87 8b bd 5e 80 5c bd d7 21 99 bd ca ea 86 bc
       -0.06812895 -0.053833358 -0.074771576 -0.016469378
000250 e9 eb 56 3d 70 bd 4f 3d 7b 02 7e 3d 20 38 26 bc
       0.052471075 0.05071777 0.062014084 -0.010145217
000260 2b c9 24 3a 64 ca b2 3d e0 ff 19 3d dd b5 1d 3d
       0.000628608 0.08730009 0.037597537 0.038503516
000270 a7 c7 39 3b 6c 34 2c 3c 87 b9 0e 3d 9d 45 c4 3d
       0.0028347762 0.010510545 0.0348449 0.0958359
000280 24 85 84 3d 22 fe 60 3d d3 8a 81 3d ee 04 21 3b
       0.06470707 0.05492986 0.06325307 0.0024569589
000290 b8 60 b4 3c d2 4b 47 bd d4 7d 7b bd 58 2a 0e bd
       0.022018775 -0.048656292 -0.061399296 -0.03470835
0002a0 cc 53 88 3d b3 14 35 bd 2a 6d 7f 3d 6b 17 a3 bb
       0.06656608 -0.044209193 0.062359966 -0.004977157
0002b0 66 99 5e 3b a2 00 03 bd f1 63 64 3d 64 ee 14 3d
       0.0033965944 -0.031983025 0.055759374 0.03636016
0002c0 4a e6 61 bd 9d fc a6 bd e0 b5 5d 3d ca d6 df bc
       -0.05515126 -0.08153651 0.054128528 -0.0273241
0002d0 cc a3 8e bd b8 31 8a bc e2 65 49 bb 09 1d fa bc
       -0.069648355 -0.01686941 -0.0030730893 -0.030531423
0002e0 c6 f3 00 bd ba 4a 9a bc 47 27 27 bd be b8 8e 3d
       -0.03148248 -0.01883446 -0.040808942 0.069688305
0002f0 68 6c 64 bd 98 be 4f 3c 85 2d 8e 3d a5 5d 62 bd
       -0.055767447 0.012679718 0.06942276 -0.055265088
000300 db c6 ff 3c b8 d5 a1 bd d6 30 06 3c f7 36 17 3e
       0.031222751 -0.07902092 0.008190354 0.14767061
000310 10 1c 68 3d d0 78 74 bd 8d 17 89 bc b6 6c 82 bc
       0.056667387 -0.05968553 -0.016734863 -0.015920978
000320 e9 f9 89 3c 65 73 90 bd 04 0a a1 3d 2d 05 04 3d
       0.0168428 -0.0705326 0.078632385 0.0322315
000330 b1 10 28 bd 39 56 b7 bd e2 c2 ea bc cf 41 96 3d
       -0.041031543 -0.089519925 -0.02865738 0.07336771
000340 1c fc 85 bd ad ab 4f 3d 90 2a af bd b3 b6 48 3d
       -0.06542227 0.050700832 -0.0855304 0.04900236
000350 22 33 91 3d 79 42 02 3e b7 99 96 3d e1 52 33 bd
       0.07089831 0.1272067 0.073535375 -0.04378021
000360 94 c6 b7 bd f9 d1 de 3b b3 6d 43 3d 8d a8 6c 3d
       -0.08973423 0.006799933 0.04771204 0.05777793
000370 e7 27 45 bc 02 42 45 bb 46 e8 83 3d a2 b0 d3 3a
       -0.012033439 -0.0030099158 0.06440787 0.0016150663
000380 35 db e8 bd af 25 5f 3d 54 35 eb 3c 4a 3f 85 38
       -0.113699354 0.054479297 0.028711952 6.353723e-05
000390 06 49 80 bc 14 c3 09 ba 71 54 41 3d 64 83 b0 bd
       -0.01565982 -0.0005255204 0.04719967 -0.08618811
0003a0 10 de 23 3d 3e b7 73 3d af 94 36 bc c3 40 e4 bd
       0.040006697 0.059500925 -0.011143847 -0.11145165
0003b0 22 fe bc bd 82 db b6 bd f8 68 ca bd 74 30 5c 3d
       -0.092281595 -0.089285865 -0.098833025 0.053757146
0003c0 dd 92 5c bd aa d2 2d bd af 7e 6e 3d 3b f4 2e 3d
       -0.053850997 -0.042437233 0.058226284 0.042713385
0003d0 83 d8 3e bc a5 59 ae bd 7c 0f 72 bd ab e1 b5 3d
       -0.0116483 -0.08513192 -0.0590968 0.088809334
0003e0 3c fd c0 3d 39 73 2e bd 39 6b da ba 8f 00 22 bd
       0.094233006 -0.042590354 -0.0016664035 -0.039551314
0003f0 e3 76 ee 3c 9f 0b eb bd 9e 0f 3d 3d b3 56 3c 3d
       0.029109424 -0.11476826 0.04615747 0.04598112
