best_models/enc_finetuned.pth (torch, 45601 bytes, 29 tensors)

feature_extractor.0.weight f4 [64, 2]
000000 9d 72 d1 be 60 11 09 3c 40 85 85 3e 4d 73 84 3e
       -0.40907755 0.008365959 0.26078224 0.25869218
000010 27 3f a7 be aa 89 8d 3e f9 51 04 bf 69 1e 95 3e
       -0.3266537 0.27644092 -0.5168758 0.29124764
000020 01 02 d9 be aa 57 a0 3e 92 74 a1 be fa 60 61 bb
       -0.4238434 0.31316882 -0.3153425 -0.0034390078
000030 42 a0 f3 3e 77 5c 14 3f c0 e0 55 bf d5 ee f5 bd
       0.47583205 0.5795359 -0.83546066 -0.12008444
000040 52 17 21 3e dc a5 01 bf 05 6c d5 3e 2f 46 fc bd
       0.15731552 -0.50643706 0.41683975 -0.12318074
000050 2c 27 42 be a1 6b a1 3e 4f 45 06 bf 40 88 6f bd
       -0.18960255 0.31527427 -0.52449507 -0.058479548
000060 1e 35 1f 3d 7e 1b d0 3d d5 c7 8a be f4 a1 d8 3e
       0.038869016 0.10161494 -0.27105585 0.4231106
000070 fa ca 02 bf 90 6c 0f 3f 97 e9 01 3f ab f8 16 3f
       -0.5109097 0.5602503 0.50747055 0.5897319
000080 9c ea 81 be cf e3 d6 be 3c de 3d bf b7 b7 0e bf
       -0.25374305 -0.4197068 -0.7416723 -0.55749077
000090 e9 dc 11 3f 0c d5 4b be f5 04 08 bd ff 3d fc be
       0.5697771 -0.1990549 -0.033207852 -0.4926605
0000a0 3a 8e f0 3d a9 a1 d1 be 6f a4 1b be bc 05 13 bf
       0.117458776 -0.4094365 -0.15199445 -0.57430625
0000b0 83 c5 f0 be 18 e2 62 bd fe 1f 21 3f ac d9 13 3f
       -0.4702569 -0.0553914 0.6293944 0.57754016
0000c0 8b ca 86 3d d1 98 57 3e b1 2f e2 3e 23 31 a8 be
       0.06581601 0.21054389 0.4417701 -0.32849988
0000d0 24 6b cd 3e 5a 32 a9 3e 19 eb 73 be b8 7f 47 be
       0.40120804 0.33046228 -0.23820151 -0.19482315
0000e0 fc b0 27 3f 2e 4e 9d be 79 d4 0c 3f a7 78 f7 be
       0.6550443 -0.3072371 0.5501171 -0.48334238
0000f0 f9 1b 8c 3e d7 af 13 be 9c 45 23 bf 8f a6 6f 3d
       0.2736509 -0.14422546 -0.6377809 0.058508452
000100 14 ef 27 3f ff 76 84 3e b2 fb af 3e e8 6b 11 bf
       0.6559918 0.25872037 0.34371716 -0.56805277
000110 9d 86 d1 be 59 a4 17 3f 75 90 b5 3e 76 71 0d 3f
       -0.40923014 0.5923515 0.35461774 0.5525125
000120 36 46 13 bf c9 61 4d 3e 21 fd 91 be ff 45 2e be
       -0.5752901 0.20056833 -0.28513435 -0.17018889
000130 59 2f 01 bf c6 59 15 bf 0f 79 07 bf 02 f2 93 be
       -0.5046287 -0.5834011 -0.52919096 -0.28895575
000140 14 a1 84 bd 66 03 01 3e 60 aa 94 3e ed 00 10 3f
       -0.06476036 0.12598953 0.29036236 0.5625141
000150 c0 86 8a be 1d 86 ee be 96 28 92 3b de a3 21 be
       -0.2705593 -0.46586695 0.0044604046 -0.15785167
000160 60 1c 43 3e 94 d5 93 3e 66 25 ae 3e 8c c0 af 3e
       0.19053793 0.28873885 0.34012908 0.3432659
000170 ed aa ba be a7 eb d6 bd 6e 79 08 bd dd f3 a5 3e
       -0.3645853 -0.10494166 -0.03331893 0.32412615
000180 fd 5a 1f 3f a9 ce d3 bc fc 1d 07 3f 87 74 21 3e
       0.6224821 -0.02585538 0.5278013 0.15767108
000190 1f 25 13 3f a4 29 f4 3e c3 d3 95 3e 52 55 6d be
       0.5747852 0.4768802 0.29263124 -0.23177078
0001a0 d5 0f b1 be 3f bc 8a 3d fe ef 29 be e8 25 ea 3d
       -0.3458239 0.06774186 -0.16595456 0.11433011
0001b0 3e eb c1 be 4b 40 9f 3e b2 19 11 bf a6 69 da be
       -0.37874788 0.3110374 -0.5667983 -0.42658728
0001c0 1e 3d b7 3e 07 96 23 3f 8c e0 0d 3f 4e c4 18 3e
       0.35788816 0.639008 0.55420756 0.14918634
0001d0 fb 73 39 bf f2 32 a0 3d 9b 7b a7 3e 70 81 45 3f
       -0.724426 0.07822217 0.3271149 0.7715063
0001e0 52 3c 65 be f2 9f 8d be 5b 30 b1 3e a1 3a fc 3e
       -0.22386292 -0.2766109 0.34607205 0.4926348
0001f0 48 05 89 3e 5d ab 45 be 6a 1c 0f be c9 80 07 3f
       0.26761842 -0.19303651 -0.13975683 0.52930886

feature_extractor.0.bias f4 [64]
000000 93 6f 96 be c7 e8 1a 3f c2 9e 85 3e 18 ba 95 3d
       -0.29382 0.6051144 0.26097685 0.07310885
000010 3f a8 d5 be 6a 6b b0 be 7f 67 93 3d 52 15 42 be
       -0.41729924 -0.3445695 0.07197475 -0.18953446
000020 8b f0 6e be 43 81 4f be 38 a5 57 3c 09 3d 27 3e
       -0.23333947 -0.20264153 0.01316195 0.16331877
000030 15 47 7b be 04 3e a1 3e b5 ce 46 be 76 62 ef 3e
       -0.24538834 0.31492627 -0.1941479 0.46754807
000040 6a 24 d8 bc f7 fd d6 3e 70 ad 09 bf bc 45 31 3f
       -0.026384551 0.41990635 -0.5378027 0.6924703
000050 6e 79 54 bd 77 73 4a bc 6f 17 eb be 36 8e 75 3e
       -0.051873617 -0.0123566305 -0.45916316 0.2398003
000060 e2 f5 02 bf 9d 41 00 bf 37 13 38 bb 12 6c ad 3e
       -0.5115644 -0.5010012 -0.0028087625 0.33871514
000070 cd 59 0d 3a f7 eb 10 bf 1d 38 da bc fd 5e c1 3e
       0.00053921045 -0.56610054 -0.026638085 0.37767783
000080 c9 84 1e 3f eb 0c 03 be 87 44 1b bf 7f 5f 77 be
       0.61921364 -0.12797897 -0.6065144 -0.24157523
000090 33 2d ce be 80 8e ea be 78 5e 52 3d fc 5a cd 3e
       -0.4026886 -0.45811844 0.051359624 0.40108478
0000a0 55 c4 b1 3c d0 a3 aa be e4 c8 0f bf 7b 40 02 bf
       0.021700064 -0.33328104 -0.5616591 -0.5087964
0000b0 fb 0f 0c 3f e0 c0 4a be 9c 16 95 3c 9d 02 61 be
       0.54711884 -0.19800138 0.018199258 -0.21973653
0000c0 ae 4c 95 bb d8 f9 14 3f 12 d0 5f 3d 14 0c 88 be
       -0.00455626 0.5819373 0.05464179 -0.26571715
0000d0 1d cb 0a 3f 03 69 ca 3e f8 a8 00 bf 58 9c 0b bf
       0.54216176 0.39533243 -0.50257826 -0.54535437
0000e0 85 f7 ff bd da 9f e9 3d db 40 a5 bd 79 97 e3 be
       -0.124983825 0.114074424 -0.08069011 -0.44451502
0000f0 d6 2a 94 3e b7 9b 88 3d fb 15 3a 3e f3 0d f4 3d
       0.2893893 0.06670325 0.18172447 0.11916723

feature_extractor.2.weight f4 [64]
000000 7a f9 57 3f ec c0 77 3f dd a3 68 3f 3f b4 5c 3f
       0.84365046 0.9677875 0.90875036 0.86212534
000010 d6 44 6a 3f 9c 2d 61 3f 10 c7 81 3f fd 86 61 3f
       0.91511285 0.8796022 1.0138874 0.880966
000020 3e 6f 80 3f 0e 1e 5b 3f 79 ec 6d 3f 6c e0 73 3f
       1.0033948 0.85592735 0.92938954 0.95264316
000030 80 bc 6a 3f fa be 56 3f 68 68 73 3f d8 d3 73 3f
       0.9169388 0.8388516 0.95081186 0.9524512
000040 da 1b 6a 3f 95 eb 74 3f be f8 64 3f 2a 8d 6d 3f
       0.9144875 0.9567197 0.8944205 0.92793524
000050 c6 14 66 3f c0 db 64 3f ff 82 59 3f dd 12 76 3f
       0.8987545 0.8939781 0.8496551 0.96122533
000060 03 98 64 3f fa 39 66 3f ec 9c 72 3f d1 e7 67 3f
       0.8929445 0.89932215 0.94770694 0.905881
000070 4e 70 6b 3f 9b 84 72 3f 4b e0 66 3f df be 80 3f
       0.9196824 0.9473359 0.90185994 1.0058249
000080 95 25 7b 3f 51 f4 71 3f f8 40 66 3f 51 2f 72 3f
       0.9810422 0.9451342 0.89942884 0.9460345
000090 db fa 67 3f 34 37 5f 3f d4 d3 73 3f 78 bd 80 3f
       0.9061715 0.8719361 0.952451 1.0057821
0000a0 a2 8b 67 3f 53 af 76 3f 3e da 63 3f 16 ed 60 3f
       0.9044744 0.96361274 0.89004886 0.87861764
0000b0 70 35 78 3f fd be 5a 3f b4 49 5d 3f 2b 82 66 3f
       0.9695654 0.85447675 0.8644059 0.9004237
0000c0 df f4 6a 3f b6 b2 60 3f fb eb 64 3f a0 77 64 3f
       0.91779894 0.8777269 0.8942258 0.89245033
0000d0 f8 cb 60 3f 72 c8 6b 3f aa d5 61 3f 8f 04 59 3f
       0.8781123 0.9210273 0.8821665 0.8477258
0000e0 5f f3 7d 3f 48 14 60 3f c8 69 6e 3f c0 dc 87 3f
       0.9919948 0.87530947 0.9313016 1.0614243
0000f0 0f 56 60 3f db 5c 78 3f 1d 26 6b 3f 4b 63 68 3f
       0.87631315 0.97016686 0.9185503 0.9077651

feature_extractor.2.bias f4 [64]
000000 79 35 92 3d cf 67 f9 bc 76 65 0c bd 4f 50 2d bc
       0.07139105 -0.030445008 -0.03427645 -0.010578229
000010 67 a1 32 3c 6c 7d 31 3d e4 07 a5 38 3e ad 65 3d
       0.010902739 0.043332502 7.869283e-05 0.05607342
000020 62 d0 2f 3d db ae 0e 3d ad 02 e5 3a eb c0 df bc
       0.04292334 0.034834724 0.0017472111 -0.02731367
000030 06 1d ab ba 9f 74 38 bc dd 3a f2 bb e9 52 27 bd
       -0.0013054914 -0.011258273 -0.007392271 -0.040850554
000040 10 0c 2f 3c 1b 32 dc bb 21 09 0a 3d be 58 15 bc
       0.010684028 -0.00671984 0.033700112 -0.009115396
000050 62 6d 9e 3a d5 61 f5 3c 53 a6 7e 3d 85 2e 48 bc
       0.0012087042 0.029953877 0.062170338 -0.012218122
000060 13 b0 cd 3c ea 30 b4 3c b5 28 5c 3c db 39 72 bd
       0.025108373 0.02199598 0.01343744 -0.059137207
000070 5f 93 46 bb 83 31 30 3d 2e 20 58 3d 26 b3 2d 3a
       -0.0030300242 0.043015968 0.052765064 0.00066261215
000080 e0 ef 5b bd cb e2 2f 3c 4e 9d 0d 3d c5 e1 12 3d
       -0.05369556 0.010735224 0.034573846 0.03585984
000090 ce 74 80 3c d2 c6 3d 3d 0f 05 06 3d f1 7f 29 bc
       0.015680697 0.046332188 0.032719668 -0.010345445
0000a0 2a c9 ac 3c be ff 9e 3c d1 31 0d 3d 3e 84 05 3d
       0.021092016 0.019409057 0.034471337 0.03259682
0000b0 8f 4c 04 bd 48 f8 8e 3d 48 24 9f 3b c9 c0 0d 3d
       -0.032299574 0.0698095 0.00485662 0.034607682
0000c0 64 d7 a0 3b bb ac 99 bd 1b 16 d0 bb 7e 39 4d 3d
       0.004908489 -0.07503649 -0.0063502914 0.050103657
0000d0 7b d8 9e bc 06 ce 45 bd 4b f2 2f 3d ee c3 99 3d
       -0.019390335 -0.048292182 0.042955678 0.07508074
0000e0 40 2f d9 3b 7f 67 70 3d 54 45 4f 3d ea c5 aa ba
       0.006627947 0.05869245 0.050603226 -0.0013028954
0000f0 a0 e8 95 3c ac a5 07 bd 2c 67 db bc e8 99 eb bb
       0.0182994 -0.03311698 -0.026782595 -0.007189978

feature_extractor.3.weight f4 [64, 64]
000000 ef fe 0c be e7 07 bf 3d 9f 91 29 3e c2 81 2d 3e
       -0.13769124 0.09327679 0.16559456 0.1694403
000010 73 91 0c be c6 a2 c5 3b 94 07 88 3c 7b 02 e5 bd
       -0.1372736 0.006031367 0.016605176 -0.11182114
000020 69 9e 4b be bc 44 ac bd 34 12 4b bc 85 5d ee 3d
       -0.19884647 -0.084115475 -0.012394477 0.11638931
000030 71 fd ef bd 00 be d2 3d 1a 81 94 3d c5 ee 0e 3e
       -0.11718262 0.10290146 0.07251187 0.13958271
000040 dd 51 58 bd 14 61 fd 3d fd 2e b3 bc 0f 15 1c 3e
       -0.052812446 0.12372032 -0.021872992 0.15242408
000050 08 1f 53 bd f9 d1 0f 3c b7 06 a5 bd fc 93 aa bd
       -0.051543266 0.008778089 -0.080579214 -0.08329007
000060 9b 58 20 be 7e 45 18 bd b4 31 ed bd b5 00 8c 3d
       -0.156588 -0.037175648 -0.11581746 0.06836072
000070 19 ea 44 be 0b 8c 6b 3c c5 55 21 be 3e 79 59 3e
       -0.19229926 0.014376651 -0.15755375 0.21237656
000080 2f b9 9b 3d 56 75 27 be 02 79 9a bd ae af 57 bd
       0.0760368 -0.16353354 -0.07542612 -0.052657776
000090 2e bf 1d be b0 f7 15 3c 21 c8 dd 3c 67 a5 42 3e
       -0.1540496 0.009153292 0.027072968 0.19008408
0000a0 dc d7 1b be d9 8b b8 bd e5 31 3c be 8a e9 11 3d
       -0.15219063 -0.09011049 -0.18378408 0.03562311
0000b0 16 83 43 3e 65 0b 0f 3c 3c d3 a4 bd cb 92 18 be
       0.19092974 0.008730744 -0.08048102 -0.14899747
0000c0 81 a2 16 be 2f 02 03 3c ed 77 32 be 7f a4 5e bd
       -0.14710428 0.007996126 -0.1742856 -0.054356094
0000d0 83 d4 a9 3d 2a 0b c8 3d ba f5 9e bc e1 21 dc bd
       0.082924865 0.097677544 -0.01940428 -0.107486494
0000e0 8d c7 c1 bd 9a c4 ac bd 0f 07 2d 3d b9 a1 15 be
       -0.094618894 -0.08435936 0.04224306 -0.14612474
0000f0 45 e4 fe bc 12 ad 31 be be 32 c7 bd b4 1a e7 3d
       -0.031114707 -0.17351177 -0.09726475 0.1128439
000100 bf 6f c6 3d 66 9d 78 3d 13 3f 8d 3d 4a 69 49 bd
       0.096892826 0.06069698 0.06896796 -0.049172677
000110 1c bc 03 bd fc 89 8d 3d e7 d2 61 bd 3a 96 c8 3d
       -0.032161817 0.06911084 -0.055132773 0.097942784
000120 90 04 b3 bd 79 b7 dc bc b9 18 c9 3d 2d 86 51 3d
       -0.087411046 -0.026942955 0.098191686 0.05115335
000130 57 51 a9 3d 48 15 3a bd 47 88 82 3d 68 94 3f bd
       0.082674675 -0.04543045 0.06373649 -0.04677239
000140 47 8f 5e bc 38 a5 2d bd 63 0a d2 3d c8 11 91 3d
       -0.013583965 -0.042393893 0.10255887 0.0708347
000150 2f 26 97 bd 07 54 da bd 51 0c f5 3d 50 8a af 3c
       -0.0738033 -0.10660558 0.1196524 0.021428257
000160 97 48 70 bc 7e c1 59 3d 8f 11 3d 3d e4 95 c7 3c
       -0.014665744 0.053163044 0.046159323 0.024363466
000170 b3 5d c5 3d 11 2a b6 b9 a0 93 56 bd 95 9e 8d 3c
       0.09637012 -0.00034745087 -0.05238688 0.017287532
000180 28 db fc bd 87 8d 43 bd 5e 9f 94 3d 6c 8b d0 3c
       -0.12346488 -0.047742393 0.072569594 0.025457107
000190 8e 7c 8d 3d 69 e8 4c bc 76 b2 c7 bd 98 ed 29 3d
       0.069085225 -0.012506583 -0.097508356 0.041486353
0001a0 73 e2 c5 3d 09 d0 6a 3c 15 34 46 3c e5 bd 05 3d
       0.096623324 0.014331826 0.012097378 0.0326518
0001b0 d8 f7 d4 3c 64 e3 08 3d 03 30 b6 3d 7b 6c 5f 3d
       0.025997087 0.03341998 0.08895876 0.054546814
0001c0 96 99 b5 bd 50 d6 92 bd da 32 a3 3d 44 b1 af 3d
       -0.08867185 -0.07169783 0.079686835 0.085787326
0001d0 f7 bd d2 3b aa 79 2b bd 84 4a 45 3d 93 ef 05 bd
       0.006431337 -0.041864075 0.048166767 -0.03269918
0001e0 51 9b d2 bc 66 e4 88 3d 39 a2 e0 3c d0 d9 e4 3d
       -0.025708826 0.066841885 0.027421104 0.11174357
0001f0 00 18 c8 3d 97 ec 60 bd a2 1d 96 bd c4 0f 89 3c
       0.09770203 -0.05491313 -0.07329871 0.01673115
000200 c5 c9 c0 bd 0d 37 b1 bd aa bb e2 bc 74 5e f0 3c
       -0.094134845 -0.08653078 -0.027677376 0.029341914
000210 ba 8c 02 3e e4 8d c8 3d 98 ed 40 bc 86 c6 c5 b9
       0.12748995 0.097926885 -0.011775397 -0.0003772268
000220 91 00 59 3d df 54 77 3d 0c 8f 7f bd 7c 8d ae bd
       0.052979056 0.060383674 -0.06239228 -0.0852308
000230 3b 88 54 bd b5 58 24 3d 2d 44 e9 bd 78 15 c6 ba
       -0.051887732 0.04012366 -0.113899566 -0.0015112599
000240 36 23 e9 3d ad 7d 85 bc 19 a9 b8 bd 07 00 ad bd
       0.11383669 -0.016295278 -0.09016628 -0.08447271
000250 08 ba d7 bc 34 8b 4a bd 98 33 c1 3c 04 44 77 3d
       -0.026333824 -0.04944916 0.023584172 0.0603676
000260 cc f7 38 bd 47 c6 bb bd b5 0f 20 bd af c3 27 bd
       -0.045158193 -0.09168678 -0.03907748 -0.040958103
000270 bd f9 f5 3d dc b5 c4 bd 5c 58 03 3e e4 48 16 bd
       0.120105244 -0.096049994 0.12826675 -0.036690608
000280 96 4c ff bd a8 a5 d4 bc 3e 0e f7 3d d8 e5 4c bd
       -0.124657795 -0.025957897 0.12063263 -0.050023884
000290 e0 5b 63 bd 48 c5 c9 3d 28 53 64 bc 26 2b 87 3d
       -0.05550754 0.098520815 -0.013935842 0.06600027
0002a0 c7 b4 d5 3d a6 15 b4 bd e1 f6 a1 bd ed 33 ba bc
       0.10434871 -0.087931916 -0.079084165 -0.022729838
0002b0 de b5 74 bd f8 77 a9 ba 7e 40 18 3d ad 14 72 3c
       -0.059743755 -0.001292943 0.03717088 0.014775437
0002c0 d6 24 66 3b 0a 20 cd bd 56 1f 12 bc 16 1a 89 3d
       0.003511717 -0.100158766 -0.008918604 0.066944286
0002d0 18 6a 21 3b 0c 73 1e 3d 39 43 e6 3c 23 27 7a bd
       0.0024629887 0.038683936 0.028108226 -0.06107248
0002e0 32 bc 77 3d d9 a0 82 bd ab 72 ff 3c 85 12 38 3d
       0.06048221 -0.063783355 0.031182608 0.044939537
0002f0 4b 06 9a bd 5e fe a3 bd 63 f3 92 bd e7 88 6e bd
       -0.075207315 -0.08007501 -0.071753286 -0.05823603
000300 23 8c 23 bd 2c 9c 04 be ac 97 20 3d 6f 2b d6 3d
       -0.039928567 -0.129502 0.039207146 0.10457503
000310 07 f2 90 3c ef de c0 bd 1e 1f 8d 3d b3 01 4a 3d
       0.017693533 -0.09417521 0.06890701 0.049318027
000320 40 90 bc 3d 97 5c 99 3d 34 bf e8 3c 05 e4 04 bd
       0.09207201 0.07488363 0.028411485 -0.03244402
000330 6c df d8 bd 3c 2c 9c 3d 64 6d c6 3d bb 39 c3 bd
       -0.10589489 0.076256245 0.09688833 -0.095324956
000340 a7 1d c1 bd 50 bf 2c 3d 5b d6 a6 bd af 1d ec 3a
       -0.09429484 0.042174637 -0.08146354 0.0018014217
000350 c8 7f 33 bd 27 ae 82 bc 8e 44 4b 3d 52 ac 3f bc
       -0.043823034 -0.015952183 0.049625926 -0.011698799
000360 25 f3 a9 bc 3c 59 1b bd b8 ba c3 3d 81 a2 9c 3c
       -0.020745823 -0.037926897 0.09557098 0.019120457
000370 a6 4b e6 3d 85 82 93 3d ac 88 ee 3b d0 76 3a 3d
       0.112448975 0.07202629 0.007279476 0.045523465
000380 48 8a 30 3c a8 51 bd 3d 41 df a7 bc 29 c3 a9 b9
       0.010775156 0.0924409 -0.020492198 -0.00032379598
000390 14 90 20 3d a0 0a 74 bd 83 62 01 be 42 c6 8b 3d
       0.039199904 -0.059580445 -0.12635235 0.06824924
0003a0 25 91 9f bd fb a0 a7 3c 5f 2b 46 38 05 18 ed 3d
       -0.07791356 0.020462504 4.724727e-05 0.11576847
0003b0 62 f6 ea bd d1 97 b9 3d 06 5b 94 3d 41 0e 2d bd
       -0.11472775 0.0906216 0.07243924 -0.04224992
0003c0 55 6e 71 bc 4d e0 b9 3d 76 8c 3a bd aa 1f 99 bd
       -0.014735778 0.09075985 -0.04554411 -0.074767426
0003d0 0c 1a 01 be b8 61 ba bd f8 24 db bd 87 21 01 3e
       -0.12607592 -0.091006696 -0.107004106 0.12610446
0003e0 10 d1 be bd b5 31 a7 bc e9 10 7c bd 79 bd 04 3d
       -0.09317219 -0.020409444 -0.061539564 0.032407258
0003f0 2e e1 24 3c c2 e4 5e bd 11 ef 33 3c de e8 58 3d
       0.010063453 -0.05441738 0.010982291 0.052956454

feature_extractor.3.bias f4 [64]
000000 f1 b4 c2 bc 78 52 70 3d 35 66 06 bd c2 58 69 bd
       -0.02376792 0.0586724 -0.032812316 -0.05696941
000010 58 43 1b bd 1b f0 73 bc 8b 88 b3 3d 51 31 30 bc
       -0.03790602 -0.014888789 0.08766278 -0.010753945
000020 49 d8 ea 39 66 70 61 bd 57 a8 3e 3e f4 c0 3b bd
       0.00044793103 -0.055038832 0.18618904 -0.04583831
000030 df e6 3c bd 4f 95 f7 3c 19 e9 b2 bd 78 70 80 bd
       -0.046118613 0.030222563 -0.08735866 -0.06271452
000040 14 7c d9 bd 98 08 6e 3c c4 e9 8c bd 31 15 ab 3d
       -0.10619369 0.014528416 -0.06880525 0.08353651
000050 e3 24 13 bd 48 cb bd 3c e7 6c 7d bd 23 f9 49 be
       -0.03592385 0.023168221 -0.061871435 -0.19723944
000060 82 38 8b bd 0c 3f 53 3c f5 a2 cb 3c d9 e6 16 bc
       -0.067978874 0.0128934495 0.024857977 -0.009210312
000070 14 be b7 3d 4f 7b a1 bd 84 11 b8 bc fb 7e cc bd
       0.089718014 -0.078848474 -0.02246929 -0.09985157
000080 92 d4 15 bd 3b ed c1 3d db 33 75 3d c6 7c 32 3d
       -0.036579676 0.09469076 0.059863906 0.043576024
000090 21 16 00 3d f1 68 a9 bd b2 57 00 be 91 de 87 bd
       0.031271104 -0.08271969 -0.12533453 -0.06634248
0000a0 b3 11 dd ba 27 81 2c bb 95 98 d2 3c 97 df 70 3d
       -0.0016866237 -0.0026322098 0.025707522 0.058806982
0000b0 ee b2 a8 bd 1b 05 c2 3d e2 f3 ca 3d 29 a1 e8 3c
       -0.08237253 0.0947363 0.09909798 0.02839716
0000c0 2b 1e 8b 3d 00 1b ef bd 58 91 cd 3d 64 19 f2 bd
       0.067928635 -0.11675072 0.10037488 -0.11821249
0000d0 c1 f6 01 3d 05 70 8d bd c6 ad 02 be 6d b8 2c bd
       0.031729463 -0.06906132 -0.12761602 -0.04216807
0000e0 01 e4 2d bd 7b e3 ba bd 74 be cc bd 5a ac 22 bb
       -0.04245377 -0.0912542 -0.099972636 -0.0024821968
0000f0 6a 8b b0 3b 4f 26 eb bd 2d 14 c3 3d 7d fb c2 bd
       0.005387713 -0.11481916 0.095253326 -0.09520624

feature_extractor.5.weight f4 [64]
000000 75 2a 55 3f e8 bb 58 3f 35 b5 62 3f 07 51 5b 3f
       0.8326791 0.8466172 0.8855775 0.8567051
000010 13 e6 5b 3f b0 53 56 3f 50 95 66 3f 4f 33 79 3f
       0.8589794 0.83721447 0.9007158 0.97343916
000020 70 67 64 3f 76 6b 60 3f 10 31 2c 3f a9 e9 4d 3f
       0.89220333 0.8766397 0.67262363 0.8043466
000030 35 cc 66 3f 62 ae 5a 3f e5 c4 61 3f 39 d5 4d 3f
       0.90155345 0.8542234 0.8819106 0.80403477
000040 35 49 5b 3f cd 3a 53 3f fb e5 50 3f 5f 50 5c 3f
       0.8565858 0.825116 0.8160092 0.86060137
000050 4d 2a 61 3f 15 f2 58 3f a7 b3 75 3f 4a ec 51 3f
       0.8795517 0.8474439 0.9597725 0.82001173
000060 26 72 67 3f fa e3 5c 3f a4 9e 6d 3f 53 13 68 3f
       0.9040855 0.86285365 0.9282019 0.90654486
000070 f8 55 5d 3f 37 e4 66 3f 68 c0 67 3f ee 5b 56 3f
       0.864593 0.9019198 0.90527964 0.83734024
000080 78 9e 64 3f 22 a2 4d 3f 30 8a 69 3f b1 6e 62 3f
       0.89304304 0.8032552 0.9122648 0.8845015
000090 62 6b 65 3f 2d 67 5b 3f 63 63 6c 3f 71 cf 58 3f
       0.8961698 0.8570431 0.9233915 0.8469153
0000a0 e7 9a 52 3f 74 11 6c 3f 5b ac 63 3f b5 cb 4b 3f
       0.8226761 0.9221413 0.8893487 0.7960771
0000b0 38 c2 5b 3f 32 12 5d 3f 35 77 66 3f 2f 5f 5b 3f
       0.8584323 0.8635589 0.90025645 0.85692114
0000c0 ef e4 6b 3f 97 69 5e 3f d5 02 60 3f 69 b5 63 3f
       0.921462 0.8687987 0.8750432 0.88948685
0000d0 12 47 4e 3f c2 da 5c 3f 06 90 54 3f cf 9a 5c 3f
       0.80577195 0.862713 0.8303226 0.8617372
0000e0 24 be 5f 3f de 09 64 3f e6 5f 70 3f 22 e6 72 3f
       0.87399507 0.89077556 0.9389633 0.94882405
0000f0 4a ca 57 3f 87 08 5a 3f 03 39 5b 3f 90 49 67 3f
       0.84293044 0.8516926 0.8563387 0.9034662

feature_extractor.5.bias f4 [64]
000000 e5 74 66 bd 79 f9 ad 3d 07 a7 30 3d 6d 28 05 3d
       -0.056263823 0.08494849 0.04312804 0.032509256
000010 a4 98 00 bc 7b 71 75 bd 7d dc 32 3c 2b 16 71 3c
       -0.007848892 -0.059922677 0.010916826 0.014714758
000020 b8 9a 0c 3d 87 cb 55 3d 99 b0 e4 bd 41 3f 90 3d
       0.03432724 0.052196052 -0.11166496 0.07043315
000030 88 f4 a3 bc 76 9c 1c bc 9f c7 22 3d 70 b9 cd 3d
       -0.020014063 -0.009558788 0.039741155 0.10045135
000040 83 ac af 3d 3b af ae 3d e6 46 93 3c 7f f9 48 3c
       0.08577826 0.08529516 0.017978143 0.012266516
000050 99 7f b5 3c 43 b0 74 3c da b1 89 bb a2 76 09 3e
       0.02215557 0.014934602 -0.0042021098 0.13424161
000060 ae df 7c 3c 69 cd 2f 3d 0a 8e 99 3c fa 8e 3c 3b
       0.015434189 0.042920504 0.018744487 0.0028771744
000070 69 3a 61 3d 1c bb 36 3d f8 77 50 3c a4 47 a7 3d
       0.054987345 0.044612035 0.012723915 0.08167961
000080 10 7f 1a 3d 25 8a 19 3d ae df dc bc df b6 8d 3d
       0.037718832 0.03748526 -0.026962128 0.069196455
000090 09 85 75 bc e2 45 9d bc e3 d2 ce 3a 00 50 50 3d
       -0.014985331 -0.019198362 0.0015779402 0.050857544
0000a0 e6 85 f2 3d 44 6e ec 3c 11 68 76 bc cd 7d d3 3d
       0.11841945 0.028861172 -0.01503946 0.10326729
0000b0 e2 e0 70 3d 60 28 44 3d 64 34 e7 3c bb e2 28 3d
       0.058808215 0.047890067 0.028223224 0.041231852
0000c0 e2 29 79 3c 80 f3 36 3d 5b 9f b2 3c ef 24 f9 3c
       0.01520774 0.044665813 0.021804502 0.03041312
0000d0 23 62 0b 3d 74 3f c1 3c 52 b4 76 3d 6a c0 86 3b
       0.034029137 0.023589827 0.06023056 0.004112293
0000e0 02 e9 e0 bc 53 a6 b3 bb 4a cf 0f bd 4f a1 96 bc
       -0.027454857 -0.005482474 -0.035109796 -0.018387465
0000f0 33 8e 61 3d 9a e5 b1 3d 59 dc 35 3c d2 12 43 3c
       0.055067252 0.08686371 0.011099898 0.011906343

summary_processor.0.weight f4 [16, 5]
000000 3b 07 e3 3d bb 74 3e be 6b bf 05 3e bc 65 a9 3e
       0.110853635 -0.18599217 0.13061301 0.3308543
000010 6d d4 52 be fc 36 25 bd 55 ab c0 bd 1f cc 15 bd
       -0.20588847 -0.04033564 -0.09407679 -0.03657162
000020 94 a9 e8 bd 38 ea 89 3e c6 8d bb 3e 5b 32 c0 3e
       -0.113604695 0.26936507 0.36631602 0.37538418
000030 01 01 8d 3d 5a d7 ca bc 18 16 91 bb 78 20 c8 3e
       0.06884957 -0.02476089 -0.0044276826 0.39087272
000040 20 c3 55 be 15 99 2c be 5b 4d a6 be 93 d4 98 3e
       -0.20875216 -0.16855271 -0.32480893 0.2984968
000050 91 59 80 3e 4c ea 87 be 7b ba 8d 3d 8f 04 9b 3e
       0.25068334 -0.26545942 0.06920334 0.30276915
000060 69 3a 51 3e 56 49 bb 3e 03 00 65 be 69 5a 86 be
       0.20432438 0.36579388 -0.22363286 -0.26240852
000070 3d 0a 97 3e ad 57 ad 3e ba da a9 be f9 88 b8 be
       0.295 0.33855954 -0.33174688 -0.36042002
000080 23 04 f3 3c 66 77 98 3d c9 3f d6 3c 85 c6 f5 3d
       0.029665058 0.074446484 0.026153462 0.12000755
000090 d7 d2 92 3d 9f e7 1c 3e 1f 26 aa 3e ba 9b 3c 3d
       0.07169121 0.15322731 0.3323221 0.04604695
0000a0 6f f7 75 be 61 9f 45 3e e7 98 89 be 50 95 af 3e
       -0.2402017 0.1929908 -0.26874468 0.34293604
0000b0 f2 63 a5 3d a5 bc 3b 3d e3 b6 58 be 23 64 66 3e
       0.08075704 0.045834202 -0.21163516 0.22499137
0000c0 b8 8d 1e be 48 3d a9 bc 5a 74 2b be 4d 41 9f 3d
       -0.15483749 -0.020659104 -0.16743603 0.07776127
0000d0 25 5d 55 3e df a0 a2 3c 41 01 c4 bc 70 de 3b 3e
       0.20836313 0.0198521 -0.02392638 0.18346572
0000e0 cf 46 2b be de e4 aa be d8 f8 ad be bd 35 41 3e
       -0.1672623 -0.33377737 -0.33978915 0.18868156
0000f0 d7 ca ce 3e 90 dc e8 bd d7 77 9d 3c 64 cd 22 3e
       0.4038913 -0.11370194 0.019222183 0.15898663
000100 ac fe 8e be 58 1b 12 3e c3 43 be 3c 0c 71 e0 3c
       -0.27928674 0.14268243 0.02322567 0.027397655
000110 94 a0 7f 3d 85 c1 8a 3e f3 ef 8e be 71 74 3c 3e
       0.062409 0.2710077 -0.27917442 0.18403794
000120 61 19 b8 3e 6c 5c f6 3d 9e d1 74 3e ba c3 da bd
       0.35956863 0.12029347 0.23908088 -0.10681863
000130 66 5c fa bd 2a 1f 89 bd 17 1f 83 be 93 c1 ca be
       -0.12224655 -0.06695397 -0.25609657 -0.3960081

summary_processor.0.bias f4 [16]
000000 36 ff 84 3e ee 82 bb 3e 94 f7 43 3e 82 ea a8 3c
       0.2597596 0.3662333 0.19137412 0.020619635
000010 c8 a4 e8 3c f8 ad 48 bd 6a 8e 08 3f 20 fd 87 be
       0.028398886 -0.048994035 0.53342307 -0.26560307
000020 15 77 84 be 6f d1 b6 be 2e fc bb 3d 65 d8 aa 3d
       -0.25872102 -0.3570666 0.09178959 0.08342055
000030 0a d0 8e be 56 2f 99 be db 73 74 bd e2 ff a7 be
       -0.27893096 -0.29918927 -0.0596808 -0.3281241

summary_processor.2.weight f4 [16]
000000 f7 e4 66 3f 41 53 7b 3f 5a 02 6d 3f af 95 5f 3f
       0.9019312 0.9817391 0.92581713 0.87337774
000010 4e 16 68 3f 21 4e 62 3f ca 29 7c 3f 9d 4c 6b 3f
       0.90659034 0.88400465 0.98501265 0.9191378
000020 df 39 6d 3f 07 6b 6f 3f 97 83 5e 3f 76 9a 5f 3f
       0.9266643 0.93522686 0.8691954 0.87345064
000030 2c 69 5c 3f 2e d6 78 3f 71 a7 47 3f 1b b5 73 3f
       0.8609798 0.9720181 0.7798987 0.9519822

summary_processor.2.bias f4 [16]
000000 ab ff 00 3d 24 27 76 bc 9d 66 00 3d ca 7d b6 3c
       0.031493824 -0.01502398 0.03134786 0.022276778
000010 f1 8d 5a 3c 99 a7 43 3d cc a8 ad 3d b6 09 66 bb
       0.0133395055 0.047767255 0.08479461 -0.0035101003
000020 53 05 7c bd c7 9c 8a 3b 4c f2 9f bd bd 44 fe bc
       -0.061528515 0.004230115 -0.07809886 -0.031038636
000030 4b 80 59 3d 38 e2 0c bd 5f 5f 38 bd 06 cf 05 bd
       0.053100865 -0.034395427 -0.045012828 -0.032668136

summary_processor.3.weight f4 [16, 16]
000000 77 4d 2b be 29 84 bc bc c6 9d 00 be 2d 9f 5c be
       -0.16728769 -0.023012238 -0.12560186 -0.21545096
000010 23 c0 ab 3d db 49 b5 bd 9b 78 79 bd 90 25 0c be
       0.083862565 -0.088519774 -0.060906034 -0.13686204
000020 e1 05 a3 bd 82 da 33 3e 42 ad 2b 3e 8a 9b 68 b9
       -0.07960106 0.17563823 0.16765311 -0.00022183187
000030 a4 4c 4c 3e 96 d6 12 be 59 c1 3d 3e c5 90 66 3e
       0.19951111 -0.1433967 0.18530788 0.22516163
000040 5d 9c 41 be e2 d9 ae bd 22 7d 19 3e 78 37 df 3d
       -0.18907304 -0.085376516 0.1498914 0.10899252
000050 22 5b 5c be 73 a6 d4 3d 7b 5e 24 be 83 7c 23 3e
       -0.2151914 0.1038331 -0.16051666 0.15965466
000060 f5 3c 0b bc 83 f2 ee bd 21 92 11 3d c4 e1 eb 3c
       -0.00849842 -0.11667349 0.03553975 0.028794177
000070 6b 51 2c be bd 90 d9 3d ef ab 0e 3e 9a 2b c2 3d
       -0.16827933 0.1062331 0.13932775 0.094809726
000080 ae 4b 22 3e 07 45 56 be e1 ca 22 be 89 a8 22 be
       0.15849182 -0.2092477 -0.15897705 -0.15884604
000090 d7 47 9e 3d 25 7c 18 be df 7f 90 bd 09 a4 46 be
       0.07728546 -0.14891107 -0.070556395 -0.19398512
0000a0 b2 31 9a 3d 8e e1 28 be 54 31 19 3e 0c d6 f8 bd
       0.0752901 -0.16492292 0.14960223 -0.12150201
0000b0 0a 45 6b 3e c8 f6 0e 3d 6f 8f 25 3e 22 c7 50 3e
       0.22975555 0.034903318 0.16167997 0.20388463
0000c0 64 48 06 3e ab 7f a3 3b f0 e4 c5 3d f5 b9 f4 3d
       0.13113552 0.0049895844 0.09662807 0.11949531
0000d0 52 af 15 be 8e 17 3d 3d 54 29 14 be ec eb 0f b9
       -0.1461766 0.04616504 -0.1446889 -0.0001372543
0000e0 d4 b6 03 bd 14 98 26 be 0f e4 53 3d 0a 8a ef bd
       -0.03215678 -0.1626895 0.051731165 -0.11696251
0000f0 8c 7e 2d 3d f6 4d 67 bd 06 24 af 3d 09 b0 cc 3d
       0.042357013 -0.056470834 0.08551793 0.099945135
000100 20 80 59 3d f4 fc e0 3c 6c f0 92 3d 3b 9c fd 3d
       0.053100705 0.027464367 0.07174763 0.12383314
000110 da e9 b4 bc ad 91 10 3e 58 3a 57 be b8 19 8b bb
       -0.022084165 0.14118071 -0.2101835 -0.0042450093
000120 6a 79 37 3e cd 01 cc 3d 27 fe 0a 3e 9a 76 0a be
       0.1791741 0.09961281 0.13573514 -0.13521805
000130 e3 49 26 3e 1f 4a 5b 3e 9c 98 11 be 86 b9 1e be
       0.16239123 0.21414994 -0.14218372 -0.15500459
000140 a3 74 ff bc 63 61 fa ba bc 18 17 3e 6a 98 b9 3d
       -0.031183546 -0.001910251 0.14755529 0.09062274
000150 1d a4 cb 3d 3d 52 46 be 45 01 ad bc e1 fd 00 be
       0.099434115 -0.19367309 -0.02111877 -0.12596847
000160 d7 0c 20 3d f9 f3 13 3e 69 fa 2e bd ed c0 65 be
       0.039074745 0.14448537 -0.04271928 -0.22436877
000170 68 32 45 3e 62 f9 d9 3c 42 0a eb 3d 6c 63 d3 bc
       0.1925751 0.026608173 0.11476566 -0.025804244
000180 d3 6c 54 3e 5d fa 7a 3e be 3a 29 3d 0a 42 06 bd
       0.20744638 0.24509569 0.041315787 -0.032777824
000190 05 2a f9 3d ee 8d c9 3d 95 b6 a8 3e 73 b0 4a be
       0.12166218 0.09841524 0.329518 -0.19793873
0001a0 4f 46 98 be ed 58 52 be 83 63 0d be c4 70 05 be
       -0.2974114 -0.20541735 -0.13807492 -0.13031298
0001b0 dc d4 26 be d4 65 b3 be 73 e3 31 be fd 0b 49 be
       -0.16292137 -0.35038626 -0.17371921 -0.1963348
0001c0 60 f9 e0 bd 0f 35 5e 3e ee 95 eb 3d 2d 0d 43 be
       -0.109850645 0.21699928 0.11503206 -0.19047995
0001d0 4b f8 a9 3d d4 48 42 bd 1d e5 14 3e 0d 0a 27 be
       0.08299311 -0.047432736 0.14540525 -0.16312428
0001e0 fe a4 85 3c 99 45 a7 3d 36 4d 0e be b0 6b c7 3d
       0.016314026 0.081675716 -0.13896641 0.09737337
0001f0 36 0a 2d be 6e 30 25 3e f5 fb 17 bd 1f 9a 45 3e
       -0.16898426 0.16131756 -0.03710552 0.19297074
000200 cf bd 24 bb 01 8d d1 bd f9 dd a3 3d 27 20 1c 3d
       -0.0025137549 -0.102319725 0.08001322 0.0381166
000210 20 7b b2 3d e9 54 2d be 89 36 40 bd f3 48 e6 3d
       0.087148905 -0.16926922 -0.04692701 0.11244383
000220 d6 29 3b bd 6d 38 1b be ec 44 83 bd ec 7d d5 bc
       -0.045694195 -0.15158243 -0.0640963 -0.02606102
000230 cf 5c ee 3c 57 1d 0e be 4b 46 95 bd ce 87 61 3e
       0.029096989 -0.1387838 -0.07288798 0.22024462
000240 f4 54 69 bc 38 72 bb 3d 56 1b 4e be 25 b8 84 be
       -0.014241446 0.09152645 -0.20127615 -0.2592174
000250 aa 35 25 3d e4 bf 3b 3e df f5 ee bd 89 b4 9a 3d
       0.04033438 0.18334919 -0.1166799 0.075539656
000260 77 3a b0 3e d9 26 2d 3d a1 2d ea 3d 06 ba 08 be
       0.34419605 0.042273376 0.11434484 -0.13352212
000270 52 e6 d8 bd f4 ec b5 3d fd 26 56 3e 8a 30 67 3d
       -0.10590805 0.08883086 0.2091331 0.056442775
000280 cd fb 51 be b8 11 6a 3e 0d 75 0d be 71 aa 57 be
       -0.2050621 0.22858322 -0.13814183 -0.21061112
000290 dd fe 1e be 40 68 f7 3d 88 74 01 be fb ba 17 be
       -0.1552691 0.12080431 -0.1264211 -0.14817421
0002a0 bb ee 36 3e 39 67 99 3d 06 94 a4 bd 2e 85 78 3e
       0.17864506 0.07490391 -0.08036046 0.24269554
0002b0 52 e5 f9 3d 94 cf 7e 3d 8e c4 18 3e 07 92 06 be
       0.122019425 0.06220968 0.1491873 -0.13141643
0002c0 29 62 91 bd 4a bc 93 bd db dd 45 be 72 4b 96 3d
       -0.07098801 -0.07213648 -0.19322912 0.07338609
0002d0 8d 6f e0 bd c1 5a d7 bd 5c 30 49 3c 9b 4f f1 3d
       -0.109587766 -0.10515357 0.012279596 0.11782762
0002e0 63 7d 54 3e 63 02 39 3e e6 23 13 be 11 b0 4d 3c
       0.20750956 0.18067317 -0.14369163 0.0125541845
0002f0 43 63 66 3e d3 b2 77 3e 67 4f 1b bb b0 ab 4f 3c
       0.22498803 0.2418931 -0.002369845 0.012675211
000300 44 7c b6 3d e5 1b d5 bb ca 69 bb 3d ce a1 d7 3c
       0.089104205 -0.0065035694 0.09151037 0.026322272
000310 45 b5 cf 3d ce e8 47 3e d1 5d 9c 3c 64 43 1c 3e
       0.10141996 0.19522402 0.019087704 0.15260082
000320 e2 dc 44 be fa d9 de 3d 5a 11 17 be c4 e0 3a 3c
       -0.19224885 0.108814195 -0.14752713 0.011406127
000330 f4 15 02 be bb 21 66 3e 6f 6a 07 be bb 83 fd 3d
       -0.12703687 0.22473805 -0.13224195 0.12378641
000340 b0 e4 20 3e 07 43 cc bd 3c 5b c1 bc 99 89 73 bd
       0.15712237 -0.09973722 -0.023603074 -0.059457395
000350 32 cf 1e bd 73 2f 29 be d1 5c ec bd 4f c9 8a 3e
       -0.038771816 -0.16522007 -0.11541141 0.2710671
000360 ac 1c 3d 3d cc cf 31 be 5d 89 40 3c 03 70 a5 3c
       0.04616992 -0.17364424 0.0117515 0.020195013
000370 a0 27 96 3d 70 67 f6 bc f5 73 41 3e c8 3c df bd
       0.073317766 -0.03007862 0.1889189 -0.10900265
000380 e6 36 4c 3e 30 0a 83 be 64 b4 30 3e 8f af da bd
       0.19942817 -0.2559371 0.17256314 -0.106780164
000390 00 9f 99 be 00 4d 9a b9 fa 55 38 3e 78 9b 50 bd
       -0.3000412 -0.00029430538 0.18001547 -0.050929517
0003a0 65 00 cc bd aa f2 01 be 71 b5 36 3e 35 2f d6 bd
       -0.09961013 -0.12690225 0.17842652 -0.10458223
0003b0 cb 29 00 3e 05 c1 0e 3e 43 e6 5b bd a1 9d 97 3e
       0.12515943 0.13940819 -0.05368639 0.2961245
0003c0 6e 9b 94 bc d4 ec ba be ce 37 27 3e bd 24 46 bc
       -0.01814052 -0.3650881 0.16329882 -0.01209372
0003d0 4c b4 e7 3d 8e 93 39 be 1d 47 83 3d 44 26 04 3d
       0.11313686 -0.18122694 0.06410048 0.032263055
0003e0 12 84 f8 bc ac 9b a7 3e 46 87 d5 bd 12 d1 3f be
       -0.030336414 0.32735956 -0.10426192 -0.18732098
0003f0 4d 06 73 3d eb 77 0d bd cc 9b f0 3d c5 d6 51 3e
       0.05933218 -0.03453819 0.11748466 0.20492084

summary_processor.3.bias f4 [16]
000000 4a 93 ea 3d 8f 08 2c be e9 30 45 3d 21 6a 11 be
       0.114538744 -0.1680014 0.048142347 -0.14200641
000010 16 ee fc 3d 9d 63 a9 3b 7c 5a 89 3e f7 2a 9d bc
       0.12350099 0.0051693455 0.26826847 -0.019185526
000020 6d 4d 16 be dd a8 4b bd 5f a6 09 3a d2 35 bd 3d
       -0.14677973 -0.049721587 0.00052509265 0.09238781
000030 a6 19 28 be 08 1b 07 be 75 35 80 bd 73 ca 31 bc
       -0.16416034 -0.13193905 -0.06260196 -0.01085149

summary_processor.5.weight f4 [16]
000000 fb 8f 5a 3f a8 e7 4b 3f f1 63 43 3f 4f 56 44 3f
       0.85375947 0.79650354 0.76324373 0.76694196
000010 c3 f3 61 3f f8 db 61 3f a5 ad 5c 3f a5 b6 62 3f
       0.88262576 0.8822627 0.8620246 0.88559943
000020 f2 fd 5b 3f e8 94 5d 3f 46 61 65 3f 61 a5 68 3f
       0.85934365 0.8655534 0.8960155 0.9087735
000030 4c a6 61 3f 87 41 60 3f d6 38 69 3f c1 5b 5e 3f
       0.88144374 0.87599987 0.9110235 0.86858755

summary_processor.5.bias f4 [16]
000000 51 7f e6 3b d8 2e 8e 3d b8 8e a4 3c 67 fd ac 3d
       0.0070342203 0.069425285 0.020087585 0.0844677
000010 3f e8 e4 3b 02 64 68 3d 49 2e 43 bd 98 38 13 bc
       0.0069856937 0.056736 -0.047651563 -0.008985661
000020 d9 d3 52 3d 86 40 9c 3d ce 76 73 3d 0c eb 8c 3d
       0.051471565 0.07629494 0.059439473 0.06880769
000030 46 9e 29 3d 2d fd 58 3d e4 7f bf 3b 36 71 a0 3c
       0.041410707 0.052975822 0.005844103 0.019585233

prior_processor.0.weight f4 [16, 1]
000000 a3 e3 97 3e c1 07 31 bf d2 67 e6 3e 57 4c 12 bf
       0.2966586 -0.69152457 0.45001084 -0.57147735
000010 77 a4 6c bf 94 e1 f6 3e 1a 1f 43 3f 15 65 cc 3e
       -0.92438453 0.48218977 0.7621933 0.3992087
000020 13 a4 e5 3c 44 a4 3a 3f 5b 58 b5 be ee 62 8c 3e
       0.028032338 0.729069 -0.35418972 0.27419227
000030 36 b1 5f bd 69 97 09 bf 62 11 95 be c9 b8 aa bd
       -0.05461236 -0.5374666 -0.29114825 -0.08336026

prior_processor.0.bias f4 [16]
000000 47 71 6b 3f 9e 2b 3e 3f 1f fb d1 be c4 5c 4f be
       0.9196972 0.74285305 -0.41011903 -0.20250231
000010 d2 57 6f bf 8a 21 f6 be cb 6d 5c be bf 77 db be
       -0.9349338 -0.48072463 -0.21526258 -0.42864797
000020 72 ec de be 9f 0e 9a 3e 36 73 72 be 87 b7 90 3e
       -0.43539768 0.3008928 -0.23676762 0.2826502
000030 15 57 2f bf 9e 53 6f 3f 0b 88 15 3f 5c 1b 9b 3e
       -0.6849225 0.93486965 0.5841071 0.3029431

prior_processor.2.weight f4 [16]
000000 bd 4f 81 3f 5d 82 5e 3f ef 16 64 3f 7a 27 86 3f
       1.0102459 0.8691767 0.89097494 1.0480797
000010 de 20 8a 3f 9b 4b 5b 3f e6 a6 7e 3f f5 63 4c 3f
       1.079128 0.8566224 0.99473417 0.7984002
000020 97 6a 57 3f 9f 1a 7e 3f 86 f5 57 3f 3f de 70 3f
       0.8414702 0.9925937 0.84359014 0.9408912
000030 59 20 55 3f 99 ee 77 3f 0d dd 4b 3f 50 bb 7a 3f
       0.83252484 0.96848446 0.7963417 0.97942066

prior_processor.2.bias f4 [16]
000000 5a 82 c1 bb 0d 95 dd bc 6b 4d 07 3d c7 53 33 3d
       -0.0059054317 -0.027048612 0.033032816 0.04378107
000010 99 b2 05 3d 65 a0 50 3d c6 0d 30 bb 20 74 13 3e
       0.032641027 0.050934214 -0.0026863678 0.14399767
000020 4c 7e 94 3d 93 e3 0d bc 8b 3e 85 3d 0a 8e c0 3c
       0.07250652 -0.008660215 0.0650607 0.02350523
000030 2a 30 a4 3d 65 fb 8a bc dd 9e 7c bd 98 71 d3 bc
       0.08016999 -0.016965577 -0.06167494 -0.025811002

prior_processor.3.weight f4 [16, 16]
000000 9f 55 82 3e 00 2d 3e 3d a9 1f 36 be 3f f5 79 be
       0.2545595 0.046429634 -0.17785515 -0.2440996
000010 97 bc 17 3c ca 59 43 be 2a 1f 37 be f9 f2 31 3e
       0.009261272 -0.1907722 -0.17882982 0.17377843
000020 d8 4d 3c be 9a f0 a1 3d 8a 9e 52 be 70 ef 28 be
       -0.1838907 0.07907219 -0.2056829 -0.16497588
000030 54 50 1a be dc d0 93 3c 32 81 d2 bd de 34 70 3e
       -0.15069705 0.018043928 -0.10278548 0.23457667
000040 f1 fc 3f be 28 ab 23 3b 70 8a b7 3d 08 ce 82 3e
       -0.18748833 0.0024973843 0.08961952 0.25547814
000050 ff 92 21 be ed 1e e9 bd 1a 31 c7 bd d4 6f 5b be
       -0.15778731 -0.11382852 -0.09726162 -0.21429378
000060 9e 4b c5 3d aa 73 05 bd 40 c1 30 3e 3e be 86 be
       0.096335635 -0.03258101 0.17261219 -0.26317018
000070 11 82 81 3d eb 7a 1d 3e 4e f7 0e be 21 9d 3b 3e
       0.06323636 0.1537892 -0.13961527 0.18321659
000080 56 4d 70 be 9a 2d 27 be 3a de d5 3d c8 30 68 be
       -0.23467001 -0.1632599 0.10442777 -0.22674859
000090 e5 1c 35 3d 86 e9 b9 3d 7b 8c 69 3d 44 dd 09 3e
       0.04421701 0.09077744 0.05701874 0.13463312
0000a0 74 53 9a bd d3 25 ec 3d 41 80 32 bd 9d a2 f2 bd
       -0.07535449 0.11530652 -0.043579344 -0.11847422
0000b0 80 bd 7c bc a9 e0 05 be a4 fb 0f be 26 9a 3a be
       -0.01542604 -0.13073982 -0.14060837 -0.18222865
0000c0 7d 6a af 3e 28 51 2f 3d 81 89 de 3d 1d f7 b5 be
       0.34260932 0.042802006 0.108660705 -0.35540095
0000d0 a6 09 89 bd 7f ff c3 3d 4e 2a 85 be 2a 62 b0 3d
       -0.066912934 0.095702164 -0.26008838 0.08612473
0000e0 9f 6a bd 3d 08 65 86 3d 8f 01 6a bc 4f 0e 80 3e
       0.09248852 0.06562239 -0.014282598 0.25010917
0000f0 cf af 0d be 75 bf 60 3e 92 e8 8c 3e 27 f4 5b 3e
       -0.13836597 0.21948035 0.27521187 0.21479855
000100 95 12 86 3e 99 27 76 be 62 7a 07 be 15 58 b3 3d
       0.26186052 -0.24038543 -0.13230279 0.08757035
000110 10 60 4e be 29 7d f3 bb b2 c2 4d bd 0b f0 8b be
       -0.20153832 -0.0074306917 -0.050234504 -0.27331576
000120 aa 6f 71 3d d8 8b 8f 3e 36 fd 33 3d 0c d5 02 3e
       0.05894438 0.2803638 0.043942653 0.12776583
000130 ce ec 4a 3d ed 58 9f 3d ce 0f 06 3e 53 9b bd 3d
       0.04954224 0.07780633 0.13091967 0.09258141
000140 27 52 b4 3d 16 ce 81 3e 6b 13 8e bd 79 fe 2e 3d
       0.08804732 0.25352544 -0.069372974 0.042723153
000150 da 82 c5 be e3 da 57 3e 8d e9 fd bd aa 97 3b 3e
       -0.38576394 0.21079592 -0.12398062 0.18319574
000160 f1 4b 61 be 5c 9b 8c be 84 fe 26 3e 4b 6c c8 bd
       -0.22001626 -0.2746228 0.16308028 -0.0978628
000170 27 b6 7c ba 9c 38 2b 3e a0 c3 22 bd 28 fa 5e 3d
       -0.000964018 0.16720814 -0.039737344 0.054437786
000180 34 4e 59 bd 95 57 50 3d 23 99 04 3e ca 6d 61 3e
       -0.053053096 0.050864775 0.12949042 0.22014537
000190 50 54 0b be 4b af 59 3d 2b 03 d3 bd 07 83 5f 3c
       -0.13606381 0.053145688 -0.103033386 0.013642079
0001a0 d3 79 af bd f1 95 10 be 77 3e 2f be 78 bf 22 be
       -0.08568158 -0.14119698 -0.17113672 -0.15893352
0001b0 4b 0c fa bc c4 ce 17 be a4 82 93 3d e9 d7 ef 3b
       -0.03052344 -0.14824969 0.07202652 0.0073194397
0001c0 b7 49 bd bd 3f c8 7f be 6f 12 3a be 19 ed eb 3d
       -0.092425756 -0.24978732 -0.18171094 0.11519832
0001d0 a8 90 38 be b0 d0 75 bd 9a ba 63 be 82 47 9d bc
       -0.18023932 -0.060013473 -0.22239152 -0.019199137
0001e0 3f 8e 3a 3e 35 5b d7 3c c9 f9 b5 bd bc 53 07 3e
       0.18218325 0.026288608 -0.08885533 0.13215536
0001f0 bc 42 1a 3e 4a a3 fa 3d 5d ca 04 be be 22 7b 3d
       0.1506452 0.12238176 -0.1296782 0.06131243
000200 6a 13 c4 bd db e5 df 3c db 29 d8 bc b8 11 3b 3e
       -0.095740154 0.027331283 -0.026387146 0.18268478
000210 10 30 3c be ff a0 4a be 02 c0 22 be d9 09 00 bd
       -0.1837771 -0.19787978 -0.15893558 -0.03125939
000220 f4 b4 b1 3d 94 d1 a3 be 96 33 62 be d7 a4 f7 bd
       0.08677092 -0.31995833 -0.22089991 -0.120919876
000230 72 7a 53 bd 12 7e 63 3e 9c 78 a6 bd a8 ba 07 3c
       -0.051630445 0.22216061 -0.08128473 0.008284248
000240 a3 14 a0 be f5 15 a8 bb 08 23 0c 3e 09 95 a7 bc
       -0.31265745 -0.0051295706 0.13685238 -0.020456808
000250 c1 63 ac 3e df 97 a2 3c ea 60 45 3e 65 15 e8 3d
       0.33669856 0.019847808 0.19275251 0.11332206
000260 83 3f 17 3e 7a 48 f5 bd a6 6e 0e 3e fd 79 8f 3e
       0.14770322 -0.119767144 0.13909397 0.28022757
000270 3b 32 d4 3d 94 ec e5 3d 09 3a 1e 3e c9 e4 0d bd
       0.10361143 0.11226764 0.15451826 -0.034642015
000280 65 6e 1a be 37 ff 33 3d 9d a0 74 3d 4e a9 3b be
       -0.15081175 0.043944564 0.059723485 -0.18326303
000290 77 3b 9a 3d fd cf 1c be ba 6e 91 3e 8c 93 22 bc
       0.07530873 -0.15313716 0.2840479 -0.009922873
0002a0 8f 37 d7 3d cd 08 ea 3d f1 02 13 be 77 64 87 3e
       0.10508644 0.1142746 -0.14356591 0.26443836
0002b0 95 68 cb 3c 2e ab 96 be b8 12 f5 3c ee 36 72 bd
       0.024830142 -0.29427475 0.029916152 -0.059134416
0002c0 6f c7 84 3e 7a 0e 97 bc 66 7a 89 be 89 08 2a be
       0.25933406 -0.01843952 -0.26851195 -0.16604818
0002d0 c6 35 1d be 77 8c 1f bd 2d 69 7b bc 33 e0 d4 ba
       -0.15352544 -0.038952317 -0.0153449 -0.0016241133
0002e0 16 ed 09 be f7 0f 35 be cf 41 07 3e f6 40 8a 3e
       -0.13469347 -0.17681871 0.13208698 0.27002686
0002f0 cf 02 91 bc 9b c4 53 3c a0 37 19 bd 8b b1 32 bd
       -0.017701535 0.012925292 -0.037406564 -0.04362635
000300 79 df 9a bd bf 0c 0d 3e bd 6b 59 be cc 48 6b 3e
       -0.07562155 0.13774393 -0.21232505 0.22976989
000310 d7 db a8 3e d4 89 41 be d0 60 18 3e b7 da 57 3d
       0.32980224 -0.18900234 0.14880681 0.052698817
000320 2c 73 f6 bc 36 d1 3f be 2d 73 7e 3e 91 97 23 3e
       -0.030084215 -0.18732151 0.24848624 0.15975787
000330 7d 9a 32 be 2d 12 2e be 74 1c 44 3e 21 b9 a8 bd
       -0.17441745 -0.16999121 0.19151479 -0.082384355
000340 6c ea 5e be 78 15 56 3d 87 1d e8 bb be 49 2f be
       -0.21769112 0.052266568 -0.007083598 -0.17117974
000350 17 c3 ff 3d 52 c3 a1 bc 5d b1 5b 3e 1c 66 f4 bd
       0.12488382 -0.019746456 0.21454377 -0.11933538
000360 91 0e ac 3d 43 27 00 be d1 72 1f 3e 1d c8 4d be
       0.08401216 -0.12514977 0.15571143 -0.20095868
000370 cc 2f 60 3e 11 cd 42 be 76 a1 08 be 94 af 5d be
       0.21893233 -0.19023539 -0.13342842 -0.21649009
000380 3f d5 cc 3b 3c 80 46 3d 6b e7 9c bd 0d b3 1b bc
       0.006251007 0.048462138 -0.07661327 -0.009503138
000390 31 b1 1b be e5 58 5b 3e 51 43 87 3e f3 7f 42 3d
       -0.15204312 0.2142063 0.26418546 0.047485303
0003a0 ae 25 75 be 18 ec 3c 3e dc 00 da bc 1d 8b c4 3d
       -0.23940155 0.18449438 -0.026611738 0.09596846
0003b0 60 36 cd bb 86 81 85 be dc 0d c1 bc b9 c7 6e be
       -0.0062625855 -0.2607538 -0.023566179 -0.23318376
0003c0 74 26 14 3e fb c3 8b be 6b d0 65 3e 48 e8 31 be
       0.14467794 -0.2729796 0.22442786 -0.17373765
0003d0 b9 8a d4 bd 2d ce c8 bc c4 cb 41 bd c6 1a 30 3e
       -0.10378022 -0.024512375 -0.047313467 0.17197713
0003e0 25 1b c7 3d 88 28 88 3d ea ef 73 3e 58 0c 14 bd
       0.09721974 0.06648356 0.23821989 -0.036144584
0003f0 a6 41 28 be 68 02 c7 3d 2a 9e d9 bb 63 2b 8c be
       -0.16431293 0.09717256 -0.006641169 -0.2737685

prior_processor.3.bias f4 [16]
000000 9e 10 02 be 67 0a 33 be 92 34 28 3d 1d 65 5a 3e
       -0.12701651 -0.17484437 0.04106576 0.21327634
000010 89 b8 41 bd 78 ed 4a be 97 76 4c 3e 5d 0c 32 bd
       -0.047295127 -0.1981715 0.19967113 -0.04346882
000020 6d 09 3c bd ae e9 18 3e e5 02 37 3e 1f ac dc 3d
       -0.045907427 0.14932892 0.17872198 0.10775017
000030 cd e0 3c 3e 1b d2 08 be d1 a0 02 bb e5 f2 68 be
       0.1844513 -0.13361399 -0.001993228 -0.22748907

prior_processor.5.weight f4 [16]
000000 25 93 65 3f 9c 20 71 3f 07 b4 71 3f 1c f3 72 3f
       0.8967765 0.9419038 0.94415325 0.94902205
000010 f1 ac 83 3f 35 32 83 3f 28 20 64 3f 53 d0 41 3f
       1.0287153 1.0249697 0.89111567 0.757085
000020 90 a8 8e 3f 17 71 5a 3f ef 34 8f 3f d5 2e 7c 3f
       1.1145191 0.8532881 1.1188029 0.9850896
000030 34 38 a0 3f 32 0e 60 3f 87 be 99 3f 01 77 62 3f
       1.2517152 0.8752166 1.2011269 0.88462836

prior_processor.5.bias f4 [16]
000000 0c c9 51 bd fa 44 07 bc af 69 df 3c 82 74 52 bd
       -0.051217124 -0.008256191 0.027272074 -0.05138064
000010 2d af b4 bc 15 08 2f 3a f2 32 0b 3d 02 50 e7 3d
       -0.022056187 0.00066769245 0.033984132 0.11294557
000020 c7 db 83 3b 3a e8 99 3d a8 16 1a bb f3 3c 54 bd
       0.0040240022 0.07514997 -0.002351204 -0.05181594
000030 ca 00 1a 3b dd 00 55 3d 9c 9d 2b 3b 83 a2 3e 3d
       0.0023499005 0.052002776 0.0026186472 0.046541702

regressor.0.weight f4 [32, 96]
000000 b7 8b 70 bd b5 46 18 3d 58 20 82 bd cf 1a 12 3d
       -0.058726992 0.037176806 -0.06353825 0.035670098
000010 08 ae 94 3d 4b 8e bc 3c e7 75 ad 3d ed 4f 1a bd
       0.07259756 0.02301707 0.08469754 -0.03767388
000020 9f 53 be 3d 3d 1b 47 3d 2f c3 8a 3d 82 17 23 bd
       0.09293293 0.04860996 0.067755096 -0.03981734
000030 4a f6 04 3d d4 eb 63 bd 9c 1e dd bb 20 4e 96 bd
       0.032461442 -0.055644825 -0.0067480337 -0.0733912
000040 de 00 1e bd d9 be a9 3d fe 73 4c 3d af 83 ad 3d
       -0.038575046 0.082883544 0.049915306 0.08472382
000050 9c 1c 59 bd f2 f0 bb bc b7 e7 15 bd 31 30 78 bd
       -0.0530058 -0.02294204 -0.036597934 -0.060592834
000060 cb f1 6d bd 2e ce 4b bc e9 28 5c bd a4 03 9b 3d
       -0.05809192 -0.012439294 -0.053749952 0.07569054
000070 57 a1 64 bd b1 82 cc bb be 4e a6 bd 93 aa 97 3d
       -0.05581793 -0.0062411656 -0.08120488 0.07405581
000080 1e d7 a0 bd 9a dc 85 bc b6 50 f5 3c 85 54 16 3d
       -0.0785353 -0.016340543 0.029945713 0.036701698
000090 c5 79 1d 3d b6 32 bb bd cf 6e 76 bd c0 25 ce 3d
       0.038446207 -0.09140532 -0.06016427 0.10065794
0000a0 57 16 3c bd fa 8e 5a 3c f5 51 a7 3d 87 a9 89 3d
       -0.045919742 0.013339752 0.08169929 0.06721788
0000b0 1f c3 dd bc 90 7e ab 3d 0b 43 87 bd bd b2 c5 bd
       -0.02707058 0.08373749 -0.06604584 -0.09653232
0000c0 92 b5 43 bd 04 42 ed 3d f7 4d b2 bd 36 f8 8f 3c
       -0.04778058 0.11584857 -0.08706277 0.01757441
0000d0 79 2b 86 bd a9 bf 83 3d 2c 5b ff 3b ad 41 9f 3d
       -0.065512605 0.06433041 0.007792851 0.077761985
0000e0 82 b3 9c bc 63 27 84 3d e2 b7 3c 3d 06 63 e8 3c
       -0.019128565 0.06452825 0.0460738 0.02836753
0000f0 84 49 99 3d 55 3c 16 bd 93 5e 52 bd ab 85 1e 3d
       0.07484725 -0.03667863 -0.051359724 0.038701694
000100 22 3b 95 bd 1a e5 18 3c 3a 42 89 bd 3a ed d4 3d
       -0.07286669 0.009331966 -0.06702085 0.1039681
000110 ab bd fc 3c 54 ba 87 3d 14 88 2e 3d b3 3c 31 bd
       0.03085216 0.06627336 0.042610243 -0.043270778
000120 68 25 d0 3d 56 54 83 3d ec fa bf 3d b6 2c 61 3d
       0.10163385 0.0641257 0.093740314 0.05497428
000130 de 04 3b bd 63 c6 91 3d db 7b 1d bd 48 bf e0 3c
       -0.04565894 0.071179174 -0.038448196 0.02743496
000140 e6 42 3d 3c aa 81 88 3d 23 da 08 3e 0d 16 d8 bd
       0.011551594 0.066653565 0.13364463 -0.10551081
000150 24 dc e0 bd 03 d1 4b 3d db 6d ae bd bc ab e3 3c
       -0.109794885 0.049759876 -0.08517047 0.02779185
000160 03 ce 51 3d 62 ac 22 bc df 8b db 3c 84 c0 b3 bd
       0.05122186 -0.009928795 0.026800094 -0.08776954
000170 85 76 86 3d c2 de 9d bd a1 53 07 3e ab 11 0c 3d
       0.065655746 -0.07708503 0.13215496 0.034196537
000180 4d 7d a5 bd b3 09 55 bd f5 cd 83 3d 83 c8 93 3d
       -0.0808054 -0.052011203 0.064357676 0.07215979
000190 66 5c db bd c2 4f 3c 3d 9f ab 62 3c 88 ee 73 bc
       -0.10710983 0.0459745 0.013834863 -0.014888413
0001a0 c0 71 7f 3c 6c 36 ad bc dc d5 db 3c 47 4a cf 3c
       0.015591085 -0.021144114 0.026835375 0.025303973
0001b0 72 65 8a 3d d2 ef 38 3c ed ff f9 3b 59 54 61 3d
       0.067576304 0.011287646 0.0076293857 0.05501208
0001c0 23 8d 51 3d 25 d0 82 3d 48 17 42 3d b7 7f 88 bc
       0.05115999 0.06387357 0.047385484 -0.016662462
0001d0 da e5 55 3d 98 b3 85 3d 80 bc 55 bd d1 f4 8b 3d
       0.052221157 0.065283954 -0.05218172 0.068338044
0001e0 28 b1 93 bd 20 b9 2e bd af 72 8d bc 8a a1 cd 3d
       -0.07211524 -0.042657018 -0.0172666 0.10040577
0001f0 2f e5 69 3d b3 e8 98 bd 74 6a c4 3d b4 9a 43 3d
       0.057103332 -0.07466259 0.09590617 0.04775496
000200 3f 32 11 3c 04 20 e6 bc 23 86 16 bd 5e 7b e4 3c
       0.008862077 -0.028091438 -0.036749016 0.027890857
000210 e4 6b 31 bd 4d 65 9c 3d a8 b6 9d 3d ef da a1 3d
       -0.043315783 0.07636509 0.077008545 0.079030864
000220 35 a1 26 3d 37 1f 8c 3d a2 81 c8 bd 7a a3 b2 3d
       0.040681083 0.06841891 -0.097903505 0.08722587
000230 b6 e9 25 3d da a2 22 bc 4f 32 56 bc 2e 75 73 3d
       0.040506087 -0.009926522 -0.013073518 0.059437923
000240 31 87 8b bd 5e 80 5c bd d7 21 99 bd ca ea 86 bc
       -0.06812895 -0.053833358 -0.074771576 -0.016469378
000250 e9 eb 56 3d 70 bd 4f 3d 7b 02 7e 3d 20 38 26 bc
       0.052471075 0.05071777 0.062014084 -0.010145217
000260 2b c9 24 3a 64 ca b2 3d e0 ff 19 3d dd b5 1d 3d
       0.000628608 0.08730009 0.037597537 0.038503516
000270 a7 c7 39 3b 6c 34 2c 3c 87 b9 0e 3d 9d 45 c4 3d
       0.0028347762 0.010510545 0.0348449 0.0958359
000280 24 85 84 3d 22 fe 60 3d d3 8a 81 3d ee 04 21 3b
       0.06470707 0.05492986 0.06325307 0.0024569589
000290 b8 60 b4 3c d2 4b 47 bd d4 7d 7b bd 58 2a 0e bd
       0.022018775 -0.048656292 -0.061399296 -0.03470835
0002a0 cc 53 88 3d b3 14 35 bd 2a 6d 7f 3d 6b 17 a3 bb
       0.06656608 -0.044209193 0.062359966 -0.004977157
0002b0 66 99 5e 3b a2 00 03 bd f1 63 64 3d 64 ee 14 3d
       0.0033965944 -0.031983025 0.055759374 0.03636016
0002c0 4a e6 61 bd 9d fc a6 bd e0 b5 5d 3d ca d6 df bc
       -0.05515126 -0.08153651 0.054128528 -0.0273241
0002d0 cc a3 8e bd b8 31 8a bc e2 65 49 bb 09 1d fa bc
       -0.069648355 -0.01686941 -0.0030730893 -0.030531423
0002e0 c6 f3 00 bd ba 4a 9a bc 47 27 27 bd be b8 8e 3d
       -0.03148248 -0.01883446 -0.040808942 0.069688305
0002f0 68 6c 64 bd 98 be 4f 3c 85 2d 8e 3d a5 5d 62 bd
       -0.055767447 0.012679718 0.06942276 -0.055265088
000300 3b b9 fc 3c 29 49 a2 bd 7e 25 02 3c 1a 8f 16 3e
       0.030850044 -0.079241104 0.007943509 0.14703026
000310 12 98 6b 3d b5 c1 81 bd 8b d4 7b bc 0a 9f 88 bc
       0.057518072 -0.06335775 -0.015370498 -0.016677398
000320 6c f2 87 3c 5e f3 90 bd 0b 91 9e 3d 92 96 0e 3d
       0.016595088 -0.070776686 0.077425085 0.034811564
000330 04 33 26 bd 81 6e ba bd d0 df ec bc d1 c2 95 3d
       -0.040575996 -0.09103108 -0.028915316 0.07312549
000340 68 8f 86 bd fd 5a 4e 3d 18 d5 b0 bd 7e 28 55 3d
       -0.06570321 0.050379742 -0.086343944 0.05204057
000350 12 8f 90 3d 40 19 05 3e 12 0a 9b 3d fd 62 34 bd
       0.070585385 0.12997913 0.0757028 -0.044039715
000360 ad 86 c0 bd c7 02 06 3c cc c8 3d 3d 80 c3 5a 3d
       -0.09400687 0.008179373 0.046334073 0.0534091
000370 29 4c 20 bc d9 f0 4a bb e5 ab 85 3d 73 a8 b3 3a
       -0.009783783 -0.003096631 0.06526927 0.0013706818
000380 68 64 e9 bd 0f 4a 6d 3d 7c 7c e8 3c 3e 62 a0 b5
       -0.11396104 0.057931956 0.028379671 -1.1949521e-06
000390 46 d2 6a bc ef 52 18 ba 6e 35 40 3d b1 1c b1 bd
       -0.01433236 -0.0005810698 0.046925955 -0.086480506
0003a0 4f ce 22 3d 7f 13 7d 3d 79 02 24 bc 09 d7 e4 bd
       0.039747532 0.06178617 -0.010010355 -0.11173827
0003b0 e9 82 bd bd f3 65 b7 bd 90 ee ca bd 9c 02 59 3d
       -0.09253485 -0.08954992 -0.099087834 0.052981004
0003c0 6c 4d 58 bd 7b d1 2e bd cd 2b 7c 3d ac 9a 2d 3d
       -0.05280821 -0.042680245 0.06156521 0.042383835
0003d0 81 69 2c bc c6 12 ac bd 99 07 73 bd 79 1e b5 3d
       -0.010523201 -0.08402018 -0.059333418 0.08843703
0003e0 d8 39 c2 3d d3 76 24 bd c3 b2 b1 bb 06 7d 1f bd
       0.09483689 -0.040152382 -0.0054229214 -0.03893759
0003f0 20 5b ec 3c 3d 99 eb bd b5 ee 3d 3d c4 51 3b 3d
       0.028852046 -0.11503837 0.046370227 0.045732275
