best_models/knet_best.pth (torch, 16476 bytes, 27 tensors)

GRU_Q.weight_ih_l0 f4 [12, 10]
0	0xbe1ba364	-0.15199047
1	0x3ebc9cd1	0.3683839
2	0x3e6e5b24	0.23276955
3	0xbe6753ff	-0.22590636
4	0x3ea66060	0.32495403
5	0x3e0a9aae	0.13535568
6	0xbef69eac	-0.48167932
7	0xbea9abbc	-0.33138835
8	0xbeebabdc	-0.46029556
9	0xbee0ed53	-0.43931064
10	0x3e6aefa2	0.22942975
11	0xbecc179e	-0.39861768
12	0x3e8d63ce	0.27615207
13	0x3cd8999b	0.026440432
14	0x3ea53178	0.32264304
15	0x3ec345dc	0.38139236
16	0x3ef22a09	0.47297695
17	0x3c1a1ed3	0.009406763
18	0x3e83bb6d	0.25728932
19	0x3e218cf9	0.15776433
20	0xbd21fe35	-0.03954907
21	0xbe151c23	-0.14561515
22	0x3c2071af	0.009792729
23	0x3ebd2b44	0.36947072
24	0xbed818a7	-0.42206308
25	0x3ee45d46	0.44602412
26	0x3e294a9e	0.1653237
27	0x3e793cdc	0.24339622
28	0xbed7e74e	-0.4216866
29	0xbdb431bd	-0.08798549
30	0xbed09b65	-0.40743557
31	0x3e89aecb	0.2689117
32	0xbee75797	-0.45184013
33	0xbe864e50	-0.26231623
34	0xbcc54a28	-0.024083212
35	0x3ed482f2	0.41506153
36	0xbe6f4b6c	-0.23368615
37	0x3edbe10f	0.42945144
38	0xbe914576	-0.28373307
39	0xbcbdab55	-0.023152987
40	0x3e89a0f8	0.26880622
41	0xbe8dedea	-0.27720577
42	0x3d95a38a	0.07306583
43	0x3c2f9a51	0.010717944
44	0x3dd4812e	0.103762016
45	0x3eca8f23	0.3956233
46	0xbedb354c	-0.428141
47	0xbe3a3848	-0.18185532
48	0xbe67b048	-0.2262584
49	0x3e16284b	0.14663808
50	0xbe998a4d	-0.29988328
51	0x3e52e859	0.20596446
52	0x3e9472ec	0.28993928
53	0xbd47196e	-0.048608236
54	0xbe0a4d3d	-0.13506027
55	0xbef87312	-0.48525292
56	0x3e2a00e9	0.1660191
57	0x3e87c766	0.26519316
58	0x3ed268c2	0.4109555
59	0x3ea21849	0.31659153
60	0xbe5468d9	-0.20743121
61	0x3edceafd	0.43148032
62	0xbe058cfd	-0.13042064
63	0xbdb48c0e	-0.08815776
64	0xbda2c248	-0.079472125
65	0xbebcd5f5	-0.36881986
66	0x3de98b07	0.114034705
67	0x3ea4340a	0.32070953
68	0xbedeef03	-0.43541726
69	0x3e93edc0	0.28892326
70	0x3ec4cbc1	0.38436702
71	0xbeccff44	-0.40038502
72	0xbeac9412	-0.3370672
73	0xbe0131e9	-0.12616695
74	0xbe052e73	-0.13006
75	0xbe288a46	-0.16458997
76	0x3ec71168	0.38880467
77	0xbebf0eb3	-0.37315902
78	0x3dde9929	0.10869057
79	0xbee6d168	-0.4508164
80	0x3e87fb89	0.26559094
81	0xbe90c580	-0.2827568
82	0xbeed1190	-0.46302462
83	0xbe9bebec	-0.30453432
84	0x3e83cf6b	0.25744185
85	0xbe1b51ca	-0.15167919
86	0xbe6ab5ee	-0.22920963
87	0xbdf8cb07	-0.121480994
88	0xbe9be98a	-0.30451614
89	0xbeb0e6d1	-0.345511
90	0x3ee00319	0.43752363
91	0x3dc6f6f1	0.09715069
92	0x3ebcd224	0.36879075
93	0xbcf3ea68	-0.02977486
94	0xbe7341b7	-0.23755537
95	0xbdd8906f	-0.105744235
96	0x3e518a63	0.20462947
97	0x3c4b6a77	0.01241552
98	0x3ef67da7	0.4814274
99	0x3de0b572	0.10972108
100	0xbee35d66	-0.44407195
101	0x3e858f31	0.2608581
102	0x3efcb00e	0.4935307
103	0x3d9ac58b	0.075572096
104	0xbe820f3d	-0.2540225
105	0x3e071691	0.13192202
106	0x3e09c4b1	0.13453938
107	0x3ede02c9	0.433615
108	0xbeaa5265	-0.33265987
109	0xbec06cf9	-0.3758314
110	0xbdfd1594	-0.12357631
111	0xbd242971	-0.040078584
112	0xbe95ac2c	-0.2923292
113	0x3e79a0dd	0.2437777
114	0xbe33683a	-0.17520228
115	0x3e999a32	0.30000454
116	0xbdd5da74	-0.10442057
117	0xbde7042d	-0.11280093
118	0xbe268164	-0.16260296
119	0x3d0f8177	0.035035577

GRU_Q.weight_hh_l0 f4 [12, 4]
0	0xbe547769	-0.20748676
1	0xbeedb8cc	-0.4643005
2	0x3efd24f9	0.4944227
3	0x3e489ff1	0.19592263
4	0xbe84c477	-0.2593114
5	0x3eaa3dd6	0.33250302
6	0xbdce03a6	-0.1005929
7	0x3e62a32d	0.22132559
8	0xbbef6b84	-0.007306518
9	0x3ecd96cb	0.40154108
10	0xbe073005	-0.13201912
11	0xbe002e2f	-0.12517618
12	0xbef4611e	-0.47730345
13	0xbe7d595e	-0.24741122
14	0xbdfaf656	-0.12254016
15	0x3d475dde	0.048673503
16	0xbe9ff41a	-0.31240922
17	0x3e445fa9	0.19177116
18	0xbd94dcb1	-0.07268656
19	0x3ed8770e	0.42278332
20	0xbc60b17a	-0.013714189
21	0xbbbe4659	-0.005806726
22	0x3eb8285f	0.359683
23	0x3ebb16b8	0.3654077
24	0x3e9d7814	0.30755675
25	0x3d4313da	0.047626354
26	0x3ef54c84	0.4790994
27	0x3eb980a2	0.36230952
28	0xbe67469b	-0.22585528
29	0x3e255336	0.16145024
30	0x3edf6e49	0.43638828
31	0xbe202877	-0.15640436
32	0x3e2621e0	0.1622386
33	0xbe62f60c	-0.22164172
34	0xbe8b0efd	-0.27159873
35	0x3d6fa4e1	0.05850685
36	0xbd0e3478	-0.034718007
37	0x3e3c3bbc	0.18382162
38	0xbef42d27	-0.47690699
39	0xbed7433b	-0.4204348
40	0xbeb5a0bf	-0.35474202
41	0x3e4ebfd4	0.20190364
42	0x3ea1677b	0.31524262
43	0xbef905e1	-0.48637298
44	0x3e4a6e4b	0.19768636
45	0xbee3a001	-0.4445801
46	0x3d873599	0.0660202
47	0x3b93e70d	0.0045136274

GRU_Q.bias_ih_l0 f4 [12]
0	0xbeccdf0f	-0.4001393
1	0xbe1cc127	-0.15308057
2	0xbefe1161	-0.49622634
3	0xbe7c0661	-0.24611808
4	0x3dc69fcb	0.09698447
5	0xbe967ec9	-0.29393604
6	0xbe8aba26	-0.27095145
7	0x3e5c4467	0.21510468
8	0x3ec89d0d	0.3918232
9	0x3e4f3197	0.20233761
10	0x3bc4a9a5	0.0060016685
11	0xbebbac52	-0.36654907

GRU_Q.bias_hh_l0 f4 [12]
0	0xbeb21179	-0.34778956
1	0x3efe65ac	0.49686944
2	0xbec9ad01	-0.39389804
3	0x3ef85ce2	0.48508364
4	0x3ecd2d6a	0.4007371
5	0x3ef24b6f	0.47323176
6	0xbe8b09ca	-0.27155906
7	0x3eb05cf4	0.34445918
8	0xbd809b18	-0.06279582
9	0xbe787da9	-0.24266686
10	0x3d944ae8	0.0724085
11	0xbec65579	-0.38737085

GRU_Sigma.weight_ih_l0 f4 [12, 14]
0	0x3e682216	0.22669253
1	0x3d87c809	0.066299506
2	0x3ef43ebf	0.4770412
3	0xbc852188	-0.01625134
4	0x3eaa0c2f	0.3321242
5	0xbeaed15f	-0.34144112
6	0xbc542472	-0.012948142
7	0xbd9ce336	-0.076605245
8	0xbb8b331c	-0.004248036
9	0xbefbd5f4	-0.4918667
10	0xbe2f789c	-0.17135853
11	0xbd1d822c	-0.03845422
12	0xbd1794f2	-0.03700728
13	0xbec6e438	-0.38845992
14	0x3e9ec643	0.31010637
15	0x3d96c1dc	0.073611945
16	0x3ee8a0f1	0.4543529
17	0x3e68b19a	0.22724
18	0x3e79420a	0.24341598
19	0x3eada4bb	0.33914742
20	0x3ed9105c	0.42395294
21	0xbeb3a1f8	-0.3508451
22	0x3ed10243	0.40822038
23	0xbcc3cbed	-0.02390095
24	0xbe08dd50	-0.13365674
25	0xbe7cbba0	-0.24680948
26	0xbe940ea6	-0.28917426
27	0xbebafc1e	-0.36520475
28	0x3de25413	0.11051192
29	0x3e5216f4	0.20516568
30	0xbeb8d9a4	-0.36103547
31	0xbe7327c0	-0.23745632
32	0xbef600dd	-0.48047534
33	0x3d071a3e	0.03298401
34	0x3cad2da2	0.021139923
35	0xbea6c8cc	-0.3257507
36	0x3ea79254	0.32728827
37	0x3db60041	0.08886767
38	0x3e0ee1f8	0.13953388
39	0x3e77c9f4	0.24198133
40	0x3e50e75e	0.2040076
41	0xbef270bc	-0.47351635
42	0x3e5391b9	0.20661058
43	0x3e9b36ae	0.30315155
44	0x3ecdbceb	0.40183195
45	0xbed149a7	-0.40876505
46	0xbed05f56	-0.40697736
47	0xbd8c7f82	-0.06860258
48	0x3e9fedfb	0.31236252
49	0xbe278400	-0.16358948
50	0xbce2a70c	-0.027667545
51	0xbee23c7d	-0.44186774
52	0x3e68dd2c	0.2274062
53	0x3dc70a9b	0.0971882
54	0x3eaa8338	0.33303237
55	0xbcdbe20a	-0.026841182
56	0xbee7e331	-0.4529052
57	0x3d610c7b	0.054943543
58	0xbee22791	-0.44170812
59	0xbdc33f83	-0.09533598
60	0xbee77bf4	-0.45211756
61	0xbea6ce19	-0.32579115
62	0x3eefdefb	0.46849808
63	0xbeb424a6	-0.3518421
64	0xbe100662	-0.14064935
65	0x3eece16b	0.4626573
66	0x3eb5b8f8	0.35492682
67	0xbe89fe7c	-0.2695197
68	0xbe2c05a8	-0.16799033
69	0xbd84c8df	-0.064836256
70	0x3ebf5da5	0.37376133
71	0x3e97c997	0.29645988
72	0xbefb7047	-0.49109098
73	0x3ea9be6c	0.33153093
74	0xbdb70888	-0.08937174
75	0x3de02365	0.10944251
76	0xbe7bcc3b	-0.24589626
77	0x3e0c2a72	0.13688067
78	0x3d4d0a7b	0.050058823
79	0x3dd70af3	0.10500135
80	0x3ee2c00c	0.44287145
81	0x3ced5499	0.028971003
82	0x3ef77c09	0.4833682
83	0x3ed7660e	0.4207005
84	0x3ef8fd30	0.48630667
85	0x3ec7130e	0.38881725
86	0x3d1d562f	0.03841227
87	0x3ec751e1	0.38929656
88	0x3ecee84a	0.40411597
89	0x3e6f5dbf	0.23375605
90	0xbe409031	-0.18805005
91	0x3eec1636	0.46110696
92	0x3ebc71b9	0.36805514
93	0x3eec5183	0.46155939
94	0x3c87f5a0	0.016596615
95	0x3d7bd384	0.061481014
96	0x3d269482	0.04066897
97	0x3e77e846	0.24209699
98	0x3e9f90ca	0.31165153
99	0x3e690942	0.22757438
100	0xbebf3ee5	-0.37352672
101	0x3e0d859a	0.13820496
102	0x3ef44065	0.4770538
103	0xbe682cfb	-0.22673409
104	0xbe54c6cd	-0.20778961
105	0xbe91ef6a	-0.2850297
106	0x3ee1fda1	0.44138816
107	0x3ed25bf9	0.41085795
108	0xbef1dce2	-0.47238833
109	0x3efeeb64	0.49788964
110	0xbdfcaf5a	-0.12338133
111	0x3c8a6cc3	0.016897565
112	0x3c508b0f	0.012728467
113	0xbe5d6428	-0.21620238
114	0xbdd8baa0	-0.10582471
115	0xbdfec104	-0.124391586
116	0x3dc8afd1	0.09799159
117	0x3e88a080	0.26684952
118	0xbe202715	-0.15639909
119	0x3e8a7fee	0.27050728
120	0xba63a516	-0.00086839625
121	0xbd059d76	-0.03262087
122	0x3e9d54ac	0.30728662
123	0xbe1af1d6	-0.15131316
124	0xbcfdc5ff	-0.030978201
125	0xbea26ac4	-0.3172208
126	0x3ea39c65	0.31955257
127	0x3ebbcc28	0.36679196
128	0xbda612fb	-0.08109089
129	0xbeebbf7b	-0.46044526
130	0x3efeb613	0.49748287
131	0xbe816e57	-0.25279495
132	0x3c2ac79c	0.010423567
133	0x3ce08c83	0.027410751
134	0x3ee1cb6c	0.4410051
135	0xbd63d99e	-0.055627458
136	0x3df03be0	0.1173017
137	0xbd33cc30	-0.0438959
138	0x3e126e39	0.14299859
139	0x3eb309cc	0.34968412
140	0x3e041ae9	0.1290089
141	0x3e41b0fd	0.18915172
142	0xbc1e666d	-0.009667975
143	0x3e93fc9e	0.2890367
144	0x3e825e34	0.25462496
145	0xbe8c8b44	-0.2745
146	0xbd870ffd	-0.065948464
147	0xbdb07e1b	-0.08617803
148	0x3ed45f5a	0.41478997
149	0x3d5f15d1	0.054464165
150	0x3ecc2f30	0.3987975
151	0xbebc11ab	-0.3673223
152	0x3ef87d03	0.48532876
153	0xbe91e022	-0.28491312
154	0x3ec167db	0.37774548
155	0x3dcf5bf9	0.10124964
156	0x3d6ee520	0.05832398
157	0xbece944c	-0.40347517
158	0xbe7220ea	-0.23645368
159	0x3e8d2dff	0.27574155
160	0xbea549f1	-0.32282975
161	0xbe61addc	-0.22038978
162	0xbe86baee	-0.2631449
163	0x3e52cd67	0.20586167
164	0x3ee1b672	0.44084507
165	0x3ec5b105	0.38611618
166	0xbe453fab	-0.19262569
167	0x3d30947a	0.04311035

GRU_Sigma.weight_hh_l0 f4 [12, 4]
0	0x3e5bbec1	0.21459486
1	0xbeef09f8	-0.46687293
2	0xbe46c3f3	-0.19410686
3	0x3e9375f6	0.28800935
4	0x3ec4b4ac	0.38419092
5	0xbde179f8	-0.11009592
6	0xbeae69c9	-0.34065083
7	0x3ef0367d	0.4691657
8	0x3e895ef8	0.26830268
9	0x3ee18f12	0.44054466
10	0xbefc9b16	-0.4933707
11	0x3ea1099f	0.31452653
12	0xbe76920b	-0.24079148
13	0x3e0fce14	0.14043456
14	0x3ec4fb2a	0.38472873
15	0x3ef63e70	0.4809451
16	0xbe9adbdc	-0.30245864
17	0xbee6b44e	-0.45059437
18	0x3e4f0c62	0.20219567
19	0x3e8c07d1	0.27349713
20	0x3d6be93f	0.057595488
21	0x3eaa7a38	0.3329637
22	0x3c1850d8	0.009296618
23	0x3dbd1681	0.09232808
24	0xbd35e6bc	-0.0444095
25	0x3d649bf0	0.055812776
26	0xbe8a2a70	-0.26985502
27	0xbea155e9	-0.31510857
28	0x3ee2999d	0.44257823
29	0x3e912712	0.2835012
30	0xbe0257b7	-0.12728773
31	0x3e844d75	0.25840345
32	0x3d87a25d	0.06622765
33	0xbe3b7ab0	-0.1830852
34	0xbe887148	-0.26648927
35	0x3ec18a04	0.3780061
36	0x3e861823	0.2619029
37	0xbb369d00	-0.0027864575
38	0x3eca4c4f	0.39511344
39	0x3ec303a1	0.38088706
40	0xbd0113a4	-0.03151287
41	0xbec4c260	-0.38429546
42	0xbcf6a56f	-0.030108182
43	0x3ce02492	0.027361188
44	0x3e0a8435	0.13526995
45	0x3ec07df8	0.37596107
46	0x3eaa97c5	0.33318916
47	0xbe9e6d28	-0.30942655

GRU_Sigma.bias_ih_l0 f4 [12]
0	0xbe90d96f	-0.2829089
1	0x3eca68fd	0.39533225
2	0xbec97be2	-0.39352328
3	0x3e048e7c	0.12944978
4	0x3e184b21	0.1487241
5	0x3eb48163	0.35254964
6	0xbe89828a	-0.26857406
7	0xbe023c3e	-0.12718293
8	0x3e73b36e	0.23798916
9	0xbe408c93	-0.18803625
10	0x3eeefff4	0.46679652
11	0xbb6fe534	-0.0036605122

GRU_Sigma.bias_hh_l0 f4 [12]
0	0xbe1f8cc9	-0.15581049
1	0xbba5b24c	-0.005056655
2	0xbe50e6af	-0.20400499
3	0x3e0914ec	0.13386887
4	0xbe95a83f	-0.29229924
5	0xbe5f6fa8	-0.21819937
6	0x3eb24ede	0.34825796
7	0xbea6a405	-0.32547012
8	0x3e1c996d	0.15292902
9	0x3ebc3f2a	0.3676694
10	0xbd9c7027	-0.07638579
11	0xbda50494	-0.08057514

GRU_S.weight_ih_l0 f4 [3, 11]
0	0x3dd8a85f	0.10578989
1	0xbf4ddcdb	-0.80415124
2	0x3e34c3ef	0.17652868
3	0xbf67be6b	-0.9052493
4	0xbe06cb0c	-0.13163394
5	0xbf37a4e6	-0.7173599
6	0x3e5ea1aa	0.21741357
7	0x3f4e8945	0.80678207
8	0x3f3936af	0.72349066
9	0xbf70e1cc	-0.9409454
10	0x3f36992e	0.71327484
11	0xbe4fb99f	-0.20285653
12	0x3d917b46	0.07103591
13	0x3e0f449c	0.13991016
14	0xbf06e9b8	-0.52700377
15	0xbf78d97b	-0.9720685
16	0x3ea5f8f7	0.32416508
17	0xbef8e7d2	-0.48614365
18	0xbf7de940	-0.99184036
19	0x3f7745b4	0.96590734
20	0x3ee56bd2	0.44808823
21	0xbd9d1cef	-0.07671534
22	0x3db562b8	0.0885672
23	0x3eca87c8	0.39556718
24	0xbeddab66	-0.4329483
25	0x3ecf00ac	0.404302
26	0xbdb29f27	-0.08721762
27	0x3edce598	0.43143916
28	0x3f208851	0.62708
29	0x3f04fdd6	0.5194982
30	0x3f6f8501	0.9356232
31	0xbecffd37	-0.40622875
32	0xbe82c24e	-0.25538868

GRU_S.weight_hh_l0 f4 [3, 1]
0	0x3f1754f0	0.5911398
1	0x3f0fc5f0	0.56161404
2	0x3f2d7edc	0.677717

GRU_S.bias_ih_l0 f4 [3]
0	0xbec20295	-0.37892595
1	0xbf5996c2	-0.84995663
2	0xbf05d60f	-0.5227975

GRU_S.bias_hh_l0 f4 [3]
0	0x3d99957e	0.074992165
1	0xbf2f31ae	-0.6843518
2	0xbe0fabff	-0.14030455

FC1.0.weight f4 [1, 4]
0	0x3e1fb124	0.15594918
1	0xbea061c7	-0.31324598
2	0xbea7c056	-0.32763928
3	0xbe4c65e8	-0.19960749

FC2.0.weight f4 [200, 5]
0	0xbec3eb5c	-0.38265502
1	0xbdc721ed	-0.09723268
2	0x3edbb14e	0.4290871
3	0xbe442380	-0.19154167
4	0x3de461d1	0.111514695
5	0xbd2c3fe0	-0.042053103
6	0x3d20a268	0.039217383
7	0x3ee1f5d9	0.4413288
8	0x3d098802	0.033576973
9	0x3d37ece2	0.044903643
10	0x3e4c1fca	0.19934002
11	0xbd6315d0	-0.055440724
12	0x3e1e7c2a	0.15477052
13	0x3e1558f9	0.14584722
14	0xbe9b4265	-0.30324093
15	0xbe3728e6	-0.17886695
16	0xbe035827	-0.12826596
17	0x3e3e8406	0.1860505
18	0x3ec310c9	0.38098744
19	0x3ece4f62	0.4029494
20	0xbe619870	-0.22030807
21	0xbe953c87	-0.2914774
22	0x3a5de348	0.00084643485
23	0x3e2fbc23	0.17161612
24	0xbe95cc52	-0.29257447
25	0xbee32a19	-0.44368055
26	0xbc8c485f	-0.017124353
27	0xbdcef3b0	-0.101050735
28	0x3e6c2762	0.23061898
29	0x3c875fd0	0.01652518
30	0xbe94a12d	-0.29029217
31	0x3dc9efb3	0.09860172
32	0x3e217413	0.15766935
33	0xbe2f5615	-0.17122681
34	0x3ed430cc	0.4144348
35	0x3ea3d41c	0.31997764
36	0x3e794568	0.24342883
37	0x3e46a3ef	0.19398473
38	0x3eaadbd6	0.33370847
39	0xbe93c072	-0.28857762
40	0xbdfccfa2	-0.1234429
41	0xbe42bf7c	-0.19018358
42	0xbe0f54be	-0.1399717
43	0xbee11ca4	-0.43967164
44	0x3e0f32d7	0.13984238
45	0x3e7d9d36	0.24767002
46	0xbda417dd	-0.08012364
47	0xbede026d	-0.43361226
48	0xbe98f17b	-0.29871735
49	0xbeb37575	-0.3505055
50	0x3e5ff1f2	0.21869639
51	0x3eca4fdc	0.39514053
52	0x3dd3d9a0	0.10344243
53	0xbcf5087f	-0.029911278
54	0xbe157883	-0.14596753
55	0xbed3876f	-0.41314265
56	0xbd82f05c	-0.06393501
57	0xbddc7c03	-0.10765841
58	0x3e8a578c	0.27019918
59	0x3ec063e8	0.37576222
60	0xbea7fe33	-0.32811126
61	0x3ed56528	0.4167874
62	0xbd95ac75	-0.07308284
63	0x3e2fcf3d	0.17168899
64	0x3ed05f5b	0.4069775
65	0xbcabd782	-0.020976786
66	0x3e5af303	0.21381764
67	0xbe0a194f	-0.13486217
68	0xbe99fa4b	-0.3007377
69	0xbecdc62a	-0.4019025
70	0x3ea0c909	0.31403378
71	0x3d2d523e	0.04231476
72	0x3ea57ad2	0.32320267
73	0x3ec0f8f6	0.37689942
74	0xbdee2923	-0.1162894
75	0x3ebd3f15	0.3696219
76	0x3e5ebf8e	0.2175276
77	0x3ec2b941	0.38031963
78	0xbe9c50aa	-0.30530292
79	0x3e95cfc3	0.29260072
80	0xbe86cb09	-0.2632678
81	0x3ec856f7	0.3912885
82	0xbb7d4d66	-0.003865087
83	0xbde92056	-0.11383121
84	0x3e86a52a	0.26297885
85	0xbd638168	-0.055543333
86	0xbe721b4b	-0.23643224
87	0x3e92914f	0.28626487
88	0x3e800fa8	0.25011945
89	0x3defc1aa	0.1170686
90	0xbd391f9e	-0.045196168
91	0x3dbf76ce	0.09348832
92	0xbeaddb11	-0.33956197
93	0x3dc170db	0.094453536
94	0xbdf33106	-0.11874585
95	0xbea1c7cc	-0.31597745
96	0x3ec98ccf	0.3936524
97	0x3edb9527	0.42887232
98	0xbe3b3115	-0.18280442
99	0x3eaa28f9	0.33234385
100	0xbe89c6d2	-0.269095
101	0x3d74e222	0.05978597
102	0x3dcd674e	0.100294694
103	0x3ebdefe8	0.37097096
104	0x3eaf7072	0.34265476
105	0x3eba6768	0.36407018
106	0x3ed3f525	0.41397968
107	0xbdbee12d	-0.093202926
108	0x3e907759	0.28216055
109	0x3eb65377	0.35610554
110	0xbe54280a	-0.20718399
111	0x3e9783bd	0.29592696
112	0x3e3ac3e6	0.18238792
113	0xbd4f082f	-0.050544914
114	0x3e817e81	0.25291827
115	0xbecfc73c	-0.4058169
116	0x3c180a90	0.009279862
117	0xbed9a710	-0.4251027
118	0x3e66d8bb	0.22543614
119	0x3db9ad94	0.090663105
120	0x3e8f851d	0.28031245
121	0x3e0ac6fb	0.13552468
122	0xbec2f0eb	-0.3807443
123	0x3d9cbf32	0.07653655
124	0x3d3774fe	0.044789307
125	0x3eb67dad	0.35642758
126	0x3e8814ee	0.26578468
127	0x3ed0ac6a	0.40756541
128	0xbe230a4a	-0.15921894
129	0x3d6cc198	0.057801813
130	0x3e20a3f3	0.15687542
131	0xbeac9838	-0.33709884
132	0xbd5d93f1	-0.054096166
133	0x3d0747b4	0.033027366
134	0xbe2204e4	-0.15822178
135	0xbdfd6211	-0.1237222
136	0x3e876b19	0.26448897
137	0xbe306c28	-0.17228758
138	0xbeb6d3ee	-0.35708565
139	0x3ed7047b	0.41995606
140	0x3e22412d	0.15845175
141	0xbeacb276	-0.33729905
142	0xbea705cc	-0.3262161
143	0x3e78119c	0.24225467
144	0xbe4eb6a1	-0.20186855
145	0xbdda9018	-0.10672015
146	0xbe9fb486	-0.31192416
147	0xbe7839e6	-0.24240837
148	0xbeab8f7f	-0.33507916
149	0x3d9406b5	0.07227842
150	0x3dabc39b	0.08386918
151	0xbe8b891c	-0.27253044
152	0xbc9e8593	-0.019350803
153	0x3d6043e5	0.05475225
154	0x3e3e5ea6	0.18590793
155	0x3ec93d76	0.39304703
156	0xbe7e65d7	-0.24843536
157	0x3eccf2b4	0.40028918
158	0xbe89003f	-0.26758
159	0xbe868dc1	-0.26280025
160	0x3df4dfb9	0.11956734
161	0x3ec1b26e	0.37831444
162	0x3e8d1d08	0.27561212
163	0xbd76064e	-0.060064606
164	0x3ecb2329	0.39675263
165	0x3e0fd50d	0.14046116
166	0xbea54670	-0.32280302
167	0xbd5cc7b1	-0.053901378
168	0xbe1d3a34	-0.15354234
169	0xbe5fafd7	-0.21844421
170	0xbdd8fbde	-0.10594915
171	0xbeaaa755	-0.3333079
172	0x3d8a5d78	0.06756109
173	0xbedb6930	-0.4285369
174	0xbed240ec	-0.41065156
175	0xbeabb86f	-0.3353915
176	0x3e265316	0.16242632
177	0xbdf7c477	-0.120980196
178	0x3e7b173b	0.2452058
179	0xbaa10ca2	-0.001228709
180	0x3edac5d3	0.42729053
181	0xbc04fcc7	-0.008116907
182	0xbeb4d205	-0.35316482
183	0x3e60e4e7	0.2196232
184	0x3e2e205a	0.17004529
185	0x3e947061	0.28991988
186	0x3eae9a28	0.34101987
187	0x3e1dd868	0.15414584
188	0x3cd2fd4b	0.025755545
189	0x3de4dc0e	0.111747846
190	0xbe5f445f	-0.21803425
191	0x3e8aa20b	0.27076754
192	0xbd24a480	-0.040195942
193	0x3e753416	0.2394565
194	0x3e367ef1	0.17821862
195	0x3ea43e91	0.32078984
196	0xbed7f110	-0.42176104
197	0x3c86d973	0.01646111
198	0x3e52b688	0.20577443
199	0xbea80e98	-0.32823634
200	0xbe081345	-0.132886
201	0xbdd5b668	-0.10435182
202	0x3c8c50de	0.017128404
203	0x3bd83649	0.006598268
204	0xbe6679b0	-0.22507358
205	0x3e3a9739	0.1822175
206	0xbe4df935	-0.20114596
207	0xbc96ae7c	-0.018393748
208	0x3e2d47a9	0.16921867
209	0xbe834432	-0.25637966
210	0xbeddbbd4	-0.43307364
211	0xbe8bc17c	-0.27296054
212	0x3ebb9660	0.36638165
213	0xbe7b901d	-0.24566694
214	0x3ed85d53	0.422587
215	0x3e15f666	0.14644775
216	0x3ebc09d0	0.36726236
217	0x3ea2cb2e	0.3179564
218	0x3e93b7cb	0.2885116
219	0xbe92a21e	-0.2863931
220	0xbe265253	-0.16242342
221	0xbe68a7b9	-0.22720231
222	0x3e49fb7e	0.19724843
223	0x3dd61f5c	0.104552
224	0x3dd6031a	0.1044981
225	0x3e47cf7e	0.19512746
226	0xbe1c859c	-0.15285343
227	0xbe2b25cf	-0.16713642
228	0xbd33dc46	-0.04391124
229	0xbe53b635	-0.20674975
230	0x3d20003d	0.039062727
231	0xbea1d54d	-0.31608048
232	0xbe2cadb9	-0.16863145
233	0x3dc0d63b	0.09415861
234	0x3df7d2c8	0.1210075
235	0x3da0fda4	0.07860878
236	0xbe14d50b	-0.14534394
237	0x3ea70f01	0.32628635
238	0xbea7579a	-0.32684022
239	0xbe7d608c	-0.24743861
240	0x3ecb93d9	0.39761236
241	0xbd3df736	-0.046378337
242	0xbd6808e1	-0.056649093
243	0x3eba23ba	0.36355382
244	0xbd807d2e	-0.06273876
245	0x3e4b8845	0.19876201
246	0x3e72e225	0.2371908
247	0x3e9617ef	0.29315135
248	0xbe01d909	-0.12680449
249	0x3c26e4ff	0.010186433
250	0x3dbff81b	0.09373494
251	0xbd817d5f	-0.06322741
252	0xbdb8eab4	-0.09029141
253	0xbdb77dab	-0.08959516
254	0x3dc9dd20	0.09856629
255	0xbaf26f64	-0.0018496332

FC2.0.bias f4 [200]
0	0x3ec696f4	0.38787043
1	0xbe9886b3	-0.29790267
2	0x3e997873	0.29974708
3	0xbda87225	-0.08224896
4	0xbe8a61d6	-0.27027768
5	0xbe9f4333	-0.31105956
6	0x3ddc292c	0.107500404
7	0xbe92cef4	-0.28673518
8	0xbd760d4f	-0.060071286
9	0x3d686ef1	0.056746427
10	0xbd7cd8d0	-0.061730206
11	0x3eb1f2a2	0.34755427
12	0xbeac5408	-0.3365786
13	0xbdbe70d2	-0.092988625
14	0x3d6cadbb	0.05778287
15	0xbe68d803	-0.22738652
16	0x3dadc59d	0.08484957
17	0x3eb003f5	0.3437802
18	0xbdb8002b	-0.08984407
19	0x3ed64975	0.41852918
20	0xbdc5f798	-0.096663654
21	0x3db50d70	0.088404536
22	0xbd44da06	-0.048059486
23	0xbec6906e	-0.38782066
24	0x3dd1fd91	0.10253442
25	0x3e866dc2	0.26255614
26	0x3e6e54a0	0.2327447
27	0xbe9a5e31	-0.30149987
28	0xbcb07fa7	-0.021545244
29	0x3e6018de	0.21884486
30	0x3e94ac5e	0.29037756
31	0x3ea26b75	0.31722608
32	0x3c880f36	0.016608816
33	0xbe09ddea	-0.1346356
34	0xbde77d6b	-0.113032185
35	0x3e3bd82d	0.18344183
36	0xbe1b6136	-0.15173802
37	0xbd27d6c0	-0.040976286
38	0xbdccae02	-0.09994127
39	0x3d44e11c	0.048066244
40	0xbe81af88	-0.25329232
41	0x3eb440bf	0.35205647
42	0xbe62e277	-0.22156702
43	0x3ebf6b83	0.37386712
44	0xbec2e921	-0.38068488
45	0xbedd970a	-0.43279296
46	0xbebe13a9	-0.37124375
47	0x3e3075a7	0.17232381
48	0x3d379018	0.044815153
49	0xbedd19ba	-0.4318369
50	0xbeaf29cb	-0.34211573
51	0x3e274ee3	0.16338687
52	0xbed94005	-0.42431656
53	0xbe0749b3	-0.13211708
54	0xbe4fa907	-0.20279323
55	0x3dd34675	0.10316173
56	0xbe9c881e	-0.305726
57	0xbeb87816	-0.36029118
58	0xb8c73bd1	-9.500201e-05
59	0xbcd62f12	-0.026145492
60	0xbea234ff	-0.31681058
61	0x3ed2333a	0.41054708
62	0x3da6fc10	0.08153546
63	0xbe9e052e	-0.30863327
64	0x3ded2cf2	0.11580838
65	0xbe4d8182	-0.20068935
66	0x3dfc364f	0.12315046
67	0xbebe6fea	-0.3719476
68	0x3e78e48b	0.24305932
69	0xbcde8f92	-0.027168069
70	0x3dcec26c	0.10095677
71	0x3da79cbb	0.08184191
72	0x3e928c88	0.28622842
73	0x3e5634ae	0.20918533
74	0x3e62ebe1	0.22160293
75	0xbcd2ac6f	-0.025716988
76	0xbe7041f0	-0.23462653
77	0x3e3ee42e	0.18641731
78	0xbece90d0	-0.40344858
79	0x3e940c1e	0.28915495
80	0xbdedeb80	-0.11617184
81	0xbe7a3adc	-0.24436516
82	0x3edc035f	0.42971322
83	0x3d875740	0.066084385
84	0x3e9abb1a	0.30220872
85	0xbddbc49e	-0.10730861
86	0x3ea5a73f	0.3235416
87	0xbee1b284	-0.4408151
88	0x3e5f3ecc	0.21801299
89	0xbddd395a	-0.108019546
90	0x3ed80d1b	0.421975
91	0x3e59f3ec	0.21284455
92	0x3d1c0558	0.038091034
93	0xbd26e1b3	-0.040742587
94	0xbe2b4869	-0.16726841
95	0x3dff91e3	0.124789976
96	0xbe851914	-0.25995696
97	0xbe2a6847	-0.16641341
98	0xbd959e96	-0.073056385
99	0x3ecafca2	0.3964587
100	0xbebe6540	-0.37186623
101	0xbd8fd922	-0.07023837
102	0x3db8ff45	0.09033064
103	0x3ed50071	0.416019
104	0xbec1ebb7	-0.3787515
105	0xbe03570e	-0.12826177
106	0xbdff9b9f	-0.12480854
107	0x3d1507b8	0.036384314
108	0x3e90807b	0.28223023
109	0x3e453a36	0.19260487
110	0xbd3db7ca	-0.046317853
111	0x3eb73b74	0.35787547
112	0x3d8cf44f	0.06882536
113	0x3e93be94	0.28856337
114	0xbdd9bd9c	-0.10631868
115	0x3e128b6e	0.14311
116	0xbc9c7c75	-0.019102314
117	0x3e4a650b	0.19765107
118	0x3e1655a9	0.14681114
119	0xbe69f270	-0.22846389
120	0x3e085551	0.13313796
121	0xbea19945	-0.31562248
122	0x3e3b38da	0.18283406
123	0x3e3c0e0e	0.18364736
124	0xbe3e02fd	-0.18555827
125	0x3e7a7366	0.24458084
126	0xbe12595c	-0.142919
127	0xbe0bc63f	-0.13649844
128	0xbed7b2ba	-0.42128545
129	0x3ec53ea4	0.38524354
130	0xbec19bff	-0.37814328
131	0x3ede989a	0.434758
132	0x3e665587	0.22493564
133	0xbed42e18	-0.41441417
134	0xbea2d9fa	-0.31806928
135	0xbde6dd11	-0.11272634
136	0x3ecc40e2	0.39893252
137	0xbe8a008f	-0.2695355
138	0xbebc210e	-0.3674397
139	0x3ce262de	0.027635034
140	0xbea81b52	-0.32833344
141	0xbe3a7ff0	-0.18212867
142	0x3e290f8e	0.1650984
143	0x3dcb90da	0.099397376
144	0x3dbf1d84	0.093318015
145	0x3e8fe553	0.28104648
146	0x3eb197d6	0.34686154
147	0xbeb1aee4	-0.34703743
148	0xbe9b9c82	-0.30392843
149	0xbcf0b3c6	-0.029382598
150	0xbe949ee8	-0.29027486
151	0xbe1826cf	-0.14858554
152	0xbd6558cb	-0.055992883
153	0x3eb62df0	0.35581923
154	0xbea20a89	-0.31648663
155	0xbeb78bc8	-0.35848832
156	0x3e2acdb3	0.1668003
157	0xbe963f7f	-0.2934532
158	0x3deb97bb	0.1150355
159	0x3eb30a99	0.34969023
160	0xbeb08183	-0.3447381
161	0x3d611d16	0.05495938
162	0x3d6cdb56	0.057826363
163	0xbe172f0a	-0.14764038
164	0xbeb53006	-0.353882
165	0x3ed341bf	0.41261098
166	0x3dcf043a	0.10108228
167	0x3e260afc	0.16215128
168	0xbdc4e395	-0.0961372
169	0xbe533c01	-0.20628358
170	0x3ede7531	0.43448785
171	0x3d7bcfe7	0.061477568
172	0x3ed1588b	0.40887865
173	0x3ee21469	0.44156197
174	0x3df5bd56	0.119990036
175	0x3e91d4bc	0.28482616
176	0xbe9a3ada	-0.30123025
177	0xbeb6d3cf	-0.35708472
178	0x3e1be57d	0.15224262
179	0x3d2e640e	0.04257589
180	0x3e72d06c	0.23712319
181	0x3da037e2	0.07823159
182	0xbb6c1705	-0.0036024463
183	0xbed32ea3	-0.41246518
184	0xbd552c4d	-0.0520442
185	0xbeb4c71a	-0.35308152
186	0xbe6f086b	-0.23343055
187	0xbca7ae75	-0.02046893
188	0xbe727a95	-0.23679574
189	0x3bb7da3f	0.0056107338
190	0xbe01381b	-0.12619059
191	0xbe8d45c7	-0.27592298
192	0xbd1914f5	-0.0373735
193	0xbe8629ad	-0.2620367
194	0xbecf5b48	-0.4049933
195	0x3d638f34	0.05555649
196	0x3ea37367	0.31923983
197	0x3e945dcf	0.2897782
198	0x3e0973a6	0.13423023
199	0xbe58faf2	-0.21189478

FC2.2.weight f4 [2, 200]
0	0x3d4545c2	0.04816223
1	0x3d2b4ab7	0.0418193
2	0x3c6266bc	0.013818439
3	0x3d1867c3	0.03720833
4	0x3d8fca62	0.07021023
5	0xbd1d23b0	-0.038364112
6	0x3ccc041d	0.024904305
7	0xbce7ab40	-0.0282799
8	0x3bcd19cb	0.0062591783
9	0xbc5284b6	-0.012849024
10	0xbcc0dcd0	-0.023542792
11	0x3c48f8ef	0.012266382
12	0xbd8831b7	-0.06650107
13	0x3d7e3b96	0.062068544
14	0x3ca4c2d0	0.020112425
15	0x3d7266b4	0.059179977
16	0xbd34032c	-0.043948337
17	0xbd4db0fd	-0.050217617
18	0xbd84163a	-0.06449552
19	0x3b9d2439	0.004795578
20	0x3cc3d1a5	0.023903677
21	0x3caa2810	0.020771056
22	0xbae472d4	-0.0017429241
23	0x3b89ba8a	0.0042031454
24	0x3d2eaca6	0.04264512
25	0xbcc98fbf	-0.024604676
26	0xbc3abd62	-0.011397691
27	0xbcdec6fa	-0.027194489
28	0xbd790a3a	-0.06080077
29	0x3d128f72	0.03578133
30	0x3d6e8063	0.058227908
31	0x3b485195	0.0030566205
32	0x3d5f2a94	0.054483965
33	0x3c80f08b	0.0157397
34	0x3d309e98	0.043119997
35	0x3d843abe	0.06456517
36	0xbd39ca9f	-0.04535925
37	0x3c948d55	0.018133799
38	0xbd09a3e8	-0.03360358
39	0xbcefdf48	-0.029281273
40	0x3c100636	0.008790543
41	0xbceb6003	-0.028732305
42	0xbcb7038e	-0.022340562
43	0xbbe3b8a3	-0.0069495006
44	0x3d0d1d58	0.034451813
45	0x3a969777	0.0011489232
46	0x3ce58e8d	0.028022075
47	0xbd8f1e3e	-0.0698819
48	0x3d00239e	0.031283967
49	0xbd1a7339	-0.03770754
50	0xbcf0483b	-0.029331317
51	0xbd382c99	-0.044964407
52	0xbd0388e1	-0.03211296
53	0xbd769fa3	-0.060210835
54	0x3d83bb38	0.064321935
55	0xbc8ea2f2	-0.017411683
56	0xbc79be14	-0.015243072
57	0xbd8b2abc	-0.0679526
58	0x3c4176e5	0.011808132
59	0x3d1de253	0.038545918
60	0x3d72b44d	0.05925398
61	0x3d4b1736	0.049582683
62	0xb80288cd	-3.112182e-05
63	0x3d1900bb	0.037354212
64	0x3d3e15b3	0.046407413
65	0x3b06f41c	0.0020592278
66	0x3d531e5e	0.051542632
67	0x3c2d964e	0.010594917
68	0xbcb2385e	-0.021755394
69	0xbd7078e5	-0.058709044
70	0xbc794a14	-0.0152154155
71	0x3d843966	0.064562604
72	0x3d7abbf9	0.06121442
73	0xbd87febd	-0.06640384
74	0x3d4ce441	0.050022367
75	0xbd087e5d	-0.033323634
76	0x3cf452ce	0.02982464
77	0x3cb48647	0.022036685
78	0xbd0950d3	-0.033524346
79	0xbd6cf3fd	-0.057849873
80	0x3d6ca89c	0.057777986
81	0xbcf4663e	-0.02983391
82	0xbc34c856	-0.011034092
83	0x3d57a0bf	0.052643534
84	0xbca5a759	-0.0202214
85	0x3d24eb57	0.0402635
86	0xbd8d3d8e	-0.06896506
87	0xbd15deb0	-0.036589324
88	0xbd0117cd	-0.03151684
89	0x3a669b0b	0.0008796907
90	0xbca89f04	-0.020583637
91	0x3d7403ba	0.059573866
92	0xbd5b0416	-0.053470694
93	0xbc7a444c	-0.015275072
94	0xbcf0df7b	-0.029403439
95	0xbd407ab7	-0.04699203
96	0x3cb40b61	0.021978082
97	0xbd825001	-0.06362916
98	0x3c811ff6	0.01576231
99	0xbc4f4f74	-0.01265322
100	0xbc8dc41e	-0.01730543
101	0xbd8ffa0b	-0.07030114
102	0x39585af8	0.00020633254
103	0xbc0823c2	-0.008309307
104	0x3d4ad61d	0.0495206
105	0xbd389258	-0.04506144
106	0xbd2de9ce	-0.0424593
107	0x3d2a9288	0.04164365
108	0x3d10e66c	0.035375997
109	0x3b29ede2	0.0025929143
110	0xbcd26711	-0.025683912
111	0x3d7368ad	0.059426
112	0xbd81274d	-0.06306324
113	0x3d36ac6a	0.04459802
114	0xba728128	-0.0009250813
115	0x3d124a8e	0.035715632
116	0xbd5f8f73	-0.054580163
117	0x3ca42fa5	0.02004225
118	0x3d851784	0.06498626
119	0x3d78b858	0.06072268
120	0x3c3f8501	0.011689425
121	0x3b88fb8c	0.0041803773
122	0xbd52a0f3	-0.051423024
123	0x3d2c9b92	0.04214055
124	0x3d627c82	0.05529452
125	0xbd068ae6	-0.032847308
126	0xbd128c8b	-0.035778563
127	0xbc58207e	-0.0131913405
128	0x3d69ef83	0.05711318
129	0x3d15378f	0.036429938
130	0x3b6c33d1	0.0036041627
131	0xbd0ab7ca	-0.03386668
132	0xbcfa1697	-0.03052835
133	0xbbf67b62	-0.0075220326
134	0x3cb59ecd	0.022170449
135	0xbd44c7a2	-0.048041947
136	0xbc4fc2e8	-0.012680747
137	0x3d0a1a7e	0.03371667
138	0xbcdf9960	-0.027294815
139	0x3d2076f4	0.039175943
140	0xbd7a1fb9	-0.06106541
141	0xbd6ef77f	-0.0583415
142	0xbd27a493	-0.040928435
143	0xbd4070e6	-0.04698267
144	0x3c43a35b	0.011940802
145	0x3d8a6380	0.06757259
146	0x3c108171	0.008819924
147	0xbcff7158	-0.031181976
148	0xbabf2d20	-0.0014585592
149	0xbd5cdc16	-0.053920828
150	0xbd0da234	-0.034578517
151	0xbc9e676d	-0.019336427
152	0xbcd09c3b	-0.025465121
153	0xbd4abc37	-0.049495902
154	0x3caed286	0.02134062
155	0x3d37bd91	0.04485852
156	0x3b49e154	0.0030804472
157	0xbbf9872f	-0.007614992
158	0xbaedc233	-0.0018139541
159	0xbd40996a	-0.047021307
160	0x3c588bf0	0.013216957
161	0x3d4f5b03	0.050623905
162	0xbd4b6c39	-0.049663756
163	0xbd581ab4	-0.05275984
164	0xbca30764	-0.019900985
165	0x3d82e6ca	0.06391676
166	0x3d79d756	0.060996376
167	0x3b93df65	0.0045127147
168	0x3c184700	0.0092942715
169	0x3b343906	0.002749981
170	0x3a1b1285	0.00059155404
171	0xbcc541ad	-0.024079168
172	0xbd8b1533	-0.06791153
173	0x3d784c36	0.060619555
174	0x3ce3b9ff	0.02779865
175	0x3d8f671f	0.07002091
176	0x3d3e6174	0.046479657
177	0x3d8c297c	0.0684385
178	0xbcdae53d	-0.026720637
179	0x3aa7b745	0.0012795707
180	0x3d82900c	0.06375131
181	0x3ccf2067	0.025284005
182	0x3d820fff	0.06350707
183	0xbcda5081	-0.026649715
184	0xbc148eed	-0.009067279
185	0xbcd9a985	-0.026570091
186	0xbbb2e195	-0.0054590204
187	0xbd86aebd	-0.065762974
188	0x3cf000e9	0.029297309
189	0x3d7608e0	0.060067058
190	0x3d865ef0	0.06561077
191	0x3d8e3232	0.06943168
192	0x3d630ab1	0.055430118
193	0x3cad7a20	0.021176398
194	0xbbcbb24d	-0.0062163235
195	0x3c72a097	0.014808795
196	0x3d42bd9b	0.047544103
197	0x3c5f3ba8	0.013625063
198	0xbd45a5e9	-0.048253927
199	0x3d82ed0f	0.063928716
200	0xba9fa9cd	-0.0012181342
201	0xbd8aeb81	-0.067832
202	0x3d1972ce	0.037463002
203	0xbd1484b3	-0.036259364
204	0xbc487443	-0.01223475
205	0xbd725d85	-0.05917122
206	0x3cc20da8	0.023688152
207	0x3d7ec3a3	0.062198292
208	0x3cd095f7	0.025462134
209	0xbd45b13a	-0.04826472
210	0xbd8352cf	-0.06412279
211	0x3c165063	0.009174439
212	0x3ce200df	0.027588306
213	0xbba40db1	-0.005006515
214	0x3c6c6bcc	0.014429998
215	0x3c388bf1	0.011263833
216	0x3d23dd64	0.040006056
217	0xbd3775a8	-0.04478994
218	0xbd30d8e9	-0.04317561
219	0xbd319690	-0.04335648
220	0x3be3f370	0.0069565102
221	0xbd228836	-0.039680682
222	0xbd8432a5	-0.06454972
223	0xbd9044b1	-0.07044352
224	0x3d875872	0.066086665
225	0xbd8bc56a	-0.06824763
226	0x3d30f2f9	0.043200467
227	0xbd82cc2e	-0.063866004
228	0x3d8bec81	0.06832219
229	0xba83633c	-0.0010024081
230	0xbd86bd53	-0.065790795
231	0xbd49a4e2	-0.04922951
232	0x3d8795e1	0.06620384
233	0xbbffe71d	-0.0078095333
234	0xbc2d0081	-0.010559202
235	0x3c7502c6	0.0149542745
236	0xbd8a27ab	-0.06745847
237	0xbd5730de	-0.052536838
238	0x3d82a777	0.06379598
239	0xbd1e1f9c	-0.038604364
240	0xbd27a4b7	-0.04092857
241	0xbb94a4ca	-0.004536246
242	0xbd830a13	-0.06398406
243	0xbd3c3e53	-0.045957875
244	0xbd5b0f8e	-0.05348163
245	0x3d8f8906	0.07008557
246	0xbd029a7c	-0.03188561
247	0x3d684367	0.056704905
248	0xbc9b1d6d	-0.01893493
249	0xbbaeff76	-0.005340512
250	0x3cc61b19	0.024182843
251	0x3d33f412	0.043933935
252	0xbd82e243	-0.06390812
253	0x3d727d6f	0.059201654
254	0xbc4d7b27	-0.012541569
255	0x3d00cde2	0.031446345

FC2.2.bias f4 [2]
0	0xbd6f5283	-0.0584283
1	0xbd5f4eeb	-0.05451862

FC3.0.weight f4 [4, 3]
0	0xbf06c17a	-0.5263897
1	0x3e4dbe7e	0.20092198
2	0x3e028260	0.12745047
3	0x3e2454bc	0.16047949
4	0xbe15e568	-0.14638293
5	0xbe9af8e9	-0.30268028
6	0x3dccbc38	0.099968374
7	0xbee8c0bf	-0.45459554
8	0xbedfdad2	-0.43721634
9	0x3cc5d7ad	0.024150694
10	0xbf033c63	-0.5126402
11	0xbea72fc4	-0.3265363

FC3.0.bias f4 [4]
0	0xbdd8cd5e	-0.10586046
1	0xbeb7c74f	-0.35894248
2	0xbe01f8c9	-0.1269256
3	0x3eec553a	0.46158773

FC4.0.weight f4 [4, 8]
0	0x3ea8da87	0.32979223
1	0x3c341c27	0.01099304
2	0x3d26b3e3	0.040698897
3	0x3e88c5e1	0.2671347
4	0xbe2f8223	-0.17139487
5	0xbe0f355b	-0.13985197
6	0x3c8b4ca2	0.017004315
7	0x3c7e08cd	0.015505028
8	0xbdcc156c	-0.099650234
9	0xbdcb0a94	-0.09914127
10	0xbe837948	-0.25678468
11	0x3e905df5	0.28196684
12	0xbd087e2b	-0.03332345
13	0xbe880f5b	-0.26574215
14	0xbdae9ced	-0.08526025
15	0xbdf21aa3	-0.11821487
16	0x3d81aa66	0.06331329
17	0x3e228bc2	0.15873626
18	0xbdd0f74b	-0.102034174
19	0xbd8e615a	-0.06952162
20	0xbe15faa1	-0.14646389
21	0x3df7f72a	0.1210769
22	0x3db89fb9	0.0901484
23	0xbdcbe0fa	-0.0995502
24	0xbceb0ced	-0.028692687
25	0x3e8a1023	0.26965436
26	0xbe9a28cc	-0.3010925
27	0x3d8c0eec	0.068387836
28	0xbe029c08	-0.12754834
29	0xbde7880e	-0.11305247
30	0xbe28941e	-0.16462752
31	0xbdfe760c	-0.124248594

FC4.0.bias f4 [4]
0	0x3ead9d7b	0.3390921
1	0x3c7cd203	0.01543093
2	0x3e3d1821	0.18466236
3	0x3eb13659	0.34611776

FC5.0.weight f4 [10, 2]
0	0x3ea8b4e3	0.32950506
1	0xbec25b83	-0.37960443
2	0x3f0b9252	0.5452014
3	0x3e6abca7	0.22923528
4	0xbf1572df	-0.58378404
5	0xbe15ea57	-0.14640175
6	0x3d897d1c	0.06713316
7	0xbf22a38e	-0.63530815
8	0x3ee16d9b	0.44028935
9	0x3f21c900	0.63197327
10	0xbf1067eb	-0.56408566
11	0x3f0880ee	0.5332173
12	0x3f32a63f	0.6978492
13	0xbf194900	-0.59877014
14	0x3d365542	0.044514902
15	0x3e97069c	0.2949723
16	0x3ee50229	0.4472821
17	0xbe0122e4	-0.12610966
18	0x3f1658f8	0.58729506
19	0x3e2703c7	0.16310035

FC5.0.bias f4 [10]
0	0xbef1837c	-0.47170627
1	0x3e314ed2	0.17315224
2	0xbe6447b7	-0.22292982
3	0x3e8db5d4	0.27677786
4	0x3df198c7	0.11796718
5	0x3e01a989	0.12662329
6	0x3f2b2df5	0.66867
7	0xbe8c3cb3	-0.2739006
8	0x3ee9546b	0.45572218
9	0xbeb5bda1	-0.35496238

FC6.0.weight f4 [10, 2]
0	0x3da5422f	0.08069264
1	0xbf1a36c8	-0.6023984
2	0x3eb1ba67	0.34712526
3	0x3f2a142f	0.6643705
4	0xbf038477	-0.51374
5	0xbee17656	-0.44035596
6	0x3f2309e4	0.63686967
7	0xbf0f58b6	-0.5599474
8	0x3dce423a	0.100712255
9	0x3e6699a4	0.22519547
10	0xbeff4e3d	-0.4986438
11	0x3ef4bbed	0.47799626
12	0xbe5c2195	-0.21497186
13	0xbe281093	-0.16412573
14	0x3d894d7f	0.06704234
15	0xbeb3d34c	-0.35122144
16	0x3f3066f8	0.6890712
17	0xbe502147	-0.20325194
18	0xbf0c3c17	-0.5477919
19	0xbe97702b	-0.29577765

FC6.0.bias f4 [10]
0	0x3f1b17f4	0.60583425
1	0xbc4939cf	-0.012281849
2	0xbe171cc1	-0.14757062
3	0x3e6b3c8b	0.22972314
4	0x3e2b918e	0.16754743
5	0x3f29f3bb	0.6638753
6	0xbecf29a3	-0.40461454
7	0x3ef2dd05	0.4743425
8	0xbb299e72	-0.0025881794
9	0x3e02c315	0.1276973

FC7.0.weight f4 [10, 2]
0	0xbe6e0f45	-0.23248012
1	0x3ed99676	0.42497605
2	0x3f12e2c2	0.57377255
3	0xbeca5bac	-0.39523065
4	0x3ec56af9	0.38558176
5	0xbea8e337	-0.3298585
6	0xbd9b6a84	-0.075886756
7	0xbf19d3ce	-0.60088813
8	0xbeb743fc	-0.35794055
9	0x3ee6d36f	0.45083186
10	0x3e8fa677	0.2805669
11	0x3ecffd97	0.4062316
12	0xbf1b42df	-0.6064891
13	0x3f076a3f	0.52896494
14	0x3ecad1be	0.39613146
15	0xbea913f3	-0.33023033
16	0x3e05de68	0.13073123
17	0x3ec91255	0.392718
18	0x3ec7c7b2	0.39019543
19	0x3e30022b	0.17188327

FC7.0.bias f4 [10]
0	0x3f351210	0.70730686
1	0x3e6dc156	0.23218283
2	0x3cf1d9bd	0.029522771
3	0x3f0320ed	0.51222116
4	0xbf0250cf	-0.50904554
5	0x3e5c2226	0.21497402
6	0xbeb4a246	-0.35280055
7	0x3f27dbe2	0.6556989
8	0x3ec14aee	0.3775248
9	0x3e23b0b4	0.15985376
